data/Wildfire/Poly/seed=170/Wildfire.pth (torch, 10080 bytes, 21 tensors)

f1_fc1.weight f4 [5, 2]
0	0xbe0d88e8	-0.13821757
1	0x400e09bb	2.219344
2	0x3e4c599e	0.19956061
3	0xbdbe06c9	-0.09278638
4	0xbda53b98	-0.08068007
5	0xbb1c2224	-0.002382406
6	0x3dc203a3	0.0947335
7	0x3f389653	0.72104377
8	0xbbf3720f	-0.0074293683
9	0x3c8c1fea	0.017105062

f1_fc1.bias f4 [5]
0	0xc137df6d	-11.492047
1	0x3fc9585e	1.5730093
2	0x410cfe6c	8.812115
3	0xbea5cd9d	-0.32383433
4	0xc0bc57f0	-5.8857346

f1_fc2.weight f4 [10, 5]
0	0x3eacb6dc	0.3373326
1	0x3ee71986	0.4513666
2	0x401196c6	2.2748275
3	0xbe862292	-0.2619825
4	0xbd446b81	-0.047954086
5	0xbf078479	-0.5293651
6	0xbc3684b7	-0.01114004
7	0x4065c43d	3.5901024
8	0x3c8e329b	0.017358115
9	0xbef7edc6	-0.48423594
10	0x3ea86da8	0.3289616
11	0xbf3f637b	-0.7476117
12	0xbfb7b02c	-1.4350638
13	0x3f964b26	1.1741683
14	0x401d1b4b	2.4547908
15	0xbf0124a5	-0.5044654
16	0x3ed3ab21	0.41341498
17	0x40bfff66	5.9999266
18	0xbec63f29	-0.38720062
19	0xbdf01f45	-0.11724714
20	0xc0a6a5a2	-5.207719
21	0x3e8a608c	0.27026784
22	0xc0518696	-3.2738395
23	0xbf05bce0	-0.52241325
24	0x40494d21	3.1453326
25	0x3f70287c	0.93811774
26	0x3d556bba	0.05210469
27	0x3e72a22c	0.23694676
28	0x3e1bb1c9	0.15204538
29	0x3f1f6229	0.62259156
30	0x3f5a505f	0.85278887
31	0x3dd56074	0.104187876
32	0xc0173678	-2.3626995
33	0xb86dcdb2	-5.6696772e-05
34	0x3f1d3608	0.6141057
35	0x3f4ed8c2	0.80799496
36	0x3e54766e	0.20748302
37	0x3ff6e390	1.9288197
38	0x3c98c016	0.018646281
39	0x404bebb6	3.1862617
40	0xc0d25740	-6.5731506
41	0xbf8178a4	-1.0114942
42	0xc02db922	-2.7144246
43	0xbed89417	-0.42300484
44	0xc15422ee	-13.258528
45	0x3edc84ac	0.4306997
46	0xbf061c59	-0.52387005
47	0xc0684646	-3.6292892
48	0xbd383e4c	-0.044981286
49	0xc0b37542	-5.6080637

f1_fc2.bias f4 [10]
0	0x3dc8cb88	0.098044455
1	0x403779e1	2.866814
2	0xc0d64e77	-6.697078
3	0x3f88fc2c	1.0701957
4	0xbf968cbc	-1.1761699
5	0xbf57019b	-0.83986825
6	0xbf8a5d91	-1.0809804
7	0x40316e6e	2.772365
8	0x40cce104	6.4024677
9	0x40540e0b	3.313357

f1_fc3.weight f4 [5, 10]
0	0xbf338ca3	-0.7013647
1	0xbedce93f	-0.43146703
2	0x40816258	4.043255
3	0xbea0557b	-0.31315216
4	0xbd40970f	-0.04701906
5	0xc08a55ce	-4.322974
6	0xc02e070e	-2.7191806
7	0x3f8c08e1	1.094021
8	0xc09428c4	-4.6299763
9	0xc0a5bf1f	-5.17958
10	0xbc350d71	-0.011050568
11	0xbf18ce59	-0.5968986
12	0x3f84f9f1	1.0388776
13	0xbfc37f91	-1.5273305
14	0xbfc2f5eb	-1.5231298
15	0xbe7fba42	-0.24973395
16	0xbf15bafc	-0.5848844
17	0xbd90cb44	-0.0707002
18	0xbfabbb7e	-1.3416593
19	0xbefd6473	-0.494907
20	0xbee84739	-0.4536684
21	0xbf58f12b	-0.84742993
22	0xbf121f97	-0.5707945
23	0x3f095a19	0.53653103
24	0xbebf681d	-0.3738412
25	0xbc2fb212	-0.010723608
26	0x3dd6093c	0.1045098
27	0x3d4c4d03	0.04987813
28	0xc0195094	-2.395543
29	0x3f6e17a0	0.930048
30	0xbf0d3641	-0.5516091
31	0xbf8ebc60	-1.1151237
32	0xbf00ed5b	-0.50362176
33	0xbd6fc90b	-0.05854134
34	0x3f03536a	0.51299155
35	0x3e830c6f	0.25595424
36	0x3e0db9bd	0.13840385
37	0xbcb1af2d	-0.021689976
38	0xc01b63ee	-2.4279742
39	0x3eb18a95	0.34676042
40	0xbde8a978	-0.113604486
41	0xbeeb579c	-0.45965278
42	0xbf8a5e37	-1.0810002
43	0x3ebbf26b	0.36708388
44	0xbe0fd77b	-0.14047043
45	0x3f7808b3	0.96888274
46	0x3e75b1a9	0.23993553
47	0xbf776a3e	-0.9664649
48	0xbff785d4	-1.9337716
49	0x3f81d785	1.0143896

f1_fc3.bias f4 [5]
0	0xbd4a007f	-0.04931688
1	0xbfe500ff	-1.7890929
2	0x3e69b500	0.22822952
3	0x3d0b7bd5	0.034053642
4	0xbeef0001	-0.4667969

f1_fc4.weight f4 [1, 5]
0	0xbf3b1907	-0.73085064
1	0xbe8e1e17	-0.27757332
2	0x3eaa87cb	0.33306727
3	0x3bb80a5e	0.0056164702
4	0xbe7c96a4	-0.2466684

f2_fc1.weight f4 [5, 2]
0	0x3e57a517	0.2105907
1	0x3b7df582	0.003875107
2	0x3e70ec79	0.23527707
3	0x398c8b2a	0.00026806566
4	0x3c283958	0.010267578
5	0xbcd9a4a4	-0.026567765
6	0xbbfe94d5	-0.007769207
7	0x3f60c535	0.87800914
8	0x3e02c872	0.12771776
9	0x3d504b77	0.05085322

f2_fc1.bias f4 [5]
0	0xc1a0147e	-20.010006
1	0xc1ba2d8c	-23.27224
2	0x3f1b2406	0.6060184
3	0xc152e834	-13.18169
4	0xc10cc080	-8.796997

f2_fc2.weight f4 [10, 5]
0	0x4013b756	2.308065
1	0xbfd60dff	-1.6723021
2	0x405016ed	3.2513993
3	0xc0b93357	-5.787517
4	0xc016539d	-2.3488533
5	0x3f93c194	1.154345
6	0xbf8b5af5	-1.0887133
7	0x3e09100c	0.13385028
8	0xbbac4b88	-0.0052580275
9	0x3e4e624c	0.20154685
10	0x3ec774cf	0.38956305
11	0xc00e323e	-2.2218165
12	0xbfad51a5	-1.3540541
13	0xc0690140	-3.6407013
14	0xbf6a665b	-0.9156243
15	0xbfa15597	-1.2604245
16	0x3f2903bb	0.6602132
17	0xbcc1d5dd	-0.023661548
18	0x3ea4b56f	0.32169673
19	0x3ecd6d9b	0.40122685
20	0x3f742bec	0.9537952
21	0xc095fe18	-4.6872673
22	0x3e949ad1	0.29024366
23	0xbc1fa00e	-0.00974275
24	0xc02a299d	-2.6587899
25	0x3db9cbef	0.090721
26	0xbf71e00c	-0.94482493
27	0x3d0691a9	0.032853756
28	0x3eb4231b	0.35183033
29	0xbf4743fe	-0.7783812
30	0xbfb42333	-1.4073242
31	0xc074151d	-3.8137887
32	0x3ef18e59	0.47178915
33	0x3c5805ac	0.013184946
34	0xbdc3e7f7	-0.09565728
35	0x408e7bb9	4.452603
36	0xc0c0ad8f	-6.0211864
37	0x3ff5d0d7	1.9204358
38	0xc08dafd6	-4.4277143
39	0xbef7fd17	-0.4843528
40	0xbfb13d74	-1.3846879
41	0x3c1012f9	0.008793586
42	0xbf086de8	-0.53292704
43	0xc096fbad	-4.718222
44	0xbfac58e7	-1.3464631
45	0x3f0b9bb0	0.54534435
46	0xc03c3002	-2.9404302
47	0x3efd600e	0.49487346
48	0xbf2eb3fd	-0.6824339
49	0xc0cbf56a	-6.373708

f2_fc2.bias f4 [10]
0	0xc09f37d4	-4.975565
1	0x40856ce7	4.1695437
2	0xbe56dd57	-0.20982872
3	0xbe591e74	-0.21203023
4	0x3fea034d	1.8282257
5	0x3f3607c3	0.71105593
6	0x4025f014	2.5927782
7	0xc04ce9b7	-3.2017648
8	0xbfa0556d	-1.252607
9	0x40c58196	6.1720686

f2_fc3.weight f4 [5, 10]
0	0xbe702e88	-0.2345525
1	0xbfc1b3b8	-1.5132971
2	0x3fba1a80	1.4539337
3	0xc00d1303	-2.2042854
4	0x4045b23f	3.0890043
5	0xbf2045a6	-0.62606275
6	0x3de57c3d	0.11205337
7	0x3f8599d1	1.0437566
8	0xc077217f	-3.8614194
9	0xbfc36776	-1.5265949
10	0xbfcba066	-1.5908325
11	0xbf6ac60e	-0.9170846
12	0xbf9281d8	-1.1445875
13	0xbcf9cd1d	-0.030493313
14	0x3fbf1d46	1.4930809
15	0xbb63998d	-0.0034728975
16	0xbd59e52e	-0.05319708
17	0x3e6e4520	0.23268557
18	0xbfec97fb	-1.8483881
19	0xbf2ae9e5	-0.66763145
20	0xbe32c6e4	-0.17458683
21	0xbe4e1f15	-0.20129044
22	0x3e9a8504	0.30179608
23	0x3f861d7a	1.0477746
24	0xbf4114a8	-0.75422144
25	0x3e571840	0.21005344
26	0xbdbb1281	-0.09134389
27	0xbeb73bb3	-0.35787734
28	0xc01dc6b9	-2.465254
29	0x3ea0d786	0.3141443
30	0xbf5fc5df	-0.874113
31	0xbf3aefcd	-0.73022157
32	0x3d2ee988	0.04270318
33	0xbf57f554	-0.84358716
34	0x3bf0b1b0	0.0073454008
35	0x3f3d029e	0.7383212
36	0x3e808cc4	0.25107396
37	0x3e440724	0.19143349
38	0xbfce2e8b	-1.6107954
39	0xbe3e2405	-0.18568428
40	0xbdb62d5a	-0.08895369
41	0xbcae9c13	-0.021314656
42	0xbf968e28	-1.1762133
43	0x3f894211	1.0723287
44	0xbfb9b3ef	-1.4508036
45	0x3e5c52b9	0.21515931
46	0x3c44748d	0.0119906785
47	0xbeb10254	-0.3457209
48	0x3f97b9e8	1.1853609
49	0x3f02b8fd	0.5106352

f2_fc3.bias f4 [5]
0	0xbfda530c	-1.7056594
1	0x3f7ebc55	0.9950612
2	0xbeafc0b8	-0.3432672
3	0xbf0e1473	-0.55499953
4	0x3e9d777e	0.30755228

f2_fc4.weight f4 [1, 5]
0	0xbfbba6c2	-1.4660265
1	0xbe7fc483	-0.24977307
2	0xbf1c99e3	-0.6117231
3	0x3ff77495	1.9332453
4	0x3f1843bb	0.5947835

f3_fc1.weight f4 [5, 2]
0	0x3c7b30ed	0.015331489
1	0x3f311c11	0.6918345
2	0x3f3fcf38	0.74925566
3	0x3f07f5ea	0.5310961
4	0xbd04de6e	-0.032438688
5	0xbd079f9f	-0.03311121
6	0x3fa97f40	1.3241959
7	0xbe3f1543	-0.18660454
8	0xbc5cb7a1	-0.013471515
9	0xbeeaa190	-0.45826387

f3_fc1.bias f4 [5]
0	0x403bdab9	2.9352248
1	0xc03e1cf5	-2.9705174
2	0x3fa07946	1.253701
3	0xc00176fd	-2.0228875
4	0xc017f833	-2.3745239

f3_fc2.weight f4 [10, 5]
0	0xbe869c93	-0.26291332
1	0x3ebcd922	0.3688441
2	0x3efac2ea	0.48976833
3	0x3ecb8197	0.39747307
4	0x3e7ccf11	0.24688365
5	0x3ddf3282	0.108983055
6	0xbe4dc4e4	-0.20094639
7	0xc0858ad7	-4.173198
8	0x3ead6c37	0.33871624
9	0xc0818526	-4.0475035
10	0x3d66528f	0.056231078
11	0x3e7de676	0.24794945
12	0xbf00acc0	-0.50263596
13	0xbe154c22	-0.14579824
14	0xbe971efe	-0.29515833
15	0xbb85a24b	-0.0040781847
16	0x3e68cc64	0.22734219
17	0xbcddbba6	-0.027067017
18	0xbdf27c14	-0.11840072
19	0x3e935b59	0.2878063
20	0xbc439de8	-0.011939503
21	0xbc94c1f6	-0.018158894
22	0x3f3b7b31	0.7323485
23	0x3bbd8fb1	0.0057849516
24	0xbf0a6180	-0.54055023
25	0x3cbd3d0d	0.0231004
26	0x3eaea2d0	0.3410859
27	0x3eac0e05	0.33604446
28	0x3dc6df32	0.0971054
29	0xbf405925	-0.75136024
30	0x3da7c326	0.081915185
31	0xbdc69980	-0.096972466
32	0x400d1c05	2.2048352
33	0x3de12df0	0.1099509
34	0x40125e1b	2.2869937
35	0x3e6d954f	0.23201488
36	0xbcf4afe8	-0.029869035
37	0xbf52d095	-0.8234952
38	0xbf2dec3c	-0.6793859
39	0xbeb8f816	-0.36126775
40	0xbda7ac19	-0.08187122
41	0xbda8bb14	-0.08238807
42	0xbf7a3c44	-0.9774821
43	0x3f21b234	0.6316254
44	0xbfd890b6	-1.6919162
45	0xbe913672	-0.2836185
46	0x3eb3e80f	0.35137984
47	0x4003676b	2.0531871
48	0x3e9117c8	0.28338456
49	0x40239a5b	2.556296

f3_fc2.bias f4 [10]
0	0xbf003346	-0.5007824
1	0x408bc130	4.3673325
2	0x3e81e30c	0.25368536
3	0xbd8b8b25	-0.06813649
4	0x3e7e9022	0.2485967
5	0xbed593d9	-0.4171436
6	0xc0d034e4	-6.5064564
7	0x3f04a992	0.51821244
8	0x3fba6ffc	1.4565425
9	0xbfacade6	-1.349057

f3_fc3.weight f4 [5, 10]
0	0xbe67880f	-0.22610496
1	0x3e85b0b9	0.2611139
2	0x3e914b5a	0.283778
3	0x3e7ea3f7	0.24867235
4	0x3c1e811a	0.009674335
5	0xbe576365	-0.2103401
6	0x3e4cd8dc	0.200046
7	0x3e168d43	0.14702325
8	0x3e1bb106	0.15204248
9	0x3d7d2c0a	0.061809577
10	0xbe831362	-0.25600725
11	0x3f84042f	1.0313777
12	0xbcc49dad	-0.024000967
13	0x3e8611ca	0.26185447
14	0xbf4cfb9c	-0.80071425
15	0x3e2452c7	0.16047202
16	0xbf0cfb00	-0.55070496
17	0xbe5cfa70	-0.2157991
18	0xbe2eb6ae	-0.17061874
19	0xbeaa062b	-0.3320783
20	0xbda0085f	-0.07814097
21	0x3f6f1a83	0.9339983
22	0x3e147fe6	0.14501914
23	0x3db2d68e	0.08732329
24	0xbf129c84	-0.57270074
25	0xbe2e4ba5	-0.17021044
26	0xbf24eeb1	-0.64426714
27	0xbd19fc28	-0.03759399
28	0xbf00421c	-0.50100875
29	0x3e42a736	0.19009098
30	0xbe422a89	-0.18961538
31	0xbe8eeabe	-0.2791347
32	0x3d09264a	0.03348378
33	0x3cb59b2d	0.02216872
34	0x3e554194	0.20825797
35	0x3e7e88d9	0.2485689
36	0xbc7cf4b3	-0.0154392
37	0x3dfd25df	0.12360739
38	0x3f07c8db	0.53040856
39	0xbeefa1d7	-0.46803162
40	0x3d32ba50	0.043634713
41	0x3f0be75f	0.5464992
42	0x3ddb0887	0.10694986
43	0x3c92a2b8	0.017899856
44	0xbd54a8e3	-0.051918875
45	0xbe5ddaa0	-0.2166543
46	0xbf74b84d	-0.9559372
47	0x3de0ec27	0.109825425
48	0xbeead254	-0.45863593
49	0x3e8fd68a	0.28093368

f3_fc3.bias f4 [5]
0	0xbec3a237	-0.38209698
1	0x3eb70657	0.35747024
2	0x3f1dfb00	0.6171112
3	0x3d503126	0.05082812
4	0x3f082217	0.53177017

f3_fc4.weight f4 [1, 5]
0	0x3ea8516c	0.3287462
1	0x3f33d386	0.70244634
2	0xbfc438b1	-1.5329801
3	0xbef58c62	-0.47958666
4	0x3f7837b8	0.9696002
