data/Wildfire/Poly/seed=173/Wildfire.pth (torch, 10080 bytes, 21 tensors)

f1_fc1.weight f4 [5, 2]
0.32075426 1.2712522 0.12987469 0.33643875 -0.091704965 0.13659182 -0.0017594195 0.62123203
0.057436034 -0.061055746
00000000: e739 a43e 64b8 a23f dffd 043e b341 ac3e
00000010: d0cf bbbd bade 0b3e 529c e6ba 1009 1f3f
00000020: 0c42 6b3d 9715 7abd

f1_fc1.bias f4 [5]
-11.415236 2.272645 10.6864605 -0.44129094 -7.437825
00000000: cfa4 36c1 0473 1140 befb 2a41 e3f0 e1be
00000010: aa02 eec0

f1_fc2.weight f4 [10, 5]
0.29061052 0.29063046 3.9486892 -0.41890627 -0.22544003 -0.53070354 0.44037375 6.497783
0.6337102 0.00733765 -0.05482172 -0.43297723 -9.700317 0.5393925 -0.30317396 -0.4472268
0.5525711 1.042806 0.7424623 0.24848536 -1.0925711 1.2800748 4.1345315 1.4610673
3.338338 0.8584595 0.14438218 2.063781 0.30146694 -2.9334464 0.746347 0.39665344
-3.9390552 0.041868344 0.67081445 0.98215175 0.17118107 0.50904953 0.0790658 3.5581205
-0.57756877 -0.01784441 -3.7954154 1.6262019 -12.336986 0.29312655 -0.74317497 -1.4779096
-0.100854635 -5.077376
00000000: e7ca 943e 84cd 943e 53b7 7c40 e27a d6be
00000010: c0d9 66be 30dc 07bf ab78 e13e d7ed cf40
00000020: d53a 223f ab70 f03b bd8c 60bd 31af ddbe
00000030: 8034 1bc1 a015 0a3f 9e39 9bbe e9fa e4be
00000040: 4d75 0d3f ab7a 853f 0212 3e3f f272 7e3e
00000050: 5fd9 8bbf 7ed9 a33f 154e 8440 4104 bb3f
00000060: 54a7 5540 00c4 5b3f ecd8 133e fd14 0440
00000070: e059 9a3e 96bd 3bc0 9910 3f3f 2916 cb3e
00000080: 7b19 7cc0 247e 2b3d 7fba 2b3f 4c6e 7b3f
00000090: 174a 2f3e 1251 023f 40ed a13d 3fb8 6340
000000a0: 8cdb 13bf 712e 92bc 16e8 72c0 6227 d03f
000000b0: 4b64 45c1 af14 963e b740 3ebf 242c bdbf
000000c0: e08c cebd dd79 a2c0

f1_fc2.bias f4 [10]
0.08017824 0.6420839 2.258458 0.27434465 2.4538634 1.7904003 -0.8818366 2.575257
8.329934 2.5262792
00000000: 7d34 a43d 9c5f 243f 938a 1040 e776 8c3e
00000010: 190c 1d40 d62b e53f 0bc0 61bf 03d1 2440
00000020: 6947 0541 8fae 2140

f1_fc3.weight f4 [5, 10]
-0.0960799 -0.12810199 -0.23534764 -1.4692078 -5.802124 -9.706735 1.0629257 -0.3121454
-9.042495 -2.5295901 -0.8305121 -0.8223101 -1.8144186 0.6168218 -0.65641135 -0.24158451
0.8158681 -0.27321747 -1.4539515 -0.45798072 -0.3245818 -1.063871 -0.76472694 1.296309
-0.24396929 -0.0073533775 0.038804702 0.041738953 -2.2725313 0.8849932 -0.584185 -0.3680812
-1.0340154 1.27757 -0.37335697 0.23467095 0.16829133 -0.21957584 -2.28422 0.12434984
-0.8244215 0.93608755 -1.7848877 -1.3179432 -0.77700794 0.716209 0.52024174 -0.8893952
-1.0166457 1.2779595
00000000: 8ac5 c4bd 2b2d 03be f9fe 70be 000f bcbf
00000010: 00ab b9c0 c94e 1bc1 f30d 883f 86d1 9fbe
00000020: 0fae 10c1 cee4 21c0 719c 54bf ea82 52bf
00000030: de3e e8bf 09e8 1d3f 930a 28bf ee61 77be
00000040: bbdc 503f 29e3 8bbe 151b babf 737c eabe
00000050: 962f a6be ed2c 88bf 25c5 43bf 74ed a53f
00000060: 16d3 79be 9af4 f0bb aef1 1e3d 77f6 2a3d
00000070: 2771 11c0 ea8e 623f 268d 15bf 2475 bcbe
00000080: 9e5a 84bf 6a87 a33f a528 bfbe 954d 703e
00000090: 9054 2c3e 7dd8 60be a930 12c0 21ab fe3d
000000a0: 4a0d 53bf 6fa3 6f3f 3377 e4bf 5db2 a8bf
000000b0: fee9 46bf 7959 373f 902e 053f 67af 63bf
000000c0: 7221 82bf 2d94 a33f

f1_fc3.bias f4 [5]
4.245785 -1.6772478 0.11203525 -0.104139365 0.03425232
00000000: 79dd 8740 0eb0 d6bf bd72 e53d 0547 d5bd
00000010: 294c 0c3d

f1_fc4.weight f4 [1, 5]
-0.52937263 -0.3896507 0.98071647 -0.6687902 -0.5110127
00000000: f784 07bf 4c80 c7be 3c10 7b3f d635 2bbf
00000010: bad1 02bf

f2_fc1.weight f4 [5, 2]
0.48464084 0.21807645 0.12852965 0.378054 0.11561774 -0.96392876 0.2879255 0.9572763
0.4890252 -1.6963631
00000000: d822 f83e 6f4f 5f3e 479d 033e 4b90 c13e
00000010: fec8 ec3d 09c4 76bf f96a 933e 0f10 753f
00000020: 8361 fa3e 6d22 d9bf

f2_fc1.bias f4 [5]
-16.331734 -14.447675 5.394273 -18.690435 -1.0515144
00000000: 64a7 82c1 ad29 67c1 e29d ac40 0386 95c1
00000010: 0698 86bf

f2_fc2.weight f4 [10, 5]
0.82898533 4.918839 -7.3401265 -2.0460136 2.9011016 0.5136808 -2.648453 -4.4434385
-1.0829273 1.4509984 0.9435878 -4.061794 -0.71008325 -2.2714927 0.19864886 -0.10321358
-0.26053247 0.25712997 0.18931995 0.007863907 0.39127678 -3.593775 0.34954157 -0.92881006
-0.12208103 -0.022929633 -0.5879726 0.3766651 0.27539113 -0.28093734 0.36072814 -3.1619678
0.7771392 -0.8453396 -0.22766604 1.1029828 -3.5894456 -5.6715493 -1.8459321 1.6183591
0.5927695 -2.7179046 -0.76631546 -1.4170517 0.20266391 0.6113127 -2.5021138 -0.7452212
-1.7042876 0.124859296
00000000: 6238 543f 2167 9d40 51e2 eac0 e3f1 02c0
00000010: a6ab 3940 9680 033f 4180 29c0 a630 8ec0
00000020: 5d9d 8abf 51ba b93f f88e 713f 37fa 81c0
00000030: 04c8 35bf 2360 11c0 9b6a 4b3e a461 d3bd
00000040: 8364 85be 8aa6 833e 17dd 413e 9ed7 003c
00000050: 6e55 c83e 6900 66c0 1df7 b23e 7fc6 6dbf
00000060: 9e05 fabd edd6 bbbc 5f85 16bf 3fda c03e
00000070: 1100 8d3e 05d7 8fbe 5cb1 b83e ae5d 4ac0
00000080: 98f2 463f 2d68 58bf 4921 69be 8a2e 8d3f
00000090: 7ab9 65c0 557d b5c0 8147 ecbf 6426 cf3f
000000a0: bebf 173f 26f2 2dc0 402d 44bf f361 b5bf
000000b0: 2187 4f3e fd7e 1c3f a222 20c0 d1c6 3ebf
000000c0: 1926 dabf 3bb6 ff3d

f2_fc2.bias f4 [10]
8.242708 2.107306 7.8002796 -0.9897307 2.679759 0.36574554 2.988102 3.2994652
4.4072943 7.199034
00000000: 22e2 0341 1ade 0640 e49b f940 fe5e 7dbf
00000010: 2c81 2b40 0043 bb3e 103d 3f40 702a 5340
00000020: 8e08 8d40 7d5e e640

f2_fc3.weight f4 [5, 10]
-0.13842325 2.5273376 2.0709722 -1.9893275 -1.1536415 -1.7502662 -1.3140309 -3.3333945
-1.9792668 -0.38578135 -0.06983387 0.87582874 0.57043254 -0.30848902 1.1438891 -1.3218902
-1.0958996 -1.5410956 -1.7264504 -0.48125827 -0.12326712 -0.107348464 0.45448536 1.0542521
-0.6510723 0.21561562 -0.3140498 -0.3009845 -2.3418422 0.48342502 -0.098448426 1.1489289
1.5508709 -0.8591158 1.557448 -1.5800642 -1.6798837 -1.4885237 -2.3399189 -0.9864062
-0.12383407 -0.03059283 -1.27571 1.065658 -1.9836197 0.20825312 0.26989973 -0.37297842
1.0867796 0.34027952
00000000: d3be 0dbe e6bf 2140 cf8a 0440 49a2 febf
00000010: 86aa 93bf b908 e0bf 2a32 a8bf 5656 55c0
00000020: 9d58 fdbf 2285 c5be 0f05 8fbd 5036 603f
00000030: de07 123f 46f2 9dbe f56a 923f b333 a9bf
00000040: 7046 8cbf 9f42 c5bf 54fc dcbf 7c67 f6be
00000050: 7973 fcbd 83d9 dbbd 4eb2 e83e bcf1 863f
00000060: adac 26bf 57ca 5c3e 23cb a0be a41a 9abe
00000070: bee0 15c0 7c83 f73e 549f c9bd 1a10 933f
00000080: f082 c63f 03ef 5bbf 755a c73f 8b3f cabf
00000090: 6e06 d7bf f287 bebf 3bc1 15c0 1e85 7cbf
000000a0: b89c fdbd d19d fabc 774a a3bf 7b67 883f
000000b0: 40e7 fdbf 4e40 553e 4c30 8a3e 07f7 bebe
000000c0: 981b 8b3f 1e39 ae3e

f2_fc3.bias f4 [5]
-1.1342579 -0.73128664 -0.4653144 -0.14394659 0.40244627
00000000: 5d2f 91bf 9a35 3bbf b03d eebe bc66 13be
00000010: 700d ce3e

f2_fc4.weight f4 [1, 5]
-1.196519 -0.57647395 -0.60579306 1.7029742 0.602108
00000000: 8927 99bf cc93 13bf 4115 1bbf 0ffb d93f
00000010: c023 1a3f

f3_fc1.weight f4 [5, 2]
-0.40232033 0.3222261 0.038291313 0.025566852 0.106812924 -0.07059332 -0.12655151 -0.014890539
-0.03214599 -0.0121826725
00000000: eefc cdbe d2fa a43e 5ad7 1c3d 9371 d13c
00000010: bcc0 da3d 3b93 90bd b896 01be 73f7 73bc
00000020: 83ab 03bd d599 47bc

f3_fc1.bias f4 [5]
2.229615 -1.1334022 -6.972794 14.63204 4.2510653
00000000: 03b2 0e40 5313 91bf 2121 dfc0 d61c 6a41
00000010: ba08 8840

f3_fc2.weight f4 [10, 5]
-0.10069394 -0.055374995 -0.14099014 -0.51230335 -0.41178736 0.1087931 0.26350594 -0.08028083
0.0867794 -0.13439117 -0.13777757 0.1574377 0.09239981 -0.6515416 0.11479678 -0.16891035
0.21168582 0.052485198 -0.07864318 -0.17505169 -0.2214439 -0.10467121 0.5189867 -0.41223428
-1.8218354 0.0808343 -0.2223827 -0.56876504 0.276958 0.63723373 -0.12990288 -0.46179795
0.12237299 -1.3666693 0.48737568 0.085966 0.31404996 0.031884298 0.1474564 -0.4281339
-0.1256389 0.13543436 -0.54661083 -0.20089996 0.1989294 0.12868062 -0.13815634 -0.52958995
0.038822316 -0.40365547
00000000: a038 cebd e4d0 62bd b85f 10be 5026 03bf
00000010: cbd5 d2be ebce de3d 40ea 863e 476a a4bd
00000020: 66b9 b13d d79d 09be 9015 0dbe 5937 213e
00000030: 1d3c bd3d 6ecb 26bf 931a eb3d d6f6 2cbe
00000040: 2bc4 583e b8fa 563d ad0f a1bd c040 33be
00000050: 31c2 62be dc5d d6bd 50dc 043f 5f10 d3be
00000060: e731 e9bf 748c a53d 4ab8 63be 969a 11bf
00000070: 70cd 8d3e c021 233f 4305 05be c870 ecbe
00000080: b19e fa3d 05ef aebf 4e89 f93e f10e b03d
00000090: 28cb a03e 1c99 023d cffe 163e 5e34 dbbe
000000a0: 7ca7 00be 4eaf 0a3e b0ee 0bbf b8b8 4dbe
000000b0: 26b4 4b3e dac4 033e db78 0dbe 3593 07bf
000000c0: 2604 1f3d eeab cebe

f3_fc2.bias f4 [10]
0.16574906 -0.02389269 0.11998742 0.39533567 0.45585108 0.45173636 1.6480604 -0.1812633
0.2913543 0.3911255
00000000: 1fba 293e 9aba c3bc f7bb f53d 7069 ca3e
00000010: 5065 e93e fd49 e73e a5f3 d23f 169d 39be
00000020: 642c 953e 9a41 c83e

f3_fc3.weight f4 [5, 10]
0.07482338 0.19284855 -0.027568815 0.05734946 0.167973 0.1547599 -0.1682121 -0.059217256
-0.00091228995 -0.23907468 -0.59865844 -0.38538253 -0.7462476 2.1797767 -1.7202837 1.0254287
0.2990375 -0.7038244 -1.9875576 0.10554275 0.167171 0.014060667 -0.026669305 0.084822774
-0.26996794 -0.040945604 0.47200635 -0.043566693 -0.18469779 0.026085572 -0.32353857 -0.057281252
0.2402305 0.19521011 -0.15608422 0.39725697 0.17004938 -0.09925518 0.0711618 -0.028956778
-0.06713692 0.08950466 -0.07691815 -0.023147905 -0.03379087 0.06940049 -0.025767751 -0.14687799
0.19058208 0.046111863
00000000: 003d 993d 177a 453e ffd7 e1bc 44e7 6a3d
00000010: 1d01 2c3e 6179 1e3e cb3f 2cbe cb8d 72bd
00000020: be26 6fba fecf 74be ae41 19bf dc50 c5be
00000030: 150a 3fbf 7681 0b40 4232 dcbf 3f41 833f
00000040: 711b 993e d62d 34bf 4a68 febf cc26 d83d
00000050: e02e 2b3e b65e 663c 9679 dabc 90b7 ad3d
00000060: 3d39 8abe 94b6 27bd d1aa f13e fd72 32bd
00000070: 6b21 3dbe 69b1 d53c d9a6 a5be bf9f 6abd
00000080: fcfe 753e 29e5 473e 8bd4 1fbe 4465 cb3e
00000090: 6d21 2e3e 4d46 cbbd 47bd 913d c436 edbc
000000a0: 157f 89bd 384e b73d 4387 9dbd ada0 bdbc
000000b0: 4c68 0abd d821 8e3d e416 d3bc 2f67 16be
000000c0: f327 433e cbdf 3c3d

f3_fc3.bias f4 [5]
0.16345811 0.3068996 0.1110438 0.11676083 -0.13168646
00000000: 9061 273e f221 9d3e ef6a e33d 4d20 ef3d
00000010: d1d8 06be

f3_fc4.weight f4 [1, 5]
0.15429059 -0.010001319 0.277694 -0.03667896 0.12564184
00000000: 5afe 1d3e 93dc 23bc e82d 8e3e ad3c 16bd
00000010: 41a8 003e
