data/Wildfire/Poly/seed=238/Wildfire.pth (torch, 10080 bytes, 21 tensors)

f1_fc1.weight f4 [5, 2]
00000000: 553a ad3d 9db2 fc3f a073 c43d 2899 babd
00000010: 0696 8abd 9c47 673e 4d8e 313e b63b be3e
00000020: 2515 573d 21f5 f0bd
0.084583916 1.9742008 0.09592366 -0.091112435 -0.06766896 0.2258591 0.1733944 0.3715493
0.0525104 -0.11765505

f1_fc1.bias f4 [5]
00000000: 849b 4ac1 3abf ce3f b268 0b41 e73a e7bf
00000010: f34f 06c1
-12.662968 1.6152108 8.71306 -1.806485 -8.394519

f1_fc2.weight f4 [10, 5]
00000000: 8b77 ac3e dbea 023f 0dd9 1940 6217 53be
00000010: b410 37bf 5930 b4be 19ef 2abe 36c1 a340
00000020: 6c7d 57be 33ab c63f f493 993d 0d96 01bf
00000030: a2b7 aec0 5a9c 7b3f c464 7d40 2e60 05be
00000040: 0ca3 92be ec8c c93f 0f38 903d 3390 803e
00000050: 8df0 02c0 a3e1 9a3d ea06 b2bf 09ab 13bd
00000060: 3464 0b40 a694 593f a003 0abe f082 b23e
00000070: 2cbf 943d f9a1 c63e 2e27 5a3f b038 a13e
00000080: c5af 31c0 aecb 8bbd 7b51 283f 9ffa 6a3f
00000090: d240 a43e dfe5 ba3f 76cf f53d cef0 6340
000000a0: 31fa 4cc0 dbf0 a6bf 3a3a cabf bd36 6bbe
000000b0: 1fd8 5dc1 0f48 973e e82b 9bbe 9035 f6bf
000000c0: 7ee2 2ebe 6b68 bac0
0.33684954 0.5113961 2.4038727 -0.20614389 -0.7150986 -0.35193136 -0.16692771 5.1173353
-0.21043938 1.5520996 0.07498923 -0.50619584 -5.459916 0.9828545 3.9592752 -0.13024971
-0.2864002 1.5746131 0.07041942 0.25110015 -2.045932 0.07562568 -1.390836 -0.036051784
2.177991 0.84992445 -0.13477945 0.34865522 0.07263026 0.3879545 0.85216033 0.31488562
-2.7763531 -0.06825958 0.6574933 0.9178867 0.32080704 1.4601401 0.12002461 3.5615726
-3.2027705 -1.3042253 -1.5799019 -0.229701 -13.865264 0.29547164 -0.30306935 -1.9235096
-0.17078587 -5.8252463

f1_fc2.bias f4 [10]
00000000: 326e 513f 8b27 693f 5518 0ec1 9496 2b3f
00000010: 3c8d d73e 8bf6 0fbf 68c5 95bf c3c2 1840
00000020: 8eac e240 82aa 5c40
0.8180877 0.9107596 -8.88094 0.6702664 0.4209994 -0.5623557 -1.1700869 2.3868873
7.083564 3.447907

f1_fc3.weight f4 [5, 10]
00000000: 44f2 c0bf be1e f4bf d078 0dc0 b7d8 5cbf
00000010: b804 dec0 1854 08c1 74fc fb3f 4429 cebf
00000020: f810 e0c0 6ea2 93c0 d278 4cbf 30bf 43c0
00000030: 40db bdbf 5554 3540 59e3 603e 8132 2ec0
00000040: e453 adbf 3f7a 6fbf e8fd 3f40 e91a 22c0
00000050: 8bb0 bdbe 053f efbf 8d3c ebbf 4ecb e93f
00000060: 37a8 4a3f c0e7 063d a78b ad3d ca42 a03c
00000070: a2bb 9bbf 92c9 fc3e dd7c 3cbf c292 c63d
00000080: 044e 0dbf 8dcc 923f d07c 833f 321e 5f3e
00000090: baf0 8a3e acec bebd 33ab 5fbf c7e6 0b3f
000000a0: bb8c 9a3e 11a9 82bf eee1 84be 0d4b 553f
000000b0: d603 37be 818a 623f 12ab e1bd cd2c 5dbf
000000c0: 077e 05c0 8812 cc3e
-1.5073934 -1.9071882 -2.2104988 -0.8626818 -6.938076 -8.520531 1.9686418 -1.6106343
-7.0020714 -4.613578 -0.7987186 -3.0585442 -1.4832535 2.8332722 0.21961726 -2.7218325
-1.3541226 -0.9354591 2.9998722 -2.5328925 -0.37048754 -1.8691107 -1.8377854 1.8265169
0.79162925 0.032935858 0.08473902 0.019563098 -1.2166636 0.49372536 -0.73628026 0.096959606
-0.5519717 1.1468674 1.0272465 0.21788862 0.27136785 -0.09322485 -0.87370604 0.54649013
0.30185494 -1.0207845 -0.2595362 0.83317643 -0.17872557 0.8849259 -0.11018957 -0.86396486
-2.085817 0.39857888

f1_fc3.bias f4 [5]
00000000: f415 3a40 47ea d5bf a070 71bf 6900 c3bf
00000010: 293a a7be
2.90759 -1.6712121 -0.9431248 -1.52345 -0.3266156

f1_fc4.weight f4 [1, 5]
00000000: cd26 3cbf fdc2 90be 9207 393f 74da 15ba
00000010: 8ee5 1dbf
-0.73496705 -0.28273764 0.72277176 -0.0005716451 -0.616784

f2_fc1.weight f4 [5, 2]
00000000: 39e4 3a3e bb08 07bd fe40 0abe 7f55 b43c
00000010: 7a86 f1bd a422 46be e03f bf3d 6011 753e
00000020: 3c77 813e 1954 c2be
0.18251123 -0.03296731 -0.13501355 0.022013424 -0.117932275 -0.19349152 0.09338355 0.2393241
0.2528628 -0.37954786

f2_fc1.bias f4 [5]
00000000: 7e3e a6c1 3d6a 81c1 feb5 0541 b24c 4ac1
00000010: 10f6 c0c0
-20.780514 -16.176874 8.356932 -12.643724 -6.030037

f2_fc2.weight f4 [10, 5]
00000000: 8865 af3f 7a67 3a40 d758 56c0 6cd1 1bbf
00000010: 4189 49be cdeb 1540 49e8 c5bf 367c afbf
00000020: 53ac 3dbc 6d33 0e3e 6c07 a6c0 f7df dac0
00000030: 7c66 71bf 6a63 91c0 fa64 19bf 59e2 64bf
00000040: 5086 8fbe 81ff 9d3d 3df4 b03e f38c 3e3d
00000050: 723e 40bf e41d 0cc0 2086 c73f 60e2 61be
00000060: 1be1 cfbd f96e 24bf b371 73bf 61df b03e
00000070: 770b 9c3e bb3a 153d 75b7 50bf 313f 39c0
00000080: 84c0 6f3d 7c35 cfbe 1b82 00be ecea 50c0
00000090: 530f b6bf 2670 4c3f 7eac 85bf 7702 003e
000000a0: ad60 6dc0 8b2d acc0 0e9e b8bf 0520 77c0
000000b0: 9e3f 09bf 00b6 f73d 19fb f8be 6835 8f3f
000000c0: e81f f1bf 55bc 5dbe
1.370286 2.9125657 -3.3491724 -0.6086643 -0.19681264 2.3425171 -1.5461513 -1.3709781
-0.01157673 0.13886805 -5.188406 -6.8398395 -0.94297004 -4.5433855 -0.59919703 -0.8940788
-0.2803216 0.07714749 0.3456134 0.04652114 -0.75095284 -2.1893244 1.5587807 -0.22059011
-0.10150357 -0.6423183 -0.95095366 0.34545425 0.30477497 0.036432963 -0.81529933 -2.894482
0.058533207 -0.40470493 -0.12549631 -3.2643385 -1.4223427 0.79858625 -1.0443265 0.1250094
-3.7090256 -5.3805594 -1.4423234 -3.8613293 -0.536127 0.120952606 -0.48629072 1.1188173
-1.8837862 -0.21653874

f2_fc2.bias f4 [10]
00000000: fbd9 673f 58cd ee3f d0fb db40 ac8f 87be
00000010: c758 1040 270a 003f 5775 4240 b10f 923f
00000020: 6a3b ae40 1b73 8f40
0.90566987 1.8656416 6.874489 -0.264768 2.2554185 0.5001549 3.0384119 1.1411039
5.4447527 4.482801

f2_fc3.weight f4 [5, 10]
00000000: 60dd 0dc0 c8b1 e6bf 701f 1740 d64d 66bf
00000010: 48f3 563f 5835 a53e be8d 9cbf fa60 afbf
00000020: 49fd 2bc0 c6a0 8fbf d226 0dbe 0fcd 97bf
00000030: 8bd3 40c0 f7ca d9c0 4c8a 4dbd f969 9fbf
00000040: c53f 0ebe d21c 0bc0 02c3 aec0 b9af a8bf
00000050: 4551 cabd e658 bfbd 0cd7 e33e 3abf 853f
00000060: eea0 39bf dd35 673e 1e41 9ebe 0dee 8bbe
00000070: 1605 16c0 736b f33e a0f6 6cbf bd45 1bbf
00000080: 9117 f73e 4bf8 39bf d461 e3b8 c022 043e
00000090: 518b d5be c741 173e 100f 32c0 02be 96bf
000000a0: 1756 f6bd 2666 bcbd 7221 a2bf c591 893f
000000b0: 440a f6bf 6c94 4a3e 31cc 673e 1554 c4be
000000c0: b24e 8c3f 3080 b43e
-2.2166367 -1.8023005 2.3612938 -0.8996252 0.8396497 0.3226726 -1.2230756 -1.370147
-2.6873343 -1.1220939 -0.1378434 -1.1859454 -3.0129116 -6.806026 -0.05018072 -1.2454215
-0.13891514 -2.173634 -5.4613047 -1.3178626 -0.09878782 -0.09343128 0.44500005 1.0448983
-0.72511184 0.22579141 -0.30909055 -0.27330056 -2.3440604 0.47542915 -0.9256382 -0.6065329
0.48260167 -0.7264449 -0.000108424254 0.12903881 -0.41707852 0.14771186 -2.7821693 -1.1776736
-0.12028139 -0.09199171 -1.2666457 1.074761 -1.9221883 0.19783181 0.22636487 -0.383454
1.0961516 0.3525405

f2_fc3.bias f4 [5]
00000000: c8ac afbd 121a 2abe 78b3 ebbe 6372 88be
00000010: 4de0 c73e
-0.08577877 -0.16611508 -0.4603536 -0.2664977 0.39038315

f2_fc4.weight f4 [1, 5]
00000000: 0a91 9abf 34a7 09bf 86e0 1abf bcd2 d73f
00000010: 403d 1a3f
-1.2075512 -0.53770757 -0.60498846 1.6861186 0.6024971

f3_fc1.weight f4 [5, 2]
00000000: 4600 52be 4fcf 303c f28c 3abe 178b 55bb
00000010: 5d87 eebc 5f44 ce3b a7d7 563e b13a c33c
00000020: f3bc 773e 1805 57bc
-0.20507917 0.010791614 -0.18217829 -0.0032584125 -0.02911728 0.0062947716 0.20980702 0.023831697
0.24193172 -0.013123773

f3_fc1.bias f4 [5]
00000000: 29b7 80bf 6728 1a3f 9207 3440 ce0c ce40
00000010: 04b5 513f
-1.0055896 0.602179 2.812962 6.439063 0.8191683

f3_fc2.weight f4 [10, 5]
00000000: 7e05 aebf 7e39 13bf 8e0b b2bd e951 3ebe
00000010: dca8 083e 0083 63be d605 a43e fc00 48be
00000020: a691 653e 074f 77be 475b c7bd dd54 2e3f
00000030: 675b b4bf 3b8e c23c 6984 35bf ef79 febe
00000040: 3a97 a23d 34dc ca3e 931a 803e 85eb 1abe
00000050: b73a 383c 46fb fa3d 716c 00be 81c9 823e
00000060: fd70 993c 031d 26be 9eea 083d 7d33 c63e
00000070: 3f50 7d3e bc6e f1bd 36bb 893e d9a8 223e
00000080: 096c c93d 3e10 af3e 60b2 26be f212 0dbb
00000090: c32f 05bf e43b 043e 51ae 143c 396e 923e
000000a0: e6e8 373e 8e64 a23d 81b7 953e 2b5b 0ebe
000000b0: 59dd 1c3e dbe1 9dbe d340 b2be dd4f 1fbe
000000c0: 6a00 e73e bec8 e43c
-1.3595426 -0.575096 -0.0869361 -0.18585934 0.13345665 -0.22217941 0.32035702 -0.19531626
0.22418842 -0.2415124 -0.09734207 0.6809824 -1.4090394 0.023749461 -0.70905167 -0.49702403
0.079390004 0.39621127 0.25020275 -0.15128906 0.011244467 0.12254958 -0.12541367 0.2554436
0.018730635 -0.16222005 0.033426873 0.38711157 0.24737643 -0.11788699 0.26900643 0.15884723
0.09835059 0.3419208 -0.16278982 -0.0021526185 -0.52026004 0.12913471 0.009074763 0.28599718
0.17959937 0.079293355 0.29241565 -0.13901965 0.15318812 -0.30836377 -0.34815082 -0.15557809
0.45117503 0.027927753

f3_fc2.bias f4 [10]
00000000: 9312 76be d805 29bd cc10 4440 49e9 97bc
00000010: 9217 56be 1fff a9be c89b 3d3f d073 833e
00000020: 4bc1 bb3e 3a28 743d
-0.24030523 -0.04126534 3.0635252 -0.018543856 -0.20907429 -0.33202454 0.7406583 0.25674295
0.36670908 0.059608676

f3_fc3.weight f4 [5, 10]
00000000: 92ad d1bc 658c 7a3e 90d0 58be 45be 56be
00000010: c36f 163c 1176 6ebe f4b3 2a3e cc60 223c
00000020: 74d3 1dbf ee58 c13a 1ca9 b2bd ce7f 78bd
00000030: 0311 dfbe 8cfe 7cbe e925 cdbd 5b1b 813d
00000040: 31e5 1cbe 77ce 5abe cb65 00bf edd4 a73e
00000050: 2e44 35be 03c0 43be 00ea c23e b94f 613d
00000060: 19c8 053d 9c45 92be cb9d 933e 49b3 ae3e
00000070: dfe6 dcbb a9ec a0be 74e4 62bf 3500 173e
00000080: 2342 80bf cc23 15bf e623 14be 409f 88bd
00000090: c90f d63d a45d 46bb 20c7 ac3e d872 7e3d
000000a0: 4ce3 c6be c908 94be fec2 0cbf ffeb 1ebb
000000b0: 83ba 61be daa5 133e 7deb 063e 189e 36be
000000c0: 9eb3 54bf bfca 8f3d
-0.02559546 0.24467619 -0.2117331 -0.2097102 0.0091819195 -0.23287226 0.16670209 0.0099107735
-0.61650777 0.0014751235 -0.08723661 -0.06066876 -0.43567666 -0.24706477 -0.100169964 0.06304046
-0.15321805 -0.21367823 -0.50155324 0.32779637 -0.1770179 -0.19116215 0.38069153 0.05500767
0.03266153 -0.28568733 0.28831324 0.3412116 -0.006741389 -0.31430557 -0.8862984 0.14746173
-1.0020183 -0.58257747 -0.14466819 -0.066709995 0.104522295 -0.0030268217 0.3374567 0.062121242
-0.3884529 -0.28912953 -0.54985034 -0.0024249551 -0.22043805 0.14418736 0.13175769 -0.17833745
-0.83086574 0.070210926

f3_fc3.bias f4 [5]
00000000: 5629 8d3d 2471 f83e cba0 493f 6b88 5f3f
00000010: ef38 a03e
0.0689265 0.4852382 0.78760976 0.8731753 0.31293437

f3_fc4.weight f4 [1, 5]
00000000: 6160 acbd bb2b 4a3e aedd e83e a68d d2bd
00000010: 099f 293e
-0.0841682 0.19743244 0.45481628 -0.102809235 0.16564573
