data/Crossing_waves/Poly/seed=19/Crossing_waves.pth (torch, 8696 bytes, 14 tensors)

f1_fc1.weight f4 [5, 2]
0	0x3f16bb8c	0.58879924
1	0x3f61e098	0.8823333
2	0x3eb3833e	0.35061067
3	0x3d1a6710	0.037695944
4	0xbc1a7446	-0.009427136
5	0x3c481f48	0.012214489
6	0xbddddb59	-0.10832853
7	0xbec1a4a5	-0.37820926
8	0x3e510a99	0.20414199
9	0x3f520618	0.8204055

f1_fc1.bias f4 [5]
0	0xc061c0ba	-3.527388
1	0xc092ad93	-4.5836883
2	0x3f222bde	0.63348186
3	0x4032d860	2.7944565
4	0x40aac4a0	5.336502

f1_fc2.weight f4 [10, 5]
0	0x3e8dcc35	0.2769486
1	0xbee8dae5	-0.45479503
2	0xbfaf04fc	-1.3673396
3	0x3fa39b44	1.2781758
4	0xbd14c73f	-0.03632283
5	0xbf25b770	-0.6473303
6	0xbe0f8f61	-0.14019538
7	0x40347e81	2.8202212
8	0x3e1359d7	0.1438974
9	0x3f04feb1	0.5195113
10	0x3e0bf1ab	0.13666408
11	0x3f1dfaa9	0.617106
12	0x3e351652	0.17684296
13	0x3d3dc4a2	0.0463301
14	0xbee0f4db	-0.4393681
15	0x3f141535	0.5784486
16	0x3e7831e9	0.24237789
17	0x3f0b2487	0.5435261
18	0x3d6e41ab	0.058168095
19	0xbd2d6181	-0.042329315
20	0x3c64d753	0.013967353
21	0x3e0fd227	0.1404501
22	0x4006eea3	2.1083152
23	0xbe39867f	-0.18117712
24	0xbe9ecb07	-0.31014273
25	0xc054a41a	-3.322516
26	0xc002978b	-2.0404994
27	0x3fcc3e6a	1.5956547
28	0xbf219f0c	-0.6313331
29	0xbd88bab3	-0.06676235
30	0xbe15cce2	-0.14628938
31	0xbd57d8dd	-0.05269705
32	0x3f3eaf90	0.7448664
33	0x3d8b090d	0.06788836
34	0x3f00dfd9	0.50341564
35	0x3f0c7ba6	0.5487617
36	0x3ea044d2	0.31302506
37	0x4020abe8	2.5104923
38	0xbf7de434	-0.99176335
39	0xbf7d8672	-0.9903327
40	0xbf31b6f5	-0.69419795
41	0xbb9a4f9b	-0.0047091967
42	0xc089f47e	-4.311095
43	0xbf9f1dea	-1.2431004
44	0x3f0543ca	0.5205656
45	0x3eafd902	0.3434525
46	0x3e9a3f9f	0.30126664
47	0x3f1b5d69	0.6068941
48	0xbdec6edd	-0.11544583
49	0xbf14bef0	-0.5810385

f1_fc2.bias f4 [10]
0	0xbf5d71d8	-0.86501837
1	0x3fa2e6e9	1.2726718
2	0xc084a0fa	-4.1446505
3	0xbfcbe527	-1.5929307
4	0x3ff02721	1.8761941
5	0x40947975	4.6398263
6	0x3ed07354	0.40712988
7	0xbf9cf04d	-1.2260834
8	0x40ea5d83	7.323915
9	0xbedce0b9	-0.431402

f1_fc3.weight f4 [5, 10]
0	0xc01a300a	-2.409182
1	0xbfed43bf	-1.85363
2	0xbf6089d9	-0.8771034
3	0xbf0b0054	-0.54297376
4	0xc040eab7	-3.0143259
5	0xc015dbfa	-2.3415513
6	0xbf2bba19	-0.6708084
7	0xbfec8713	-1.8478721
8	0xbfd6d45c	-1.6783557
9	0x3f7d3ea1	0.9892369
10	0x3eadfbe2	0.33981234
11	0xbf0f1ab9	-0.5590015
12	0x3fc8f657	1.5700177
13	0xbea3f76b	-0.32024702
14	0x3e8b3cbf	0.27194783
15	0x3de8330a	0.1133786
16	0x3f332fc6	0.6999477
17	0x3e025cfe	0.12730786
18	0x3f7be81a	0.98401034
19	0xbf8cc83b	-1.0998605
20	0x3f091af3	0.53556746
21	0xbe465d97	-0.19371639
22	0x3ea56fe3	0.32311925
23	0x3cf9382c	0.030422293
24	0xbf38d8d6	-0.72205865
25	0x3e0b1a69	0.13584293
26	0x3e406327	0.18787824
27	0xbe89c745	-0.26909843
28	0x3fdc6fe6	1.7221649
29	0xbd42a1da	-0.047517635
30	0x3e1dbc44	0.15403849
31	0xbea00818	-0.31256175
32	0xbd5ae727	-0.0534431
33	0x3e805960	0.25068188
34	0x3ed6e1cf	0.41969153
35	0xbe2b0d21	-0.16704227
36	0xbeb869f7	-0.36018345
37	0xbf0a2d05	-0.53974944
38	0xbea8a16c	-0.32935655
39	0x3e43a8a4	0.191073
40	0xc0504f4d	-3.2548401
41	0xc057e663	-3.3734367
42	0xc01e554a	-2.4739556
43	0xbf14c7f9	-0.58117634
44	0xbf7bea06	-0.98403966
45	0xc02a20a3	-2.658242
46	0xbffbf9a4	-1.9685559
47	0x3d526c3f	0.051372763
48	0xbf861047	-1.0473717
49	0x3f31c7b0	0.69445324

f1_fc3.bias f4 [5]
0	0x4004fb92	2.0778546
1	0x3f57b759	0.8426414
2	0x3ee21685	0.44157806
3	0xbec1cd22	-0.37851816
4	0x40129595	2.2903798

f1_fc4.weight f4 [1, 5]
0	0x3ed91607	0.42399618
1	0x3e019aae	0.12656662
2	0xbd894ed7	-0.06704491
3	0x3d8787b5	0.06617681
4	0xbee2ee40	-0.44322395

f2_fc1.weight f4 [5, 2]
0	0xbc5a72ea	-0.013333062
1	0x3f1a55fd	0.6028746
2	0x3da5ce02	0.080959335
3	0xbea5f80d	-0.3241581
4	0x3e69291b	0.22769587
5	0x4042496d	3.0357316
6	0xc0943a95	-4.632151
7	0x4193e91e	18.488827
8	0xbc6bf4a0	-0.014401585
9	0x3edcf938	0.4315889

f2_fc1.bias f4 [5]
0	0xc0d8ff41	-6.781159
1	0x4053dfcd	3.3105347
2	0xc2034db9	-32.8259
3	0xc2afefec	-87.9686
4	0xc0fac30f	-7.836311

f2_fc2.weight f4 [10, 5]
0	0xc05d2f15	-3.4559987
1	0x3d252e2c	0.040327236
2	0xbdb4b86f	-0.088242404
3	0xbf8a93e8	-1.0826387
4	0xbfab1cda	-1.336818
5	0x40e81c22	7.253434
6	0xc05f3679	-3.4876997
7	0x3fa0106f	1.2505015
8	0x3f9f81f3	1.2461532
9	0xc0b9e858	-5.8096123
10	0x3f0bcff5	0.5461419
11	0x3f230e26	0.63693464
12	0xbe5d9da8	-0.21642172
13	0x3dd671fb	0.10470959
14	0x3c823fb7	0.015899522
15	0x3e219365	0.15778883
16	0x3de8d620	0.11368966
17	0x3df24c7c	0.118309945
18	0xbd8f2a94	-0.06990543
19	0xbc855a7f	-0.016278503
20	0x4046eb47	3.1081102
21	0x3f24655d	0.6421717
22	0xbdd70187	-0.10498338
23	0x3fc74bec	1.5570045
24	0x4005a06c	2.0879164
25	0xbe6b0a9f	-0.2295327
26	0x3c0cdb37	0.008597187
27	0x3d66a375	0.05630823
28	0x3f39ea56	0.72623193
29	0x3f3b8f78	0.7326579
30	0x3ddb0809	0.10694892
31	0x3ee63135	0.44959417
32	0xbe417aa4	-0.1889444
33	0x3f3bb176	0.7331766
34	0x3e7d7598	0.2475189
35	0xbe8226d3	-0.25420246
36	0x3ed4b180	0.41541672
37	0xbfe238e0	-1.7673607
38	0xbfcbbb8f	-1.5916613
39	0xbeeed847	-0.46649382
40	0xbf8982af	-1.0743006
41	0xbe145c4f	-0.14488338
42	0xbc209af4	-0.009802569
43	0x3c800c69	0.015630918
44	0xbf938c6d	-1.152723
45	0xbfdc05ef	-1.7189311
46	0xbc88934a	-0.016671795
47	0xbfde9d50	-1.7391758
48	0xc03a859e	-2.9144053
49	0xbfed23b9	-1.8526527

f2_fc2.bias f4 [10]
0	0xbf6cb7c8	-0.9246793
1	0x3fb8fcd4	1.4452157
2	0xbf8846dc	-1.0646625
3	0xbe519476	-0.2046679
4	0xc0881c41	-4.253449
5	0x3f5efb30	0.8710203
6	0x3d2dff9b	0.042480092
7	0x3fcb9b1c	1.5906711
8	0x4019d5ac	2.4036665
9	0x3fc9fc3f	1.5780104

f2_fc3.weight f4 [5, 10]
0	0x3e7ed6ff	0.24886702
1	0x3f1a3a49	0.60245186
2	0x3e6dbfe9	0.23217739
3	0x3e6fbe2d	0.2341239
4	0xbf326e10	-0.6969919
5	0x3ed2310c	0.41053045
6	0xbd23149e	-0.039814584
7	0x3e9656cc	0.29363096
8	0xbe812edb	-0.2523106
9	0x3e207af2	0.156719
10	0x3e471617	0.1944202
11	0xbf3ee067	-0.7456116
12	0xbde71ebe	-0.112851605
13	0x3c9d3378	0.019189581
14	0xbe504df7	-0.20342241
15	0xbf50bcd3	-0.8153812
16	0xbef95b0b	-0.48702273
17	0x3f8482ec	1.0352454
18	0x3edb2e1c	0.42808616
19	0xbf60026f	-0.87503713
20	0x3ee20da9	0.44151047
21	0x3fb3d99f	1.4050788
22	0x3f0a6f89	0.5407644
23	0x3e899efd	0.2687911
24	0xbf8bd544	-1.0924459
25	0xbf00c7b4	-0.5030472
26	0x3e4a73ed	0.19770785
27	0xc0168bb6	-2.3522773
28	0xbf4c75fd	-0.79867536
29	0x3fa96cb7	1.3236302
30	0x3ed96e92	0.4246717
31	0x3eb8c6ad	0.36089078
32	0x3ecda9b9	0.4016855
33	0xbd14cf80	-0.0363307
34	0xbf3d96fe	-0.7405852
35	0x3f53d686	0.8274921
36	0x3d64f910	0.055901587
37	0xbf80611a	-1.0029633
38	0xbee07ad8	-0.43843722
39	0xbe08b8b9	-0.13351716
40	0x3f9ae775	1.2101885
41	0x3df3cd08	0.11904341
42	0xbe63d02d	-0.22247382
43	0xbee32a4d	-0.4436821
44	0xbe1fec10	-0.15617394
45	0x3f475ee7	0.77879184
46	0xbf231cbe	-0.6371573
47	0xbef32e31	-0.4749618
48	0xbe85be16	-0.26121587
49	0xbf16b1eb	-0.5886523

f2_fc3.bias f4 [5]
0	0x3d02c54f	0.03192645
1	0x3f7a7f1d	0.9785021
2	0xbef3010a	-0.4746173
3	0xbe0146e3	-0.12624697
4	0xbe97f4cf	-0.29678962

f2_fc4.weight f4 [1, 5]
0	0xbdda8fb1	-0.10671938
1	0x3eb3561e	0.3502664
2	0xbe147a10	-0.14499688
3	0x3eb3b59b	0.3509949
4	0xbe8cbcc5	-0.2748777
