data/Wildfire/Poly/seed=192/Wildfire.pth (torch, 10080 bytes, 21 tensors)

f1_fc1.weight f4 [5, 2]
-0.011491251 1.7911519 0.11824156 -0.020033281 -0.070680745 0.17532833 0.10290277 0.38729396
-0.009500763 0.0155565925
00000000: cd45 3cbc 7744 e53f a228 f23d d61c a4bc
00000010: 11c1 90bd 4589 333e b0be d23d 654b c63e
00000020: 17a9 1bbc 14e1 7e3c

f1_fc1.bias f4 [5]
-11.598768 1.8260881 8.481024 -0.91673064 -6.014358
00000000: 8e94 39c1 41bd e93f 46b2 0741 dcae 6abf
00000010: 9f75 c0c0

f1_fc2.weight f4 [10, 5]
0.4088594 0.3352782 2.131763 -0.21330014 -0.2984821 -0.21150485 -0.03417726 6.7027116
-0.62138045 -0.23486432 -0.011716092 -0.44818312 -5.4928656 0.9051922 2.683873 -0.12726513
-0.33180487 3.5371943 -0.066032566 -1.5401657 -0.21645059 0.9792493 1.836191 -1.4500034
-2.0627792 0.86755127 0.14315003 -0.023676764 0.11453629 0.68761855 0.833034 0.05066696
-2.563089 -0.10138119 1.0888656 0.890024 0.14823677 1.9766821 0.063756324 3.1004522
-0.04346758 -1.49439 1.1466013 0.09281181 -14.379888 0.33944747 -0.40825972 -2.0021348
-0.18402077 -5.455407
00000000: 0556 d13e 96a9 ab3e ce6e 0840 5a6b 5abe
00000010: a5d2 98be ba94 58be 74fd 0bbd 9d7c d640
00000020: ca12 1fbf 4680 70be daf4 3fbc 4278 e5be
00000030: 8ec5 afc0 adba 673f 93c4 2b40 ca51 02be
00000040: 54e2 a9be 6461 6240 153c 87bd 2624 c5bf
00000050: 39a5 5dbe 15b0 7a3f 4f08 eb3f b699 b9bf
00000060: 9304 04c0 d717 5e3f ec95 123e c6f5 c1bc
00000070: 0192 ea3d c507 303f b741 553f 2988 4f3d
00000080: a609 24c0 f1a0 cfbd f35f 8b3f 9dd8 633f
00000090: 61cb 173e eb03 fd3f ad92 823d cf6d 4640
000000a0: 100b 32bd 2c48 bfbf d5c3 923f 1e14 be3d
000000b0: 0514 66c1 0fcc ad3e 6b07 d1be fa22 00c0
000000c0: f16f 3cbe b292 aec0

f1_fc2.bias f4 [10]
0.40636814 2.6537325 -6.8817987 2.47242 4.516957 -0.8655589 -1.5830693 2.8285115
7.517967 3.123404
00000000: 7c0f d03e c1d6 2940 b237 dcc0 213c 1e40
00000010: e98a 9040 4595 5dbf 04a2 cabf 5506 3540
00000020: 3093 f040 dae5 4740

f1_fc3.weight f4 [5, 10]
3.9457772 -1.7237614 -8.120605 2.0092306 -7.630954 -10.404984 0.92451423 3.5094967
-5.2323284 -0.3183923 0.71789783 -3.3436503 -7.1620145 -0.124893405 -2.1587882 -7.7735023
-9.153503 -0.5133201 -5.8872304 5.7341866 -0.51772386 -1.3813322 -1.3033036 0.9447048
-0.207372 -0.013488683 0.13619846 0.00979851 -2.0198789 0.86772984 -0.37633097 -1.2997855
-0.560768 1.1632156 -0.3011955 0.040020842 -0.10486748 0.18012612 0.8350575 -0.0884096
-0.14969827 -0.21525018 -1.5492427 0.40556324 -0.4252242 0.8855943 0.17452392 -1.0248712
-1.9866356 0.986789
00000000: 9d87 7c40 37a4 dcbf 00ee 01c1 3c97 0040
00000010: c630 f4c0 d17a 26c1 f7ac 6c3f 989b 6040
00000020: 3c6f a7c0 5104 a3be 27c8 373f 5efe 55c0
00000030: 392f e5c0 1dc8 ffbd 9629 0ac0 88c0 f8c0
00000040: c074 12c1 f268 03bf 3164 bcc0 757e b740
00000050: 8d89 04bf 7ecf b0bf a7d2 a6bf 2cd8 713f
00000060: 5359 54be a3ff 5cbc 9c77 0b3e ee89 203c
00000070: b245 01c0 8b23 5e3f 74ae c0be 5f5f a6bf
00000080: 7e8e 0fbf 40e4 943f 4c36 9abe e5ec 233d
00000090: c3c4 d6bd fb72 383e 54c6 553f 1810 b5bd
000000a0: 814a 19be 8b6a 5cbe 964d c6bf fca5 cf3e
000000b0: fdb6 d9be 4fb6 623f 66b6 323e fb2e 83bf
000000c0: 134a febf 349e 7c3f

f1_fc3.bias f4 [5]
-1.6448874 -1.0951251 -0.03549167 -0.45227748 -0.51432425
00000000: ac8b d2bf 0f2d 8cbf b75f 11bd ea90 e7be
00000010: c1aa 03bf

f1_fc4.weight f4 [1, 5]
-0.6080801 -0.1402125 1.0038091 -0.05602865 -1.2384033
00000000: 23ab 1bbf de93 0fbe d17c 803f 4c7e 65bd
00000010: 0084 9ebf

f2_fc1.weight f4 [5, 2]
0.27642077 0.23555489 0.11421524 -0.0005360775 -3.934735 -3.7595246 0.09060404 1.1358607
0.6260174 -0.68421525
00000000: 0687 8d3e 4d35 713e aee9 e93d 8d87 0cba
00000010: b3d2 7bc0 0d9c 70c0 9c8e b93d e263 913f
00000020: ad42 203f bb28 2fbf

f2_fc1.bias f4 [5]
-17.555622 -14.900389 -8.9559965 -17.049116 0.56953406
00000000: ea71 8cc1 fe67 6ec1 c34b 0fc1 9764 88c1
00000010: fccc 113f

f2_fc2.weight f4 [10, 5]
-4.520883 18.582253 -14.561221 -1.681643 1.6817585 0.10036667 -0.32195708 -1.3727531
-0.071653225 0.15127426 0.94833785 -5.030315 1.3112744 -0.9630751 -0.22976455 -0.84263045
0.5004297 -0.2554311 0.338086 0.18678628 -0.40529132 -3.2880187 -1.2945762 -2.1960485
0.53356147 -0.149778 -1.1074047 0.5588953 0.26826546 0.038290653 -0.5691913 -2.368577
-2.7608135 -2.6631606 0.6774399 -7.3888936 -6.7530227 -4.759844 -4.3283887 -1.0063522
0.65923893 -5.3696904 2.2323604 -0.9958511 -0.2333227 -2.320008 -3.63446 -4.9686456
-4.0300355 -0.9366368
00000000: 13ab 90c0 74a8 9441 c3fa 68c1 1440 d7bf
00000010: dd43 d73f 0a8d cd3d 8fd7 a4be 60b6 afbf
00000020: edbe 92bd a4e7 1a3e 45c6 723f 57f8 a0c0
00000030: d7d7 a73f 178c 76bf 6647 6bbe a1b6 57bf
00000040: 291c 003f ddc7 82be 9c19 ad3e e744 3f3e
00000050: 5882 cfbe e66e 52c0 acb4 a5bf 0f8c 0cc0
00000060: 7c97 083f 675f 19be 70bf 8dbf c313 0f3f
00000070: 175a 893e a9d6 1c3d 85b6 11bf c496 17c0
00000080: 2bb1 30c0 3971 2ac0 b46c 2d3f d171 ecc0
00000090: c318 d8c0 a450 98c0 2982 8ac0 26d0 80bf
000000a0: e2c3 283f 81d4 abc0 fede 0e40 19f0 7ebf
000000b0: 25ec 6ebe 037b 14c0 fe9a 68c0 25ff 9ec0
000000c0: 0df6 80c0 6ec7 6fbf

f2_fc2.bias f4 [10]
12.121618 1.8763216 3.325448 0.074654445 4.445042 0.28563148 5.960004 6.44031
3.214668 12.281778
00000000: 26f2 4141 4e2b f03f 24d4 5440 6ee4 983d
00000010: c93d 8e40 4a3e 923e 5ab8 be40 0517 ce40
00000020: 1fbd 4d40 2a82 4441

f2_fc3.weight f4 [5, 10]
-0.36494467 -0.2348872 2.326853 -3.904495 1.1394781 0.6260956 -1.7030361 -0.23879811
-2.0795534 -0.29882562 -0.3653016 -0.70396626 0.5206578 -6.108931 2.3106875 -0.14107205
-1.7228438 -0.03467173 -4.9625254 -2.17582 -0.16589925 -0.1318881 0.49984887 1.0514369
-0.8036041 0.20982979 -0.45923942 -0.24523212 -2.2955234 0.52525926 -0.35962087 -0.29114386
-0.1533167 -2.1691751 0.046680477 0.17995733 0.37375006 0.35699013 -2.166262 -0.99591744
-0.16741186 -0.13556315 -1.3032179 1.067598 -1.8839667 0.21309681 0.33525142 -0.4065941
1.0586901 0.31438076
00000000: 07da babe 4586 70be 29eb 1440 3fe3 79c0
00000010: 6bda 913f cd47 203f 16fd d9bf 7e87 74be
00000020: 6717 05c0 acff 98be d008 bbbe 2237 34bf
00000030: d449 053f 5d7c c3c0 4ee2 1340 3175 10be
00000040: 2586 dcbf f203 0ebd 02cd 9ec0 a340 0bc0
00000050: 7ee1 29be ad0d 07be 31ec ff3e 7c95 863f
00000060: 00b9 4dbf 9fdd 563e 6e21 ebbe 211e 7bbe
00000070: dbe9 12c0 6477 063f 3a20 b8be cf10 95be
00000080: 0eff 1cbe c4d3 0ac0 0734 3f3d bc46 383e
00000090: 2b5c bf3e 69c7 b63e 09a4 0ac0 72f4 7ebf
000000a0: 046e 2bbe 11d1 0abe d8cf a6bf 0da7 883f
000000b0: d225 f1bf 0d36 5a3e 13a6 ab3e 1a2d d0be
000000c0: 2883 873f 84f6 a03e

f2_fc3.bias f4 [5]
-1.4573094 1.4561085 -0.51452357 -0.12462612 0.4332192
00000000: 1d89 babf c361 ba3f d1b7 03bf fb3b ffbd
00000010: e8ce dd3e

f2_fc4.weight f4 [1, 5]
-1.2339495 -0.537335 -0.608152 1.7058325 0.5988876
00000000: 0ff2 9dbf c98e 09bf d9af 1bbf b858 da3f
00000010: b350 193f

f3_fc1.weight f4 [5, 2]
0.0033164956 -0.0015397668 -0.030677302 -0.004360003 -0.025395703 -0.003949285 -0.025575263 -4.595797
-0.02469218 -0.0057574366
00000000: 9059 593b 00d2 c9ba f74e fbbc 5bde 8ebb
00000010: a60a d0bc 0169 81bb 3783 d1bc c510 93c0
00000020: 4147 cabc e1a8 bcbb

f3_fc1.bias f4 [5]
-1.2268674 0.5400239 0.49409232 -16.400019 2.801334
00000000: fe09 9dbf 023f 0a3f abf9 fc3e 3d33 83c1
00000010: 0e49 3340

f3_fc2.weight f4 [10, 5]
-0.39087325 -0.26661116 -0.383375 0.011908433 0.24921457 -0.48527655 0.31857982 -0.23152472
-0.17654519 0.047470886 -0.3552574 -0.40758574 0.4662229 0.2858959 -0.25051963 -0.14247718
-0.502017 0.0019240237 0.14885591 0.28149638 -0.2153453 0.5065624 -0.44154614 0.20723946
0.032636918 -0.067289606 -0.108076364 0.09461952 -0.090935506 0.93448013 0.18805712 -0.39619586
-0.23895577 0.17809571 0.38643014 -0.39339527 0.31806007 -0.26235726 -0.4276512 -0.8961306
-0.16580099 -0.077664904 0.434353 0.40037918 -0.08382953 0.19032782 0.76993203 -0.2328319
0.1891433 1.6231222
00000000: 8a20 c8be 4281 88be ba49 c4be 971b 433c
00000010: 1b32 7f3e 2b76 f8be e51c a33e d114 6dbe
00000020: 43c8 34be d570 423d 4ce4 b5be 14af d0be
00000030: c5b4 ee3e f360 923e 1c44 80be 8ae5 11be
00000040: 3084 00bf 862f fc3a af6d 183e 4b20 903e
00000050: 7a83 5cbe 13ae 013f 5612 e2be 9536 543e
00000060: 4aae 053d 22cf 89bd 2457 ddbd e1c7 c13d
00000070: 653c babd 173a 6f3f 0c92 403e 2fda cabe
00000080: d2b0 74be b95e 363e 2cda c53e 1b6b c9be
00000090: c5d8 a23e b153 86be 19f5 dabe d168 65bf
000000a0: bcc7 29be c70e 9fbd 8463 de3e 80fe cc3e
000000b0: d1ae abbd 4ce5 423e 441a 453f 7c6b 6ebe
000000c0: c8ae 413e 78c2 cf3f

f3_fc2.bias f4 [10]
0.24479583 -0.3234252 0.015399231 0.38667122 -0.25091153 -0.049025707 0.1082839 0.39323995
-0.17465167 0.010075998
00000000: c2ab 7a3e fd97 a5be 0e4d 7c3c c5f9 c53e
00000010: 7a77 80be 2ecf 48bd f3c3 dd3d bf56 c93e
00000020: e3d7 32be cc15 253c

f3_fc3.weight f4 [5, 10]
0.053915773 0.43472412 -0.26339224 -0.25467995 0.30903956 -0.4451699 -0.573109 0.007092391
0.10180241 -0.3107166 0.009149244 -0.12714347 -0.1036629 0.2626231 0.42875037 -0.44148335
0.47382754 0.09131579 0.220475 0.08714329 0.08770979 -0.065202564 0.67284006 -0.09430338
-0.48110455 -0.18780047 -0.15808213 0.16989551 0.33965814 -0.124715246 0.2745776 0.24841763
-0.30220485 0.22524638 -0.06476169 0.22955908 0.36572257 0.21819185 -0.17668596 0.13081366
0.17991403 0.330102 -0.5602682 -0.19268218 -0.13002191 -0.1750302 -0.045160703 0.14996265
-0.25903165 0.02700636
00000000: c9d6 5c3d 2994 de3e 59db 86be 6965 82be
00000010: 6f3a 9e3e 4fed e3be 45b7 12bf 4a67 e83b
00000020: c87d d03d 3f16 9fbe b6e6 153c e631 02be
00000030: 374d d4bd 8976 863e 2b85 db3e 1b0a e2be
00000040: 8699 f23e c603 bb3d 33c4 613e 2e78 b23d
00000050: 31a1 b33d ec88 85bd 3f3f 2c3f 2122 c1bd
00000060: 5653 f6be c44e 40be 48e0 21be 17f9 2d3e
00000070: ace7 ad3e b56a ffbd 6f95 8c3e 3161 7e3e
00000080: 98ba 9abe fda6 663e c7a1 84bd 8911 6b3e
00000090: fd3f bb3e af6d 5f3e 2aed 34be 04f4 053e
000000a0: 623b 383e 2103 a93e bd6d 0fbf 7a4e 45be
000000b0: 7724 05be 1e3b 33be 6efa 38bd cf8f 193e
000000c0: cc9f 84be 713c dd3c

f3_fc3.bias f4 [5]
-0.21016608 -0.14853972 -0.2502126 0.122731045 0.28697288
00000000: c735 57be cc1a 18be de1b 80be 6a5a fb3d
00000010: 1cee 923e

f3_fc4.weight f4 [1, 5]
0.6412229 0.17482069 -0.62746924 0.11194966 0.44222903
00000000: 2f27 243f 3204 333e d3a1 20bf dd45 e53d
00000010: d86b e23e
