data/Crossing_waves/Poly/seed=23/Crossing_waves.pth (torch, 8696 bytes, 14 tensors)

f1_fc1.weight f4 [5, 2]
000000 6c f8 fe bd 1b cb 0a c0 c9 f4 a1 3b e1 7b 73 be
       -0.124497265 -2.1686466 0.0049425107 -0.23777725
000010 9a cc 5d 3e fb 4d 1c 3f e1 f3 e6 bb 06 7e 11 3f
       0.2166008 0.6105649 -0.0070481156 0.5683292
000020 e0 af 40 3d fd e1 a9 bf
       0.047042727 -1.3272091

f1_fc1.bias f4 [5]
000000 31 10 b2 41 f1 54 96 c0 d7 73 b4 c0 05 91 31 c0
       22.257906 -4.697869 -5.6391406 -2.7744763
000010 2a 61 e3 3f
       1.7764027

f1_fc2.weight f4 [10, 5]
000000 e6 c0 82 bf ab 65 ef c0 95 fe 65 bf 4b 4b 81 c0
       -1.0215118 -7.4811606 -0.89841586 -4.040441
000010 67 98 87 3f 00 bc 4b bf 4b c4 1f 41 20 fe e3 bf
       1.0593385 -0.7958374 9.985423 -1.7811928
000020 89 84 47 bf 98 94 57 bf 76 a0 8a 3f d1 41 1f be
       -0.7793661 -0.8421111 1.0830219 -0.1555245
000030 dc 09 82 3e 6f df b5 3f d7 ab 98 bc bd 32 71 40
       0.25398147 1.4208812 -0.018636627 3.7687218
000040 56 9e 98 bf f7 8d 74 be 02 68 e3 bf f1 68 fa 3d
       -1.192332 -0.2388228 -1.7766116 0.12227047
000050 85 82 61 bf 7e 6c bf c0 70 55 4c bf 0b d8 76 c0
       -0.8808978 -5.9819937 -0.7981787 -3.8569362
000060 7a 66 65 3f b5 41 78 be a6 57 33 c0 3a a4 95 bb
       0.8960949 -0.24243815 -2.8022246 -0.0045666965
000070 dc 37 74 be 12 5e c7 3c 74 11 a4 3f 2d e8 98 c0
       -0.23849434 0.024336848 1.2817826 -4.778342
000080 b7 80 de 3c e9 ef 08 c0 fd bd e7 be 16 51 5f 3c
       0.027160985 -2.139643 -0.45262137 0.013630172
000090 18 d2 1e 41 5a 77 06 3f fa e4 67 c1 97 87 06 be
       9.926292 0.52525866 -14.4934025 -0.13137661
0000a0 aa 90 41 40 5f d8 88 c0 e1 ae 77 be d2 18 25 c0
       3.0244546 -4.2764125 -0.24187805 -2.57964
0000b0 5f 73 2f be bb 18 87 be 03 72 07 3d 10 11 39 3e
       -0.17133854 -0.26386055 0.033067714 0.18072915
0000c0 df e6 57 bd 1a 88 e1 3d
       -0.05271041 0.110122874

f1_fc2.bias f4 [10]
000000 e9 03 e1 40 51 76 51 c1 f2 22 b6 3d 0f 54 a3 3f
       7.0317273 -13.091386 0.08893384 1.2760028
000010 9b b5 bf 40 b8 f7 43 40 f8 b3 84 40 b3 64 1e c1
       5.9909186 3.0619946 4.146969 -9.899585
000020 35 54 94 40 13 a6 88 3e
       4.635279 0.26689205

f1_fc3.weight f4 [5, 10]
000000 2d c5 f6 3e 2e 02 6c bf 69 f8 f0 3c c6 d5 68 bf
       0.48197308 -0.92190826 0.029415326 -0.9095119
000010 ce 93 64 c0 18 c1 04 be 44 64 33 3f 84 47 6f bf
       -3.5715213 -0.12964284 0.7007487 -0.934685
000020 39 4e f2 bf 0f 92 87 bd 1c a3 dd 3c 55 38 a3 be
       -1.8930122 -0.06619655 0.027055316 -0.31878915
000030 14 41 96 3d 95 b7 27 3f f6 ce ec bf f6 96 b5 3e
       0.073366314 0.655145 -1.850066 0.35466737
000040 33 98 08 be 78 dc e5 bc 6d a1 4b bf c6 d8 11 3e
       -0.1333931 -0.02805923 -0.7954319 0.14242849
000050 fc 42 00 c0 24 0c 23 c0 ef 5b 58 c0 15 33 f8 bf
       -2.0040884 -2.547616 -3.3806112 -1.9390589
000060 5a 6f 41 c0 20 5c 9a 3f 57 d3 e7 3f ab 84 cc 3f
       -3.0224214 1.2059364 1.8111371 1.5977987
000070 bd fd aa be 96 6a bf c0 8b 8a c8 bf 97 ef ab 3d
       -0.33396712 -5.981761 -1.566728 0.083953075
000080 30 35 0d 3f 44 4b fe be 48 a8 81 be 3a f6 d5 be
       0.5515928 -0.49666798 -0.253237 -0.41789418
000090 20 14 c2 be aa 2d 84 3d a0 27 08 3f dc 29 9c bd
       -0.3790598 0.06454022 0.5318546 -0.076251715
0000a0 42 48 76 c0 a6 de 88 c0 cf 11 95 3e 0f b8 90 3f
       -3.8481603 -4.277179 0.2911515 1.130617
0000b0 af d9 18 c0 f5 e7 9d 3f 23 4e 4a 40 9e 2d 7f c0
       -2.3882864 1.2336413 3.161019 -3.9871593
0000c0 6a 93 0a c1 a5 05 33 bf
       -8.66099 -0.6993049

f1_fc3.bias f4 [5]
000000 43 dd b9 bd 1e d8 5b 3e 28 0e 4c 40 5f ab 3f 3e
       -0.090754054 0.21469161 3.188364 0.18717717
000010 7b f7 94 40
       4.65521

f1_fc4.weight f4 [1, 5]
000000 01 b0 ef 3f 65 4e 5a 3e b9 49 81 bf 07 9f 47 be
       1.8725587 0.21318968 -1.0100623 -0.19494258
000010 a5 db e3 be
       -0.44503513

f2_fc1.weight f4 [5, 2]
000000 64 44 96 3e 4a 44 4e bf 83 0a ff bc 7e 23 1f bf
       0.29349053 -0.8057295 -0.031132942 -0.6216353
000010 c3 06 8b 3e 8b 9d 78 c0 47 43 55 3c fd 73 fa be
       0.27153596 -3.8846157 0.013016528 -0.48916617
000020 53 4d cd bd 8d 5a 25 c0
       -0.10024514 -2.5836518

f2_fc1.bias f4 [5]
000000 41 7f 8e c0 c1 5d d4 be 53 16 21 bf c8 b7 b4 c0
       -4.453034 -0.4147778 -0.6292469 -5.647434
000010 55 8d 8c 41
       17.56901

f2_fc2.weight f4 [10, 5]
000000 65 91 cb bd f9 14 90 be 6f bd fe 3e 6b 7b 4e c0
       -0.09939841 -0.28141 0.497539 -3.2262828
000010 1b c6 b6 be 09 2e 5e 3e b8 7e 4d 40 73 c9 4d 3e
       -0.35698017 0.21697249 3.2108593 0.20096378
000020 ac 78 6a 41 41 04 8f bf 59 ec d0 3d e6 44 52 c0
       14.654461 -1.1173173 0.1020133 -3.2854552
000030 83 75 4f bf 73 09 38 c0 61 e2 f1 c0 7e 76 30 3e
       -0.81038684 -2.8755767 -7.558884 0.17232701
000040 73 54 4a 40 d4 c1 2f 3e 0a 1d cb 3e ad 97 68 40
       3.1614044 0.17163783 0.39670593 3.6342576
000050 e1 42 83 3d c6 a3 46 40 59 dc dd 3d f4 58 81 bf
       0.064092405 3.103746 0.108330436 -1.0105271
000060 d6 05 a4 3f ec a5 04 3e 6d 7f 2c 3f 99 86 a9 bd
       1.2814281 0.12953919 0.67381936 -0.082776256
000070 64 58 28 3f b1 8f 33 40 fa f2 8d be f9 9f 37 bf
       0.65759873 2.8056452 -0.2772444 -0.71728474
000080 4d ce fa 3e 99 df 2a c0 14 8a 52 40 86 f0 57 bd
       0.4898552 -2.6698973 3.2896776 -0.052719615
000090 64 5c 1c c0 43 6a 02 bd 74 ca 06 3f 6e e5 c6 c0
       -2.443139 -0.03183962 0.5265267 -6.2155066
0000a0 c3 5e db be 3a 21 95 c0 e9 fb 25 3d 09 3b 70 c1
       -0.42845735 -4.660306 0.040523443 -15.014413
0000b0 b0 d3 7d 3f 06 2f 89 3e 4c bd e0 be 31 99 82 3e
       0.99151134 0.2679369 -0.43894422 0.255075
0000c0 c1 e0 f6 be f4 e7 11 bd
       -0.4821835 -0.0356216

f2_fc2.bias f4 [10]
000000 c3 f7 42 bf 13 92 07 bf fa ed 47 40 c6 b5 66 c0
       -0.76159304 -0.52957267 3.1239 -3.6048446
000010 90 81 8d bf 57 f7 41 3f db fb da 3f ef 3d f9 3f
       -1.1055164 0.75768036 1.710811 1.9472026
000020 d2 c3 fa bf d6 e1 2c 3e
       -1.959101 0.16883025

f2_fc3.weight f4 [5, 10]
000000 49 3f 53 c0 87 74 61 3f a9 f1 f9 3f cf 41 9f 3f
       -3.3007376 0.8806843 1.9526874 1.2441958
000010 70 af 06 3f e2 3c 82 c0 d4 b0 a8 3e 87 a7 20 c0
       0.52611446 -4.069932 0.3294741 -2.510225
000020 43 9e 02 bc 72 85 05 c0 13 b2 bc be 25 76 09 bd
       -0.007972303 -2.0862699 -0.3685461 -0.033559937
000030 e8 31 a1 bf 9f 62 52 3e b7 0e c3 be d5 64 61 3c
       -1.2593355 0.20545433 -0.38097164 0.01375695
000040 5d b0 54 bd d6 b4 27 c0 bd ca 59 be 81 f0 6f 3e
       -0.051926006 -2.6204123 -0.21268745 0.23431589
000050 0f 15 6c 3e 66 40 e1 bf eb a6 c5 3e 8e 38 81 bf
       0.23054908 -1.7597778 0.3860391 -1.0095384
000060 5a fe 75 3f 76 8b 1c 3f d8 3d 5e 3e aa a6 95 be
       0.96091235 0.611503 0.21703279 -0.29228717
000070 9c 7d 79 3d 0b ad 35 3c 61 b0 f7 3c 7a b9 4c be
       0.060910806 0.01108862 0.030235471 -0.19992629
000080 2f 96 a0 be 26 15 c3 3e 07 97 3f be 2a c6 2b 3e
       -0.3136458 0.38102072 -0.18709956 0.16774812
000090 bd 7c 08 bf 22 70 5f bf 66 b1 25 c0 47 d7 9f 3e
       -0.53315336 -0.87280476 -2.5889525 0.3121893
0000a0 9d fb fe 3e fc 41 91 3e d7 91 32 3d 3f c4 9e bf
       0.4980134 0.28370655 0.043596115 -1.240364
0000b0 e8 c6 98 3e 67 17 7a bf a9 e5 03 bf 05 37 bd be
       0.29839253 -0.9769196 -0.5152231 -0.3695604
0000c0 8b ba 46 3e cd f3 66 3e
       0.19407098 0.2255394

f2_fc3.bias f4 [5]
000000 3f ac f8 bf 59 f8 39 3f b7 02 6b c0 db a3 f6 be
       -1.9427565 0.72644573 -3.6720407 -0.48171887
000010 a5 68 9c bf
       -1.2219435

f2_fc4.weight f4 [1, 5]
000000 ac fd 2f 3e 21 fc 45 3e 90 71 99 3e 5c a9 2c 3e
       0.17186612 0.19334461 0.29969454 0.1686148
000010 6a 9d 12 3e
       0.14317861
