data/Wildfire/Poly/seed=227/Wildfire.pth (torch, 10080 bytes, 21 tensors)

f1_fc1.weight f4 [5, 2]
000000 df 4d 25 3e a6 50 f9 3f 50 b5 86 3d 36 44 b0 bd
       0.16142987 1.9477737 0.06577551 -0.0860676
000010 c4 3f 5c bd 4e 21 4f 3e da 8a e9 3d 1c ba d4 3e
       -0.05377175 0.20227548 0.11403437 0.4154824
000020 5e 2c 23 3d 05 5c 44 bd
       0.039837234 -0.04793932

f1_fc1.bias f4 [5]
000000 63 54 36 c1 68 ae 94 3f 80 fa f0 40 77 f9 40 bf
       -11.395602 1.1615725 7.5305786 -0.75380653
000010 e5 78 ea c0
       -7.3272576

f1_fc2.weight f4 [10, 5]
000000 45 6f aa 3e e9 5e c0 3e 64 76 0a 40 a3 8f 82 be
       0.33288017 0.3757241 2.163476 -0.2550021
000010 8f f3 c1 bd 7d eb 2d bf a6 a4 06 bf 81 7d 30 41
       -0.09470283 -0.6793745 -0.52594984 11.030641
000020 41 9b 4c bf 18 6e 00 c0 ec f2 ad 3d 39 ae c2 be
       -0.799244 -2.0067196 0.08493599 -0.38023546
000030 76 05 a4 c0 d4 71 71 3f eb f4 32 40 50 9b 9e be
       -5.1256666 0.9431431 2.7961986 -0.3097787
000040 18 54 ac be e5 24 8b 40 54 a1 5c bd 83 dc f1 bf
       -0.33657908 4.3482537 -0.053864792 -1.889542
000050 7e a1 fa be 90 ca 84 be df d1 8f 40 06 70 c1 3d
       -0.48951334 -0.25935793 4.494369 0.09445195
000060 95 61 28 be 29 bd 5f 3f be e6 3a 3e 8f ba cc bb
       -0.16443475 0.8739801 0.18252084 -0.0062478255
000070 1f 42 e8 3d d4 a1 27 3f a5 cf 5d 3f 9b a2 a1 bc
       0.113407366 0.65481305 0.86644965 -0.019730857
000080 66 33 30 c0 cc 81 c3 bd 6b f4 8b 3f bb a0 5f 3f
       -2.753137 -0.09546241 1.0933965 0.8735463
000090 67 ad c7 3d 19 c2 f8 3f ae 85 40 3d 3e 65 4c 40
       0.09749871 1.9434234 0.047002487 3.1936793
0000a0 c0 72 5a c1 01 8e 99 bf f9 56 82 41 32 8c 9c c0
       -13.653015 -1.1996461 16.292467 -4.8921137
0000b0 c1 74 c3 c1 0a 51 9e 3e 54 ab 30 bf ba 05 0e c0
       -24.432009 0.30921203 -0.69011426 -2.2190995
0000c0 ff 9b 65 be e0 7a a0 c0
       -0.22422789 -5.0149994

f1_fc2.bias f4 [10]
000000 b0 43 41 3e f0 af a2 40 55 fb de c0 34 d7 32 40
       0.18873477 5.0839767 -6.96818 2.794385
000010 fd 1c 18 40 63 06 4d bf 93 73 b8 bf 3f 6d 2d 40
       2.3767693 -0.8008787 -1.441027 2.7097929
000020 c4 82 8a 41 0f 62 2f 40
       17.31385 2.74036

f1_fc3.weight f4 [5, 10]
000000 02 d9 8e bd e4 e2 9c bd 06 e2 bb be 91 69 af bf
       -0.06974985 -0.076604635 -0.3669588 -1.3704091
000010 4f af bc c0 3a 43 18 c1 a6 99 90 3f 96 1e 18 be
       -5.8964 -9.516413 1.129689 -0.14855418
000020 bc 67 12 c1 be c1 23 c0 86 35 00 bd 64 b0 d2 3e
       -9.150326 -2.5587 -0.031301044 0.411502
000030 a9 98 98 c0 e3 e5 a8 bf 62 4d bf 3d 5a 2f 47 be
       -4.7686353 -1.3195156 0.093409315 -0.19451657
000040 64 5a 1e 3f 98 05 bb bd 35 c5 07 bc cc cd a4 bf
       0.61856675 -0.09131926 -0.008286764 -1.2875304
000050 90 d1 0c bf 27 b1 12 bf 0c 0a 09 bf 1a b7 b6 3e
       -0.55007267 -0.57301563 -0.53530955 0.3568657
000060 4d 90 ae be aa 19 89 3b ea 71 29 3e ce 12 52 3c
       -0.34094468 0.0041839676 0.16547361 0.012821866
000070 9e 12 10 c0 bf 5c 5d 3f 39 4e 39 bf f1 64 c2 be
       -2.2511363 0.86469644 -0.72384983 -0.37967637
000080 89 36 10 bf 74 41 d3 3e e6 f8 31 3d 05 db 54 3e
       -0.56333214 0.41260874 0.04345026 0.20786674
000090 80 20 73 3e b0 10 c8 bd 9f fb ef bf ae 8d d6 3e
       0.23742867 -0.09768808 -1.8748664 0.41904968
0000a0 5e ef 97 bd c4 1e b7 be 75 b5 29 bf aa 5c 8f 3e
       -0.074187025 -0.3576566 -0.66292506 0.28000385
0000b0 28 c7 96 be 91 56 65 3f 7c a1 22 3e 2c 45 7f bf
       -0.2944882 0.89585215 0.15881914 -0.9971492
0000c0 29 37 01 c0 98 65 8e 3f
       -2.0189917 1.1124754

f1_fc3.bias f4 [5]
000000 d6 2e 8b 40 55 b9 54 c0 02 67 d0 3d de 3a 06 bf
       4.3494673 -3.3238118 0.10175897 -0.52433574
000010 43 71 cf be
       -0.405161

f1_fc4.weight f4 [1, 5]
000000 30 48 11 bf 19 60 10 be 3f 2d 7e 3f ed 15 ba be
       -0.56750774 -0.14099158 0.9928779 -0.36344853
000010 96 1d 80 bf
       -1.0009029

f2_fc1.weight f4 [5, 2]
000000 36 96 d2 3e d1 bd 09 3f 1f 26 19 3e c3 84 5c 3e
       0.41130227 0.5380526 0.14955948 0.2153502
000010 66 20 86 3c 71 00 bb be 8a 4a 34 3d 23 c6 39 3f
       0.01637287 -0.36523774 0.0440164 0.7256796
000020 11 77 6d 3e 81 7d 8f 3e
       0.23189951 0.2802544

f2_fc1.bias f4 [5]
000000 6c f8 75 c1 51 aa 87 c1 67 dc 25 c0 a4 ba 0d c1
       -15.37315 -16.958162 -2.5915773 -8.858067
000010 63 b4 4d 40
       3.214135

f2_fc2.weight f4 [10, 5]
000000 bc ef 84 3d a1 2e 93 40 d9 c7 9c bf b7 a8 d4 be
       0.06491038 4.599442 -1.2248489 -0.4153497
000010 10 9e c0 be d0 a5 0b 3f 75 4b 92 be 62 af 6d bf
       -0.37620592 0.54549885 -0.28573194 -0.9284574
000020 08 6a 82 3b f1 8d 10 3e 30 b2 ab be a9 fd 97 c0
       0.003979925 0.14116646 -0.33534384 -4.7497144
000030 1b de d3 3f 53 22 a8 c0 17 3f a3 bd b4 fa 65 be
       1.6552156 -5.25419 -0.07971018 -0.22458917
000040 00 6a da be 7c fd ca bd 47 8a 60 3e ad ee 1c 3e
       -0.42658997 -0.099116296 0.21927749 0.15325423
000050 69 09 45 be f2 8f 23 c0 f1 7f 53 3f 44 14 35 c0
       -0.19241871 -2.5556607 0.826171 -2.829362
000060 ab 60 01 bd 9b 98 69 be 49 fd 95 c0 e2 a7 3a 3f
       -0.03158633 -0.2281212 -4.6871686 0.7291242
000070 e1 ce 59 3e 94 b7 83 3e 61 da 0c be 87 e3 a9 c0
       0.21270324 0.25725996 -0.1375518 -5.3090243
000080 c7 30 79 bf d0 56 9a bc 20 34 c0 bd c4 5e 53 3d
       -0.97340053 -0.018840224 -0.09384942 0.051604047
000090 d7 c9 b7 be 8d e6 06 be af 00 11 bf ce 20 ee 3d
       -0.3589618 -0.13173886 -0.5664167 0.11627351
0000a0 1f 11 64 be 4e 87 40 c0 a4 6e dd 3f f2 58 58 c0
       -0.22272156 -3.0082583 1.729939 -3.3804288
0000b0 92 ff 38 bd 80 a9 d1 bf ad 95 1d 3f 39 3e 1b bf
       -0.045165606 -1.6379852 0.6155651 -0.6064182
0000c0 12 ab b2 bc e5 30 e6 c0
       -0.021810088 -7.1934686

f2_fc2.bias f4 [10]
000000 eb 79 89 bf 0e 03 c1 3f 35 47 8a 40 5b ad d7 3d
       -1.0740331 1.5079057 4.3211923 0.10531112
000010 f7 03 4c 40 b8 a4 2f bd 71 51 82 40 24 c1 aa c0
       3.187742 -0.042881697 4.0724416 -5.3360767
000020 87 8f 52 40 a7 7d 34 40
       3.2900102 2.8201692

f2_fc3.weight f4 [5, 10]
000000 44 7e ef bf 3b ba af be 83 8d e2 3f e3 05 9f be
       -1.8710408 -0.3432177 1.7699436 -0.3105918
000010 5c 99 98 3e 37 c6 7d 3e 1e a0 96 bf d8 a2 94 bf
       0.29804504 0.24782644 -1.1767614 -1.1612196
000020 ce 6c 38 c0 69 1c d7 bf 4d 4e 98 bf 18 b2 bf be
       -2.881641 -1.6805545 -1.1898896 -0.37440562
000030 65 03 d6 bf b1 d9 c2 be 22 13 04 40 82 a5 5a 3d
       -1.6719786 -0.3805671 2.0636678 0.053380497
000040 83 ee d3 bf c3 ae b6 be a5 8a 62 c0 3a d6 bc bf
       -1.6557163 -0.35680208 -3.5397122 -1.4752877
000050 93 43 b6 bb 42 79 82 3a 62 d5 0c 3f 8a a3 85 3f
       -0.0055622547 0.000995435 0.55013096 1.0440533
000060 a1 ad 7f bf 98 78 50 3e d7 93 8e be a5 fa 64 be
       -0.9987431 0.20358503 -0.27847168 -0.22361238
000070 04 6f 0d c0 98 11 09 3f 26 11 77 bf f7 3a 24 be
       -2.2099009 0.5354247 -0.9651054 -0.16038118
000080 ac 70 a7 3f c3 77 5e be 01 5b a1 3c 1f 88 45 3e
       1.308126 -0.21725373 0.019696714 0.19290207
000090 b9 30 9b bf 95 bd c2 be 35 f8 17 c0 36 14 02 bf
       -1.2124244 -0.38035265 -2.3745244 -0.5081209
0000a0 13 aa c9 bb bb 06 05 3b 8c fa 98 bf 0e 04 89 3f
       -0.0061543076 0.00202982 -1.1951461 1.0704362
0000b0 b9 36 d1 bf 8f 5c 56 3e 28 0c 91 be 5e 9d 7d be
       -1.6344825 0.20933746 -0.28329587 -0.24767062
0000c0 15 4d 95 3f ea 07 e6 3e
       1.1664149 0.44927913

f2_fc3.bias f4 [5]
000000 48 d3 0f 3f 4b 46 33 3f bd 6f 19 bf 5b 2a 4c bf
       0.56181765 0.70029134 -0.59936124 -0.7975213
000010 15 ee a2 3e
       0.31822267

f2_fc4.weight f4 [1, 5]
000000 f0 ee 9e bf ba 58 df be 45 68 1b bf 6a 7a d5 3f
       -1.2416668 -0.4362238 -0.6070598 1.6677983
000010 ca 8b 17 3f
       0.59197676

f3_fc1.weight f4 [5, 2]
000000 e7 38 b6 bc dc 1f fc ba 36 f3 8f c0 0c bf 9c 3a
       -0.02224393 -0.0019235569 -4.498439 0.0011958792
000010 a7 e5 82 bc b7 a8 bb ba 36 6f 82 c0 d1 93 bf bb
       -0.015978647 -0.0014317249 -4.0760756 -0.0058464785
000020 1b 3e 81 3e 0b c3 b5 3c
       0.25242695 0.02218773

f3_fc1.bias f4 [5]
000000 ef 4b e4 bf 2b 53 e2 3f a6 3c 4b 40 53 f1 a0 c0
       -1.7835673 1.7681631 3.1755767 -5.0294585
000010 d6 01 b9 bf
       -1.4453685

f3_fc2.weight f4 [10, 5]
000000 53 af 96 3d 99 ef 0d 3e 39 68 b2 be 14 1b 8f be
       0.07357659 0.1386093 -0.3484514 -0.27950346
000010 5c 68 d3 3e 29 c0 0a c0 4e 94 51 bb cc d9 9a bf
       0.41290557 -2.1679785 -0.0031979266 -1.2097716
000020 77 17 99 bc 7d 98 89 bd ea 75 ce 3f e6 83 28 3d
       -0.018687947 -0.06718538 1.6129735 0.041141413
000030 9c ff 11 3f 44 64 a1 bb d7 18 80 ba 51 57 3a bd
       0.57030654 -0.0049252827 -0.0009773028 -0.045493428
000040 46 21 49 3d 4f f7 bf be ce 34 24 3e 0a 2b 4c 3e
       0.049103998 -0.3749337 0.16035768 0.19938293
000050 dc 34 ad 3e 3a fa 37 3d 82 c0 e7 3d c8 72 5c 3c
       0.3382939 0.04491637 0.11316015 0.0134551
000060 d4 7a f4 3e e4 f6 ec 3e 2f f0 d8 3c 93 83 5a 3e
       0.4774996 0.46282113 0.026481716 0.21339254
000070 e4 c7 84 be e2 a9 05 3e 51 42 6c be fa f0 af be
       -0.25933754 0.13053086 -0.23072173 -0.34363538
000080 63 f8 01 3d 5d e5 83 bf 35 2a 20 3e 21 d8 f9 3c
       0.03173102 -1.0304371 0.156411 0.030498566
000090 a4 16 88 3e 83 05 d6 bd da 0c 87 be 5b 81 08 3d
       0.26579773 -0.1045027 -0.26376992 0.033326488
0000a0 d3 88 93 c0 85 ba c1 bd 85 61 86 c0 c5 f7 8d c0
       -4.610452 -0.09459404 -4.1994042 -4.4364953
0000b0 1b 5c bb be 6b 4d 7e 3e 33 b6 ed 3e 31 be c9 3e
       -0.36593708 0.2483422 0.4642807 0.39402917
0000c0 9b 9f 8c be 51 37 10 3e
       -0.2746552 0.14083602

f3_fc2.bias f4 [10]
000000 3b 18 97 bf 37 6d 9c 3f 10 d7 e6 be b2 90 2b 3e
       -1.180427 1.222083 -0.45085955 0.16754416
000010 ad 70 ff bd cf f3 a4 3e 99 3d e6 3e a3 0a 75 3e
       -0.12472663 0.3221726 0.4496887 0.23929839
000020 34 df 83 40 b4 0d 5f 3c
       4.1209965 0.013614107

f3_fc3.weight f4 [5, 10]
000000 e0 27 61 3d 06 5a 50 3e f3 c8 79 3d 50 37 82 3e
       0.05496967 0.20346841 0.060982656 0.25432825
000010 b3 c0 24 3e f4 10 5d be 06 f6 84 bd c7 a3 38 3e
       0.16089134 -0.21588498 -0.06492238 0.18031226
000020 ab a3 69 3e 5f 2d d3 3e 66 a8 50 bd 92 98 8a be
       0.2281634 0.41245553 -0.050941847 -0.27069527
000030 b2 bc e5 bd 8a 36 95 3e e6 1a 15 3e 3d fd 39 3e
       -0.112176314 0.29143173 0.14561042 0.18163009
000040 19 22 59 be e0 89 0e be a5 1c 3a bf a3 9f 12 3e
       -0.21204413 -0.13919783 -0.7269996 0.14318709
000050 e0 97 fc 3c 7e 3e 51 40 35 8e 5e bf 6c 3f 23 be
       0.030834138 3.2694392 -0.8693574 -0.15942162
000060 2f 09 6d be 97 42 c7 be 27 76 54 3e 15 d4 dd 3e
       -0.23148035 -0.38917992 0.20748197 0.43325868
000070 09 62 91 bf 34 1a 6c be 63 dd d3 be 1c b8 6e 40
       -1.1358043 -0.2305687 -0.41379842 3.7299871
000080 b2 23 f1 bf ea cb 02 bd 79 0c 97 bc 93 dc 6a 3d
       -1.8839018 -0.03193275 -0.018438565 0.057339262
000090 d0 73 86 3c 17 ad 14 3f c3 fc 37 40 a7 f3 ab 3e
       0.016412646 0.58076614 2.8748024 0.3358433
0000a0 8e 99 61 3d 23 95 00 3e 3f 94 37 3d bc f9 96 3e
       0.05507808 0.12556891 0.044819113 0.29487407
0000b0 aa 4a 94 be 5e 6c 34 3e e3 7e f1 3d dc 9c 9d be
       -0.28963214 0.17619464 0.1179178 -0.30783737
0000c0 de 0d 2a bf bf 53 44 3e
       -0.6642741 0.19172572

f3_fc3.bias f4 [5]
000000 b4 3e 80 3e 00 df 42 bd 24 88 00 3f 5d c2 b6 3f
       0.2504784 -0.04757595 0.50207734 1.4278065
000010 58 83 58 3e
       0.21143854

f3_fc4.weight f4 [1, 5]
000000 33 dd 2f 3e fa 19 84 be ea 91 d5 be fa dd 7b be
       0.17174225 -0.2580107 -0.41712886 -0.24596396
000010 af 78 56 bf
       -0.837779
