data/Crossing_waves/Poly/seed=54/Crossing_waves.pth (torch, 8696 bytes, 14 tensors)

f1_fc1.weight f4 [5, 2]
0.049211934 1.9120989 0.05340444 -0.15210077 -0.053981185 0.2811742 0.066274494 0.45923546
0.038695503 -0.014752253
00000000: 7492 493d a8bf f43f 9dbe 5a3d 4ec0 1bbe
00000010: 601b 5dbd 11f6 8f3e ecba 873d e920 eb3e
00000020: 2d7f 1e3d 6fb3 71bc

f1_fc1.bias f4 [5]
-11.267925 1.7466685 7.185557 -1.0345184 -7.183764
00000000: 6c49 34c1 d592 df3f 15f0 e540 196b 84bf
00000010: 65e1 e5c0

f1_fc2.weight f4 [10, 5]
0.378269 0.2842318 2.2910333 -0.24674936 -0.17100333 -0.9372984 0.8177066 4.705348
0.3268003 1.7249844 0.13788587 -0.6322802 -5.1371517 0.92934144 3.1641433 -0.67339313
0.32093024 0.84761715 0.3210097 0.63274735 -2.5469575 -0.040904254 -0.3574647 -0.4333103
1.9744086 0.825894 0.17469323 0.07390063 0.11529853 0.4187572 0.7923774 0.2909169
-2.736213 -0.0357538 0.44897634 0.9239102 0.10110801 1.8774583 0.04727033 3.4224098
-5.01869 -1.3753607 -1.3526402 -0.63585883 -14.207546 0.21627173 -0.38816524 -2.160634
-0.25068104 -5.6172075
00000000: 79ac c13e d586 913e 4aa0 1240 ddab 7cbe
00000010: 7f1b 2fbe caf2 6fbf 3855 513f 3692 9640
00000020: 5e52 a73e 4acc dc3f f431 0d3e 1ddd 21bf
00000030: 8c63 a4c0 52e9 6d3f 5381 4a40 7e63 2cbf
00000040: f850 a43e 70fd 583f 625b a43e bbfb 213f
00000050: 5a01 23c0 388b 27bd 9d05 b7be d9da ddbe
00000060: 6cb9 fc3f ca6d 533f c8e2 323e 3759 973d
00000070: a321 ec3d 5867 d63e 3fd9 4a3f 0ff3 943e
00000080: 1d1e 2fc0 9472 12bd 3ae0 e53e 6185 6c3f
00000090: b711 cf3d 8e50 f03f 899e 413d c308 5b40
000000a0: 1c99 a0c0 d20b b0bf 5023 adbf a5c7 22bf
000000b0: 1c52 63c1 5676 5d3e 98bd c6be d447 0ac0
000000c0: 4459 80be 2ac0 b3c0

f1_fc2.bias f4 [10]
0.26897332 0.70744795 -7.350027 0.31146693 0.55626464 -0.60262495 -0.9443905 2.5155451
7.334737 3.2888498
00000000: dfb6 893e 4f1b 353f 6c33 ebc0 9878 9f3e
00000010: 5c67 0e3f a145 1abf 93c3 71bf b1fe 2040
00000020: 2ab6 ea40 847c 5240

f1_fc3.weight f4 [5, 10]
0.012077907 0.033773504 -0.368859 -1.3341099 -5.904771 -9.622858 1.1310809 -0.09314825
-9.153499 -2.5458484 -0.75792205 -0.9048794 -2.260168 0.37889966 -0.8137304 -0.19277598
0.8223658 -0.31006873 -1.6177232 -0.6454026 -0.6431918 -0.47073647 -0.57798034 0.23134974
-0.1389638 -0.03336692 0.16423653 -0.040980607 -2.148738 0.91924655 -0.7104544 -0.49024737
-0.62540245 0.39823765 -0.10606042 0.18100694 0.18348666 -0.111528866 -2.0467038 0.38999772
-0.083385326 -0.5017954 -1.1197693 0.03745624 -0.50072527 0.8462169 0.083361514 -1.0340966
-2.2127416 0.9718871
00000000: 6ae2 453c 1656 0a3d 16db bcbe 1dc4 aabf
00000010: e2f3 bcc0 3af7 19c1 42c7 903f 82c4 bebd
00000020: bb74 12c1 2eef 22c0 2e07 42bf 2da6 67bf
00000030: 98a6 10c0 23ff c13e a350 50bf 1167 45be
00000040: 9186 523f 54c1 9ebe 8e11 cfbf 1b39 25bf
00000050: 38a8 24bf 5f04 f1be 85f6 13bf f2e6 6c3e
00000060: 874c 0ebe c0ab 08bd 9f2d 283e 48db 27bd
00000070: ec84 09c0 be53 6b3f 57e0 35bf b401 fbbe
00000080: 601a 20bf cee5 cb3e 3536 d9bd e259 393e
00000090: ede3 3b3e 3f69 e4bd 32fd 02c0 c8ad c73e
000000a0: edc5 aabd aa75 00bf 9a54 8fbf b76b 193d
000000b0: 882f 00bf aca1 583f 71b9 aa3d 475d 84bf
000000c0: 8f9d 0dc0 98cd 783f

f1_fc3.bias f4 [5]
4.3574567 -1.5143248 -0.0030222617 -0.34971482 -0.21286927
00000000: 4970 8b40 65d5 c1bf 2311 46bb d20d b3be
00000010: 67fa 59be

f1_fc4.weight f4 [1, 5]
-0.70483583 -0.2524123 0.81339025 -0.17595348 -0.6230043
00000000: 1f70 34bf 2f3c 81be 583a 503f 262d 34be
00000010: 367d 1fbf

f2_fc1.weight f4 [5, 2]
0.28166944 -0.64378875 -0.055760667 -0.092676975 0.011577067 -1.2934215 0.025905382 1.3260423
0.23609245 -1.1513506
00000000: fa36 903e 57cf 24bf 4c65 64bd 6dcd bdbd
00000010: bdad 3d3c d68e a5bf 8637 d43c c1bb a93f
00000020: 38c2 713e 755f 93bf

f2_fc1.bias f4 [5]
-17.303236 -15.371501 8.664647 -18.120056 -1.477588
00000000: 076d 8ac1 abf1 75c1 65a2 0a41 e0f5 90c1
00000010: 9b21 bdbf

f2_fc2.weight f4 [10, 5]
1.2130126 3.8310995 -1.611406 -1.8048455 -0.71482235 0.4221465 -0.35419005 -0.20656434
-0.8570259 0.020134456 -0.903031 -5.175251 0.49533588 -4.816027 -0.033603217 -0.49125755
-0.0580552 0.29650673 0.38882354 0.1897023 -0.40265003 -3.523733 0.23120907 -0.37919995
-0.09317693 0.08927156 -0.83386284 0.46311817 0.28487167 -0.26451862 -0.70274794 -3.0224035
-0.093210466 -0.13075441 0.26631707 0.02738363 -1.6593783 0.32371837 -2.0838487 -0.26797602
-0.45900118 -3.738989 0.5115749 -3.9984653 -0.28019932 0.4285612 -2.7831843 0.18934466
-3.311192 -0.86808264
00000000: ff43 9b3f bc30 7540 8d42 cebf 2d05 e7bf
00000010: 99fe 36bf 9623 d83e 6658 b5be 9a85 53be
00000020: 0d66 5bbf 04f1 a43c 0a2d 67bf a89b a5c0
00000030: aa9c fd3e e51c 9ac0 87a3 09bd 1c86 fbbe
00000040: 4acb 6dbd bbcf 973e e113 c73e 5241 423e
00000050: 2528 cebe d784 61c0 12c2 6c3e 7f26 c2be
00000060: 8cd3 bebd 02d4 b63d 0978 55bf d31d ed3e
00000070: b3da 913e fc6e 87be 4ae7 33bf 0f6f 41c0
00000080: 21e5 bebd 7ce4 05be b65a 883e a253 e03c
00000090: 8266 d4bf 6abe a53e c75d 05c0 2734 89be
000000a0: 3402 ebbe 994b 6fc0 93f6 023f dbe6 7fc0
000000b0: 4976 8fbe 606c db3e b11f 32c0 91e3 413e
000000c0: 92ea 53c0 aa3a 5ebf

f2_fc2.bias f4 [10]
-0.8612591 0.6816874 5.209478 -0.47793278 3.5898228 0.3824032 3.1675618 1.3789244
3.8020482 6.779885
00000000: 7a7b 5cbf 1183 2e3f 0bb4 a640 9bb3 f4be
00000010: a8bf 6540 5aca c33e 55b9 4a40 9880 b03f
00000020: c254 7340 d1f4 d840

f2_fc3.weight f4 [5, 10]
-0.92967224 -0.76562405 1.6523249 -1.8853232 1.3208213 -0.298129 -1.7627187 -1.2546655
-2.953795 -1.0990615 -0.8292167 -0.5065218 -1.251335 -1.6214273 3.5291378 -0.33962527
-1.2789915 0.4615327 -3.0119421 -0.48789003 -0.12338528 -0.059599817 0.4114104 1.0286311
-0.57464266 0.21523106 -0.21674849 -0.33431107 -2.3858745 0.44212756 -0.8418341 -0.59069556
0.69376695 -1.6537124 -0.36676368 -0.2596701 -0.69260913 0.17803733 -2.1640527 -0.7887411
-0.12347303 -0.059943132 -1.2485174 1.0913792 -2.0185182 0.20903106 0.25297716 -0.3529427
1.1138892 0.36714125
00000000: 00ff 6dbf f0ff 43bf 627f d33f 4552 f1bf
00000010: ac10 a93f 5da4 98be c4a0 e1bf e198 a0bf
00000020: fa0a 3dc0 0cae 8cbf 8c47 54bf 6aab 01bf
00000030: bf2b a0bf ee8a cfbf 65dd 6140 5de3 adbe
00000040: feb5 a3bf 044e ec3e a9c3 40c0 b9cc f9be
00000050: 6cb1 fcbd f01e 74bd 62a4 d23e 2faa 833f
00000060: c81b 13bf 8865 5c3e 51f3 5dbe d22a abbe
00000070: 2bb2 18c0 8b5e e23e 7182 57bf d337 17bf
00000080: b69a 313f d9ac d3bf 73c8 bbbe 7bf3 84be
00000090: d54e 31bf 6b4f 363e d77f 0ac0 f0ea 49bf
000000a0: 6edf fcbd ee86 75bd 6bcf 9fbf 50b2 8b3f
000000b0: 672f 01c0 3d0c 563e 3986 813e e8b4 b4be
000000c0: ec93 8e3f f0f9 bb3e

f2_fc3.bias f4 [5]
-0.25412357 0.19924179 -0.4220269 -0.5093049 0.37744606
00000000: 7c1c 82be 0a06 4c3e e913 d8be ce61 02bf
00000010: 9c40 c13e

f2_fc4.weight f4 [1, 5]
-1.1976949 -0.5999631 -0.5920977 1.7019149 0.6167047
00000000: 114e 99bf 2f97 19bf b793 17bf 59d8 d93f
00000010: 5ce0 1d3f
