data/Crossing_waves/Poly/mac/Crossing_waves.pth (torch, 8696 bytes, 14 tensors)

f1_fc1.weight f4 [5, 2]
0.04948481 1.9156228 0.05365411 -0.15178043 -0.053856507 0.2798373 0.06625079 0.46043476
0.038705517 -0.013994825
00000000: 96b0 4a3d 2133 f53f 69c4 5b3d 546c 1bbe
00000010: a498 5cbd d646 8f3e 7fae 873d 1bbe eb3e
00000020: ad89 1e3d 8d4a 65bc

f1_fc1.bias f4 [5]
-11.264616 1.7472523 7.186673 -1.0351962 -7.1840143
00000000: de3b 34c1 f7a5 df3f 3af9 e540 4f81 84bf
00000010: 72e3 e5c0

f1_fc2.weight f4 [10, 5]
0.37696573 0.28298068 2.2995927 -0.24701113 -0.1719088 -0.94138163 0.8182834 4.7053194
0.32422173 1.72803 0.13912892 -0.6319758 -5.1331434 0.9294138 3.1664774 -0.6704633
0.32081768 0.84739965 0.32075414 0.63413846 -2.546878 -0.040830605 -0.3576689 -0.4343061
1.9629864 0.82606196 0.1744696 0.074123986 0.1155976 0.41954827 0.78606796 0.2908504
-2.7368324 -0.03612043 0.45109218 0.9227122 0.10205274 1.8763165 0.04700685 3.4223745
-5.0373225 -1.3715479 -1.3559983 -0.6389294 -14.19999 0.21731277 -0.38855657 -2.1602888
-0.25033274 -5.617831
00000000: a701 c13e d8e2 903e 872c 1340 7cf0 7cbe
00000010: dc08 30be 63fe 70bf 057b 513f fa91 9640
00000020: 6400 a63e 1630 dd3f d077 0e3e 2bc9 21bf
00000030: b642 a4c0 10ee 6d3f 91a7 4a40 7ca3 2bbf
00000040: 3742 a43e 2fef 583f e339 a43e e656 223f
00000050: 0d00 23c0 fe3d 27bd 6120 b7be 5e5d debe
00000060: 2343 fb3f cc78 533f 29a8 323e 51ce 973d
00000070: 6fbe ec3d 08cf d63e c03b 493f 58ea 943e
00000080: 4328 2fc0 04f3 13bd 8ef5 e63e de36 6c3f
00000090: 0701 d13d 242b f03f 418a 403d 2f08 5b40
000000a0: bf31 a1c0 e28e afbf 5a91 adbf e190 23bf
000000b0: 2933 63c1 3d87 5e3e e3f0 c6be 2c42 0ac0
000000c0: 9d2b 80be 46c5 b3c0

f1_fc2.bias f4 [10]
0.26870227 0.7071888 -7.350148 0.3105815 0.5563722 -0.60340345 -0.9445439 2.5158448
7.3305917 3.2883718
00000000: 5893 893e 530a 353f 6a34 ebc0 8a04 9f3e
00000010: 696e 0e3f a678 1abf a1cd 71bf 9a03 2140
00000020: 3594 ea40 af74 5240

f1_fc3.weight f4 [5, 10]
0.0107516665 0.033727802 -0.36972225 -1.3340895 -5.9057536 -9.622243 1.1314723 -0.09168177
-9.154366 -2.5484018 -0.7632815 -0.90517765 -2.2620401 0.37832186 -0.8096046 -0.19402681
0.82194436 -0.31053644 -1.6163639 -0.65392286 -0.64212334 -0.47141287 -0.57677454 0.23088786
-0.13982405 -0.032778837 0.16471279 -0.040673856 -2.1488576 0.91818273 -0.7109821 -0.4908845
-0.6229361 0.39745682 -0.10474583 0.18089111 0.18358074 -0.11157836 -2.0474243 0.39235875
-0.084799856 -0.50219256 -1.1190467 0.03710139 -0.50281745 0.8469913 0.08355448 -1.0332394
-2.2124593 0.97415864
00000000: c227 303c 2a26 0a3d 3c4c bdbe 72c3 aabf
00000010: effb bcc0 b5f4 19c1 16d4 903f a7c3 bbbd
00000020: 4878 12c1 0419 23c0 6b66 43bf b9b9 67bf
00000030: 44c5 10c0 67b3 c13e 3f42 4fbf f7ae 46be
00000040: f26a 523f a2fe 9ebe 03e5 cebf 7d67 27bf
00000050: 3262 24bf 075d f1be 7fa7 13bf de6d 6c3e
00000060: 092e 0fbe 1a43 06bd 78aa 283e a199 26bd
00000070: e286 09c0 060e 6b3f ec02 36bf 3755 fbbe
00000080: be78 1fbf 767f cb3e fb84 d6bd 853b 393e
00000090: 97fc 3b3e 3283 e4bd 0009 03c0 3fe3 c83e
000000a0: 8cab adbd b18f 00bf ec3c 8fbf a1f7 173d
000000b0: a5b8 00bf 6cd4 583f 9c1e ab3d 3041 84bf
000000c0: ef98 0dc0 7662 793f

f1_fc3.bias f4 [5]
4.3582067 -1.514871 -0.0034829415 -0.3491549 -0.21248618
00000000: 6e76 8b40 4be7 c1bf 1042 64bb 6ec4 b2be
00000010: fa95 59be

f1_fc4.weight f4 [1, 5]
-0.704503 -0.2518007 0.8119443 -0.17545694 -0.62353194
00000000: 4f5a 34bf 05ec 80be 95db 4f3f fcaa 33be
00000010: ca9f 1fbf

f2_fc1.weight f4 [5, 2]
0.281368 -0.6418452 -0.051985346 -0.086436346 0.011028945 -1.2920388 0.026007192 1.3293135
0.23582587 -1.1519012
00000000: 770f 903e f84f 24bf 96ee 54bd 8a05 b1bd
00000010: c0b2 343c 8761 a5bf 090d d53c f226 aa3f
00000020: 567c 713e 8071 93bf

f2_fc1.bias f4 [5]
-17.303965 -15.376648 8.665185 -18.11638 -1.4782662
00000000: 856e 8ac1 c006 76c1 99a4 0a41 59ee 90c1
00000010: d437 bdbf

f2_fc2.weight f4 [10, 5]
1.2192367 3.8225255 -1.6458564 -1.7956669 -0.7112043 0.42244455 -0.3541014 -0.2065473
-0.8568588 0.020402597 -0.9034027 -5.174675 0.49573576 -4.815887 -0.033858888 -0.49059013
-0.059392776 0.29481566 0.38744417 0.19025366 -0.40252656 -3.5246131 0.23160978 -0.37878177
-0.092750445 0.08910421 -0.83370525 0.46382242 0.2849962 -0.26441538 -0.7033778 -3.020876
-0.089714654 -0.13488379 0.26568633 0.027615985 -1.6597441 0.3241214 -2.0839295 -0.26783198
-0.4585794 -3.7393382 0.51107943 -3.998649 -0.2799051 0.4273714 -2.7828457 0.19240355
-3.3115964 -0.86830854
00000000: f30f 9c3f 42a4 7440 6cab d2bf 6ad8 e5bf
00000010: 7c11 36bf a74a d83e c74c b5be 2381 53be
00000020: 195b 5bbf 5923 a73c 6645 67bf f096 a5c0
00000030: 14d1 fd3e bf1b 9ac0 9eaf 0abd a12e fbbe
00000040: d745 73bd 14f2 963e 155f c63e dbd1 423e
00000050: f617 cebe 4393 61c0 1d2b 6d3e afef c1be
00000060: f2f3 bdbd 457c b63d b56d 55bf 227a ed3e
00000070: 06eb 913e 7461 87be 9110 34bf 0856 41c0
00000080: 51bc b7bd fa1e 0abe 0a08 883e eb3a e23c
00000090: 7f72 d4bf 3df3 a53e 1a5f 05c0 4621 89be
000000a0: ebca eabe 5151 6fc0 1ad6 023f dde9 7fc0
000000b0: b94f 8fbe 6dd0 da3e 251a 32c0 7005 453e
000000c0: 32f1 53c0 7849 5ebf

f2_fc2.bias f4 [10]
-0.85267854 0.6816034 5.208902 -0.4765958 3.5907037 0.38224804 3.1660337 1.3792934
3.8023953 6.7795463
00000000: 2449 5abf 8f7d 2e3f 53af a640 5d04 f4be
00000010: 17ce 6540 04b6 c33e 4ca0 4a40 b08c b03f
00000020: 725a 7340 0bf2 d840

f2_fc3.weight f4 [5, 10]
-0.9291933 -0.76664543 1.651014 -1.8845457 1.3202491 -0.2932245 -1.7618665 -1.2547473
-2.9559631 -1.0988011 -0.8309031 -0.5068764 -1.2519449 -1.6217301 3.5288851 -0.3409481
-1.2808738 0.4589507 -3.0118792 -0.49193272 -0.12682362 -0.05983103 0.41165426 1.028424
-0.5751433 0.21508378 -0.21611732 -0.33464357 -2.3855271 0.44104534 -0.84105915 -0.5904587
0.6930474 -1.6541519 -0.36677873 -0.26186785 -0.69459873 0.17953221 -2.1634498 -0.78872037
-0.12704681 -0.060175963 -1.2483096 1.0915987 -2.0181768 0.20871742 0.25161234 -0.3523687
1.1140391 0.36658475
00000000: 9ddf 6dbf e042 44bf 6d54 d33f cb38 f1bf
00000010: ecfd a83f 8621 96be d784 e1bf 8f9b a0bf
00000020: 802e 3dc0 84a5 8cbf 11b6 54bf a7c2 01bf
00000030: bb3f a0bf da94 cfbf 41d9 6140 c090 aebe
00000040: acf3 a3bf 96fb ea3e a1c2 40c0 9bde fbbe
00000050: 0dde 01be 6211 75bd 59c4 d23e 66a3 833f
00000060: 973c 13bf ec3e 5c3e dc4d 5dbe 6756 abbe
00000070: 7aac 18c0 b2d0 e13e a74f 57bf 4d28 17bf
00000080: 8e6b 313f 40bb d3bf 6cca bbbe 8b13 86be
00000090: 39d1 31bf 4bd7 373e f675 0ac0 94e9 49bf
000000a0: 8f18 02be 127b 76bd 9cc8 9fbf 82b9 8b3f
000000b0: cf29 01c0 05ba 553e 55d3 803e ac69 b4be
000000c0: d598 8e3f ffb0 bb3e

f2_fc3.bias f4 [5]
-0.25498134 0.19906186 -0.42201513 -0.5090218 0.3768842
00000000: ea8c 82be dfd6 4b3e 5e12 d8be 414f 02bf
00000010: f7f6 c03e

f2_fc4.weight f4 [1, 5]
-1.19757 -0.5998408 -0.59129727 1.7020313 0.61555284
00000000: f949 99bf 2b8f 19bf 425f 17bf 29dc d93f
00000010: df94 1d3f
