data/Wildfire/Poly/seed=310/Wildfire.pth (torch, 10080 bytes, 21 tensors)

f1_fc1.weight f4 [5, 2]
00000000: 7a85 ce3d af7a f73f 29d0 003e 3e08 15be
00000010: b66c 8abd 34e8 613e 5cd0 6b3d 154a ae3e
00000020: 9b2c d63c 3c07 1fbd
0.100840524 1.9334315 0.12579407 -0.14553925 -0.06759016 0.22061235 0.057571754 0.34040895
0.026144316 -0.03882526

f1_fc1.bias f4 [5]
00000000: 3eaa 35c1 b86a 1240 a3b0 f640 970a 7ebf
00000010: 05e7 d9c0
-11.354063 2.2877636 7.709062 -0.9923491 -6.8094506

f1_fc2.weight f4 [10, 5]
00000000: e725 b23e c9ec e23e a5ce 0840 99a3 91be
00000010: 6126 a1be 2a25 12be 2ef4 0d3f 1c9f 0540
00000020: 0595 37bf 2c12 543f ab66 f93d a35e 41be
00000030: 5606 abc0 f7f2 5c3f aea6 3940 f59e 13bf
00000040: 241d 5d3c 7963 ae40 0f72 943f fe9b 373f
00000050: 3b1a eebe 0446 263f c0fd bc40 4989 48bf
00000060: 2e71 bd3f e566 5f3f 369e 403d d867 b83d
00000070: e777 233e c8f1 0c3f c027 573f d1df 4c3c
00000080: 374c 26c0 ab0b 8b3c 90b2 8e3e 896a 5c3f
00000090: 4b84 723e 5935 f03f afa8 e4bb e8f8 4f40
000000a0: f356 9abf 7b0e 3ac0 7944 b840 2e69 7f40
000000b0: 80b4 91c1 ae28 a03e f2d3 38bf 2e10 03c0
000000c0: cef8 23be f4fc 9fc0
0.34794542 0.44321278 2.1376126 -0.28445128 -0.31474593 -0.1427199 0.55450714 2.0878363
-0.7171176 0.8284023 0.121777855 -0.18883757 -5.3445234 0.86308235 2.9007983 -0.57664424
0.013495717 5.4496427 1.1597308 0.717224 -0.46504387 0.64950585 5.9059753 -0.7833448
1.4800165 0.8726638 0.04702588 0.090041816 0.15963708 0.5505643 0.8404503 0.012504534
-2.5984018 0.016973337 0.27870607 0.8610006 0.23683278 1.876628 -0.0069781165 3.249567
-1.2057785 -2.9071338 5.7583585 3.9907947 -18.213135 0.31281036 -0.721984 -2.0478625
-0.1601288 -4.999628

f1_fc2.bias f4 [10]
00000000: a1f7 c63e f415 bb3f ac70 e0c0 308f ce3e
00000010: 2eb0 8c3f cf42 44bf 2231 4bbf a417 2e40
00000020: 8bf5 3541 ec1e 2c40
0.388608 1.4616075 -7.013754 0.40343618 1.0991266 -0.7666444 -0.79371846 2.720193
11.372447 2.6893873

f1_fc3.weight f4 [5, 10]
00000000: f0d2 9abe 90f9 16c0 7b51 643f 895b d13f
00000010: f235 33c0 b410 b7c0 3a09 0e40 d751 0d40
00000020: d0a2 dcc0 1cec 1dbe 2e79 0fbf b381 0dc0
00000030: b7a8 2ac0 01d0 f13e 6e42 99bf 0165 07bf
00000040: 1a4d 373f 7dc2 b5be d9ec f9c0 8af6 0c40
00000050: ee6f 02bf 29d0 2bbf 2848 0dc0 7372 c73e
00000060: 2fd7 c6be 166c 9dbc 074d 373e e03a 91bc
00000070: 5552 19c0 2fc5 513f c33b 30bf f24d 0fbf
00000080: 4857 acbe a0ba 543e c09b babd 63af 4e3e
00000090: 1463 4f3e 4f77 bbbd 5907 01c0 b39e ba3e
000000a0: 844f d7bd 0012 cfbe 4f0b 98bf 2df8 023e
000000b0: a666 b3be 1e30 603f bf57 da3d 2839 81bf
000000c0: c1c0 02c0 76e5 7f3f
-0.30239058 -2.358982 0.8918683 1.6356059 -2.8001676 -5.720789 2.2193131 2.20812
-6.8948746 -0.154221 -0.5604428 -2.2110412 -2.6665475 0.47229007 -1.1973398 -0.52888495
0.7160202 -0.35499945 -7.810162 2.2025476 -0.5095204 -0.671145 -2.207529 0.38954505
-0.38836047 -0.019216578 0.17900477 -0.01772827 -2.3956501 0.81941503 -0.6884119 -0.5597831
-0.3366034 0.20774317 -0.09111738 0.20184092 0.20252639 -0.09153616 -2.0160735 0.36449203
-0.10513213 -0.4044342 -1.1878451 0.12789984 -0.35039252 0.8757342 0.106612675 -1.0095568
-2.0430148 0.99959505

f1_fc3.bias f4 [5]
00000000: 2ed8 f93f f1e4 9340 0c57 b53e a934 c1be
00000010: 067f e4be
1.9519098 4.621697 0.35417974 -0.3773549 -0.4462816

f1_fc4.weight f4 [1, 5]
00000000: 70ad 1ebf 9268 2abe f718 573f 7909 6dba
00000010: 4255 8abf
-0.61983395 -0.16641453 0.8402247 -0.0009042244 -1.0807269

f2_fc1.weight f4 [5, 2]
00000000: b96a 873e 18a4 883e 2b57 f33c c8db 283d
00000010: c258 bd3d da5a e43c 5de6 383d fab4 253f
00000020: eefa c53e b689 aa3e
0.2644861 0.26687694 0.02970465 0.041225225 0.09245445 0.027875353 0.045141567 0.64729273
0.38668007 0.3330819

f2_fc1.bias f4 [5]
00000000: 4603 91c1 9e3a 6fc1 653a 35c1 22ff 7ac1
00000010: d9b9 b23f
-18.126598 -14.951811 -11.3267565 -15.687288 1.3962966

f2_fc2.weight f4 [10, 5]
00000000: 550e 253f 412b 65bf c981 7741 5f9b 123b
00000010: 04ac 7cbc 9aaa 353f 0b4f 98bf b7d0 75bf
00000020: e611 dc3c ae56 f73d 6331 3cbf eb4d b9c0
00000030: a956 be3e c8ba 35c0 4aed 05be f121 f9be
00000040: 8280 d0be 80ac 943e 5ca1 e73d ff91 1a3d
00000050: 8afa a7bf 77e2 2fc0 7098 7a3f 88da 4fbc
00000060: b058 523e 800f 03bf b04b 10bf 6cf0 213f
00000070: 9f32 e53d 04d7 833d 81a3 23c0 72f3 85c0
00000080: 6319 9ebf 1bc4 c7bc 3116 ce3e fc19 dfbf
00000090: 8f9c 51c0 a07a f3bf f4af 5fc0 a47c 773e
000000a0: 77a2 aebe aed5 4fc0 de8b f43e 68fa c0bf
000000b0: c1cf b6bd c793 d4be 5ace 28c0 8e21 49bf
000000c0: e25e 29c1 6626 83be
0.64474994 -0.89519125 15.469186 0.002237044 -0.015421871 0.7096344 -1.1899122 -0.960216
0.026864003 0.1207708 -0.7351286 -5.7907615 0.3717549 -2.8395252 -0.130788 -0.48658708
-0.40723044 0.29037857 0.11310074 0.03773689 -1.3123333 -2.7481973 0.9788885 -0.012686379
0.20541644 -0.51195526 -0.5636549 0.6325748 0.11191296 0.06437495 -2.5568545 -4.1859674
-1.2351497 -0.024385503 0.40251306 -1.7429805 -3.2751806 -1.9021797 -3.4951143 0.2416864
-0.34108326 -3.247417 0.4776296 -1.5076418 -0.08926345 -0.41518995 -2.6375947 -0.78566825
-10.585665 -0.25615233

f2_fc2.bias f4 [10]
00000000: e36e 7740 22d8 bf3f 4566 ba40 efa0 58be
00000010: cc78 3440 b840 f53d c25d 8a40 70a9 3f40
00000020: c5de 5340 814d d440
3.866143 1.4987833 5.824984 -0.21155141 2.8198729 0.11975235 4.323945 2.9947166
3.3104718 6.634461

f2_fc3.weight f4 [5, 10]
00000000: 12c0 06c0 2f99 25bf 3887 2040 50af 8f3f
00000010: 1877 bebf 6a62 98c0 bd77 85c0 4290 e2be
00000020: f924 c0bf 1590 e2be f4d9 29b9 8606 b2be
00000030: b947 5cbf 245e 91bf 9600 e6be fc22 4a3f
00000040: e955 16c0 e663 bc3e 4a00 9ebf 12e5 6f3e
00000050: 37c8 05be 03fc 1cbd 350e 043f d496 853f
00000060: a9b2 5bbf 3369 673e 407f bebe e2c1 66be
00000070: 6bd1 11c0 06a1 c83e d61b 293c c761 15bf
00000080: 23ae 30be cd2c 0dbf 495a 1abf a1b3 013f
00000090: 3cce 0bc0 30c9 2cbf 408c 41c0 f860 d0bf
000000a0: 1eb1 02be dedf 26bd 27ac a8bf 01a7 893f
000000b0: 86a9 eebf 164d 493e bea3 113e cef9 dcbe
000000c0: 0bf7 853f 09c0 f73e
-2.105473 -0.64686865 2.508253 1.1225376 -1.4880095 -4.7620134 -4.1708665 -0.44250685
-1.5011283 -0.4425055 -0.0001619829 -0.34770602 -0.8604694 -1.1356854 -0.44922322 0.7895963
-2.3489935 0.36794966 -1.2343838 0.23427227 -0.13064657 -0.038326275 0.5158418 1.0436654
-0.8581949 0.22598724 -0.3720646 -0.22534898 -2.2784069 0.3918535 0.010321578 -0.5835232
-0.17253928 -0.55146486 -0.60294014 0.50664717 -2.1844625 -0.6749449 -3.0241852 -1.6279593
-0.12762877 -0.04074084 -1.3177537 1.075409 -1.8645484 0.19658312 0.14222619 -0.43159336
1.0466017 0.483887

f2_fc3.bias f4 [5]
00000000: 63b6 70bf 83e0 0d3e e8e9 08bf 6f88 b33e
00000010: 29a8 e53e
-0.940283 0.13855176 -0.5348191 0.35065028 0.4485486

f2_fc4.weight f4 [1, 5]
00000000: b018 9bbf f68f 08bf 8b9a 1abf ef36 d83f
00000010: 4a2a 1a3f
-1.2116909 -0.53344667 -0.60392064 1.6891764 0.6022078

f3_fc1.weight f4 [5, 2]
00000000: f907 2cbd 40a0 093e ec6c b8be 6bb7 8f3e
00000010: db3a 2b3d f963 a939 ffca 5cbe 495d e43e
00000020: 584f 223f d0e4 febe
-0.04199979 0.13440037 -0.360206 0.28069624 0.041804176 0.00032308677 -0.21561812 0.4460242
0.6340232 -0.49783945

f3_fc1.bias f4 [5]
00000000: b82d 1740 9331 06bf bc19 bcbe b4d7 48be
00000010: c0c7 ddbe
2.3621655 -0.52419394 -0.36738384 -0.19613534 -0.4331646

f3_fc2.weight f4 [10, 5]
00000000: 1112 bc3e 1738 efbc 8eeb af3c 6aea e03e
00000010: f411 4b3e dbec bc3e f9a0 c4bd 9159 0e3e
00000020: aa11 c63e eb48 f93d 7368 33bf 839d 03bf
00000030: ac38 073f effe 82be 960d 6ebc d528 333e
00000040: de8a bbbe 7601 21be dc5e 333e d9ce 673e
00000050: 33b9 edbe 2c2e 8bbe f489 d1bf e516 a43e
00000060: 7a73 4ebf f961 c23e 6d78 f2be b971 d4bd
00000070: 8147 ab3e 11e6 cd3e bf5d babd a8cf 693e
00000080: 8344 473e 9404 b33e 2193 663e f8ec 89be
00000090: 78c9 d63c a6ad 92bf 84f4 313d b80a 3cc0
000000a0: b3cb 8e3e 074c bfbc 1db4 133f 5c4c 683d
000000b0: 77e3 0d3e 1dac 47be 35a9 de3e 20b0 e63f
000000c0: 6f18 5cbe ca36 75be
0.36732534 -0.02920155 0.021474626 0.43928844 0.19831067 0.36899456 -0.096010156 0.13901354
0.38685352 0.12172111 -0.7008125 -0.5141222 0.5282085 -0.25585124 -0.014529606 0.17496045
-0.36629385 -0.15723214 0.17516655 0.226375 -0.46430358 -0.27183664 -1.6370225 0.32048717
-0.80644953 0.37965372 -0.47357503 -0.103732534 0.3345299 0.4021459 -0.09099912 0.22833121
0.19459729 0.3496443 0.22517063 -0.26938605 0.026219115 -1.1459243 0.04344608 -2.9381542
0.27889785 -0.023351682 0.57696706 0.056713447 0.13856302 -0.1949925 0.4348847 1.8022499
-0.21493696 -0.23946682

f3_fc2.bias f4 [10]
00000000: 5cc7 acbe 4b19 81be aa1f abbf ac64 3b3d
00000010: 8ed3 343f 488c 5dbe 6a0e ce3d 41b0 1a40
00000020: 3bf3 0bbe 7fea 1dc0
-0.3374585 -0.2521461 -1.3369038 0.045750305 0.70635307 -0.21635544 0.10061343 2.4170077
-0.13667004 -2.4674375

f3_fc3.weight f4 [5, 10]
00000000: 6f4d d63d 82f2 7a3e 9c29 bbb8 b89e 0ebe
00000010: 4903 643d 3b13 913e 6d4f 85bc 0ddf b1bc
00000020: 8a36 72bd ce93 af3e 9714 793d 4b10 903c
00000030: e8de b9be 4633 2a3e b688 323e 4956 5d3e
00000040: af2c 373e 6526 3f3d 7707 19bd 2ee2 773e
00000050: 7b3b b13c cb7a 39bd b340 f5bd d132 9a3e
00000060: 388d 14bf 12df 71be 9f0b 863d 03aa 20bf
00000070: 71e1 e7bd c8cd 80bf a725 08be bbb5 7b3e
00000080: c9cb c13d 9eb0 56be 81be 04be 5b70 fb3d
00000090: fa26 c4bd 4330 c83d 4734 2e3d 22c5 d1bb
000000a0: b504 8f3e 126a 253c 7caf 823d fecc 643e
000000b0: 6949 a0bd ef17 d9bd d9fa 06be 72a2 a73d
000000c0: 9e1e 813d 5301 1ebe
0.10463988 0.24506572 -8.924605e-05 -0.13927734 0.055667195 0.28334984 -0.016273225 -0.021712804
-0.059134044 0.34292454 0.06081065 0.017585894 -0.36302876 0.16621122 0.17434964 0.21614946
0.17888139 0.046667475 -0.037360635 0.24207374 0.021634808 -0.04528312 -0.11975231 0.30116895
-0.5802798 -0.23620251 0.06545185 -0.6275942 -0.113222964 -1.00628 -0.13295613 0.24581043
0.09462697 -0.20965812 -0.12963296 0.122772895 -0.09577747 0.0977483 0.042530324 -0.006401674
0.2793328 0.01009609 0.06381127 0.22343823 -0.07826502 -0.10600268 -0.13181628 0.08185281
0.06304668 -0.15430193

f3_fc3.bias f4 [5]
00000000: 0f07 7cbe fe89 ddbe d2ff a43f c516 ffbd
00000010: e71d 363e
-0.24612068 -0.43269342 1.289057 -0.12455515 0.17784844

f3_fc4.weight f4 [1, 5]
00000000: 8664 06be 7bcc 9fbc 32f8 cd3a 73eb b5be
00000010: c7c7 d13e
-0.13124284 -0.019506684 0.0015714227 -0.35531196 0.4097273
