data/Wildfire/Poly/seed=333/Wildfire.pth (torch, 10080 bytes, 21 tensors)

f1_fc1.weight f4 [5, 2]
0.031199353 1.859513 0.10041295 -0.099092625 -0.06791666 0.22172515 0.095231794 0.41067997
0.034887936 -0.15475656
00000000: c995 ff3c 8604 ee3f 4ea5 cd3d 13f1 cabd
00000010: e417 8bbd eb0b 633e e308 c33d a544 d23e
00000020: a7e6 0e3d 8178 1ebe

f1_fc1.bias f4 [5]
-11.854313 1.6952187 8.298105 -0.8051838 -6.37114
00000000: 44ab 3dc1 edfc d83f 0ac5 0441 8720 4ebf
00000010: 61e0 cbc0

f1_fc2.weight f4 [10, 5]
0.32465127 0.36020184 2.1623347 -0.2846975 -0.007160615 -0.31817228 0.41531047 7.6789227
-1.2080177 0.62261844 0.0898861 -0.33717033 -5.133973 0.9256151 2.7546308 -0.2874912
-0.6678554 3.7464662 0.06517948 -2.1151075 0.18918885 2.229868 2.3637888 -2.113867
0.2110815 0.8777233 0.15611915 0.0033800264 0.15253322 0.6763278 0.8465808 0.17970243
-2.693934 -0.043990634 0.6986249 0.8695762 0.11390921 1.9323459 0.0235298 3.1728117
0.1497856 -1.0403157 -0.36312386 -0.6986943 -14.073024 0.30021545 -0.64273137 -2.1132503
-0.19605324 -5.26301
00000000: b138 a63e 606c b83e b163 0a40 dfc3 91be
00000010: 98a3 eabb 7ae7 a2be 93a3 d43e bcb9 f540
00000020: 53a0 9abf ec63 1f3f 3416 b83d 97a1 acbe
00000030: 8249 a4c0 1cf5 6c3f df4b 3040 0c32 93be
00000040: 92f8 2abf 1ac6 6f40 d27c 853d ec5d 07c0
00000050: b9ba 413e 28b6 0e40 5148 1740 9949 07c0
00000060: c025 583e 79b2 603f b3dd 1f3e 6f83 5d3b
00000070: ab31 1c3e d223 2d3f 85b9 583f ea03 383e
00000080: 6a69 2cc0 862f 34bd 15d9 323f 8c9c 5e3f
00000090: 3b49 e93d 1c57 f73f 91c1 c03c 590f 4b40
000000a0: 6561 193e 1129 85bf 5feb b9be a1dd 32bf
000000b0: 1b2b 61c1 d7b5 993e 0b8a 24bf 7e3f 07c0
000000c0: 2ec2 48be 946a a8c0

f1_fc2.bias f4 [10]
0.1144959 1.8867673 -6.935567 3.0342937 3.1840048 -0.85409003 -1.1919879 2.7604437
8.676073 2.9338791
00000000: d47c ea3d 9781 f13f 2af0 ddc0 de31 4240
00000010: bcc6 4b40 a5a5 5abf 0f93 98bf 1cab 3040
00000020: 32d1 0a41 adc4 3b40

f1_fc3.weight f4 [5, 10]
-1.875273 -0.19674441 -2.8501353 -0.9328772 -1.2229049 -4.2997494 0.41802126 4.1561255
-1.6978722 -3.579331 0.60069925 -2.4366126 -2.3833108 -0.11514299 -0.87425053 -1.0073782
-0.11359663 0.6010664 -2.376048 -0.24703404 -0.54540706 -1.4995009 -1.3743292 0.82859236
-0.33149186 0.018961264 0.13798198 0.03205619 -2.2968636 0.85847414 -0.35368708 -0.3361947
-0.5736855 0.025332194 -0.18748218 0.1935803 -0.31724757 0.13332194 -1.5424383 0.057857268
-0.08646186 -0.45158547 -1.6148598 0.3778559 -0.3642667 0.90153027 0.1677398 -0.99566853
-1.993435 1.0761728
00000000: f208 f0bf 5e77 49be 9e68 36c0 0ad1 6ebf
00000010: 2688 9cbf 8c97 89c0 e206 d63e fbfe 8440
00000020: e053 d9bf c213 65c0 6dc7 193f 76f1 1bc0
00000030: 2a88 18c0 17d0 ebbd e2ce 5fbf c5f1 80bf
00000040: 5aa5 e8bd 7ddf 193f 2c11 18c0 7ef6 7cbe
00000050: cc9f 0bbf a5ef bfbf 05ea afbf a11e 543f
00000060: 4db9 a9be a754 9b3c 264b 0d3e 5a4d 033d
00000070: d0ff 12c0 f6c4 5b3f 7916 b5be b621 acbe
00000080: 0edd 12bf 7685 cf3c 54fb 3fbe ea39 463e
00000090: 466e a2be 8c85 083e 9e6e c5bf befb 6c3d
000000a0: ea12 b1bd 3636 e7be bab3 cebf 5476 c13e
000000b0: 2a81 babe b0ca 663f fbc3 2b3e 22e4 7ebf
000000c0: e128 ffbf 08c0 893f

f1_fc3.bias f4 [5]
5.208554 -2.7412367 0.17423631 -0.42855495 -0.46121237
00000000: 79ac a640 6c70 2fc0 016b 323e 8e6b dbbe
00000010: 0724 ecbe

f1_fc4.weight f4 [1, 5]
-0.5672211 -0.13572079 1.0283865 -0.097734146 -1.3078858
00000000: 6735 11bf 64fa 0abe 2ba2 833f d728 c8bd
00000010: cd68 a7bf

f2_fc1.weight f4 [5, 2]
0.096606515 0.01661868 0.2958612 0.23857622 0.060061075 -0.11238038 0.1641877 0.27039003
0.684872 -0.30532843
00000000: a3d9 c53d e623 883c 1f7b 973e 534d 743e
00000010: 9a02 763d af27 e6bd d220 283e 9070 8a3e
00000020: c553 2f3f 0254 9cbe

f2_fc1.bias f4 [5]
-16.749195 -14.020724 -8.045899 -19.993359 -2.9677417
00000000: 5afe 85c1 e354 60c1 01bc 00c1 66f2 9fc1
00000010: 7bef 3dc0

f2_fc2.weight f4 [10, 5]
-1.2429472 0.9302891 -6.41791 -1.8900393 -0.40133166 -5.285215 -0.64990973 -6.821799
0.51038516 -0.09748005 2.2487633 -6.190706 3.2573826 -7.0452557 -0.25537923 -0.6902012
-0.26330024 1.8298075 0.4222377 0.12910442 1.2942493 -2.140801 0.84014887 -2.4259074
-0.08886326 -0.7133169 -0.3380195 -0.19917966 0.3430297 -0.5619738 0.54842705 -1.8596257
1.7357 -2.3410194 -0.07551253 0.17686374 -0.73454624 1.4541696 -3.2101345 0.17496422
1.3589133 -2.5210626 2.4421859 -2.8559875 -0.10857862 9.233466 -10.633551 -3.3318493
-12.13023 -0.43380466
00000000: e518 9fbf 6d27 6e3f 855f cdc0 cfec f1bf
00000010: 587b cdbe 7b20 a9c0 7c60 26bf 2d4c dac0
00000020: 9aa8 023f 9fa3 c7bd bdeb 0f40 431a c6c0
00000030: f578 5040 bc72 e1c0 11c1 82be 07b1 30bf
00000040: 4acf 86be 2237 ea3f 8a2f d83e f333 043e
00000050: f6a9 a53f e202 09c0 ff13 573f 1142 1bc0
00000060: f1fd b5bd f09b 36bf e410 adbe c1f5 4bbe
00000070: 97a1 af3e 84dd 0fbf b765 0c3f 3708 eebf
00000080: 6b2b de3f 43d3 15c0 50a6 9abd c51b 353e
00000090: 390b 3cbf 3b22 ba3f d872 4dc0 d229 333e
000000a0: dff0 ad3f 1759 21c0 c64c 1c40 80c8 36c0
000000b0: 785e debd 47bc 1341 0623 2ac1 053d 55c0
000000c0: 6c15 42c1 a51b debe

f2_fc2.bias f4 [10]
4.213893 7.7226243 2.1509433 -1.5154077 1.9885473 1.0430443 2.0111783 0.19502911
1.9544427 -2.0283878
00000000: 36d8 8640 bd1f f740 0ea9 0940 e1f8 c1bf
00000010: b888 fe3f 7a82 853f 25b7 0040 b6b5 473e
00000020: 2e2b fa3f 1bd1 01c0

f2_fc3.weight f4 [5, 10]
-0.5789209 -1.4035646 1.9198021 -2.1269722 1.4786513 -0.62211704 -1.3632681 -0.8563206
-2.628027 -0.704316 0.09601549 -1.5910127 -0.93282044 -2.1902142 2.8766553 -0.2408722
-1.8908088 0.5171158 -2.532663 -0.09258841 -0.1168859 -0.09328841 0.45600674 1.0532876
-0.680458 0.21071912 -0.3099074 -0.33294803 -2.340468 0.48506021 -0.3305508 -1.4164283
0.9512146 -2.1921287 -0.19344236 -0.42164287 -1.1449239 0.011690827 -1.9556715 -0.6206222
-0.117955685 -0.09448139 -1.2751529 1.0661981 -1.9600205 0.21326478 0.25474575 -0.3393102
1.0880221 0.3411358
00000000: 2934 14bf 01a8 b3bf 13bc f53f 5020 08c0
00000010: 7244 bd3f 1043 1fbf 927f aebf d437 5bbf
00000020: 9831 28c0 0e4e 34bf c5a3 c43d 4ea6 cbbf
00000030: 52cd 6ebf 782c 0cc0 1f1b 3840 34a7 76be
00000040: 0606 f2bf b361 043f 2717 22c0 fe9e bdbd
00000050: e061 efbd fe0d bfbd b779 e93e 21d2 863f
00000060: 7f32 2ebf c1c6 573e 2fac 9ebe 2a78 aabe
00000070: 3aca 15c0 d059 f83e f43d a9be 864d b5bf
00000080: cd82 733f d64b 0cc0 c115 46be 93e1 d7be
00000090: de8c 92bf e28a 3f3c 7253 fabf 19e1 1ebf
000000a0: c092 f1bd 767f c1bd 3638 a3bf 2e79 883f
000000b0: f4e1 fabf 1562 5a3e 096e 823e 11ba adbe
000000c0: 4f44 8b3f 5aa9 ae3e

f2_fc3.bias f4 [5]
-0.67143637 -0.7125761 -0.46723604 -0.6993237 0.40096703
00000000: 41e3 2bbf 636b 36bf 9039 efbe e106 33bf
00000010: 8d4b cd3e

f2_fc4.weight f4 [1, 5]
-1.1812171 -0.58387333 -0.6073886 1.7172955 0.60003597
00000000: 1f32 97bf b978 15bf d27d 1bbf 57d0 db3f
00000010: f59b 193f

f3_fc1.weight f4 [5, 2]
-0.012971907 -0.0040049674 -0.04335731 -0.0124881705 0.009586375 0.039296426 -0.025519822 -0.007453082
0.06396431 0.01665445
00000000: 1f88 54bc 1a3c 83bb 6f97 31bd 2f9b 4cbc
00000010: 2c10 1d3c 4af5 203d f20e d1bc fc38 f4bb
00000020: b8ff 823d ea6e 883c

f3_fc1.bias f4 [5]
1.589151 3.1438427 3.8310552 1.8777927 -2.412135
00000000: 4d69 cb3f b834 4940 0230 7540 835b f03f
00000010: 6b60 1ac0

f3_fc2.weight f4 [10, 5]
0.03370165 -0.5037578 0.33941853 -0.032041542 -0.08329628 0.10330055 -0.22825165 0.40049475
-0.5899637 0.41594657 -0.21080141 1.699122 0.025549974 1.3662499 -0.064373754 -0.42912167
-0.79772323 -0.006683418 0.53872687 0.008977632 0.2551816 0.12003141 0.13209659 -0.5319691
0.23773037 -0.44578406 -0.6180808 -0.15714425 -0.5649165 0.019370591 -0.31821597 -0.25740716
0.25830042 0.76226044 0.37359062 -2.043101 -1.2280307 -0.2147957 -0.64706767 0.10127957
0.54301393 -0.32542932 -0.02029021 0.6105194 0.23276632 -0.93306774 -0.2147166 -0.09844685
-0.06882907 0.03094364
00000000: be0a 0a3d 45f6 00bf 44c8 ad3e fe3d 03bd
00000010: 3d97 aabd 3d8f d33d cdba 69be a60d cd3e
00000020: dc07 17bf f3f6 d43e 53dc 57be d47c d93f
00000030: 2e4e d13c 47e1 ae3f 63d6 83bd d6b5 dbbe
00000040: 9737 4cbf 9300 dbbb 01ea 093f eb16 133c
00000050: 2aa7 823e 07d3 f53d 5444 073e 202f 08bf
00000060: 976f 733e cf3d e4be 8b3a 1ebf 6cea 20be
00000070: 5e9e 10bf 13af 9e3c 34ed a2be dfca 83be
00000080: f43f 843e 8023 433f 4547 bf3e 2bc2 02c0
00000090: 1c30 9dbf 67f3 5bbe 3aa6 25bf aa6b cf3d
000000a0: f602 0b3f ac9e a6be a837 a6bc 004b 1c3f
000000b0: 4b5a 6e3e 87dd 6ebf abde 5bbe 819e c9bd
000000c0: 41f6 8cbd 847d fd3c

f3_fc2.bias f4 [10]
-0.3629282 -0.10960582 0.73810655 0.16504729 0.17418078 -0.409974 -0.33369452 -0.5386628
-0.26182434 -1.1441443
00000000: bad1 b9be 0479 e0bd 8df4 3c3f 2802 293e
00000010: 725c 323e 1de8 d1be 02da aabe cee5 09bf
00000020: d70d 86be 5273 92bf

f3_fc3.weight f4 [5, 10]
-0.34566614 -0.015126326 0.088251986 -0.09694509 0.3310617 0.4434667 0.018768493 0.5038809
0.40249965 0.4612862 -0.20947099 0.18962938 -0.090863764 -0.2065871 0.31232977 0.18818776
-0.1266871 0.21428639 -0.1384883 -0.28112608 -0.0013587816 -0.11997349 0.33230647 -0.12793714
0.12118759 0.4432025 0.13097554 0.49857673 0.28330845 0.18218893 0.11743712 -0.029053934
0.120819345 0.34541592 -0.086981155 0.19462383 0.116671085 0.18715513 0.26653764 0.24826452
0.30116123 -0.2435174 0.21581598 -0.23391892 0.17632952 0.15986426 0.06954257 -0.14310268
0.023731222 -0.019964624
00000000: 27fb b0be 69d4 77bc 75bd b43d 268b c6bd
00000010: eb80 a93e 110e e33e 62c0 993c 57fe 003f
00000020: 6f14 ce3e b42d ec3e 907f 56be 342e 423e
00000030: c816 babd 928b 53be b0e9 9f3e 4bb4 403e
00000040: 43ba 01be e46d 5b3e e0cf 0dbe c2ef 8fbe
00000050: 2519 b2ba a9b4 f5bd 1324 aa3e f401 03be
00000060: 3331 f83d 70eb e23e 741e 063e 7345 ff3e
00000070: ce0d 913e bc8f 3a3e df82 f03d 8402 eebc
00000080: 2270 f73d 5bda b03e 2d23 b2bd 784b 473e
00000090: 40f1 ee3d 98a5 3f3e 9f77 883e 0e39 7e3e
000000a0: ce31 9a3e a05c 79be ddfe 5c3e 7188 6fbe
000000b0: ba8f 343e 75b3 233e 566c 8e3d 8289 12be
000000c0: fb67 c23c da8c a3bc

f3_fc3.bias f4 [5]
-0.11599428 0.26845288 -0.34649113 0.1804094 -0.15080895
00000000: 698e edbd a872 893e 4967 b1be 3ebd 383e
00000010: a96d 1abe

f3_fc4.weight f4 [1, 5]
0.082371496 -0.38908768 -0.14184259 0.39607027 -0.15190643
00000000: 63b2 a83d 8036 c7be 2f3f 11be b9c9 ca3e
00000010: 5c8d 1bbe
