data/Wildfire/Poly/seed=167/Wildfire.pth (torch, 10080 bytes, 21 tensors)

f1_fc1.weight f4 [5, 2]
-0.11331413 2.0167553 0.10621869 -0.1267466 -0.07533637 0.17156228 0.11079179 0.34432474
0.050676074 -0.047482293
00000000: 3d11 e8bd 8512 0140 2f89 d93d dcc9 01be
00000010: f449 9abd 06ae 2f3e cee6 e23d 554b b03e
00000020: b791 4f3d cb7c 42bd

f1_fc1.bias f4 [5]
-11.017123 2.1379337 7.9281154 -2.4742272 -7.572005
00000000: 2346 30c1 e8d3 0840 1fb3 fd40 bd59 1ec0
00000010: dd4d f2c0

f1_fc2.weight f4 [10, 5]
0.31398237 0.24945527 2.0586724 -0.18159646 -0.59983367 0.0024308374 -0.14404534 -4.092079
0.59566087 5.1693873 0.045339227 -0.20610452 -5.2330427 0.9774381 4.612883 -0.17607166
0.6126957 1.0198183 0.49946937 0.89644116 -3.1534774 0.36211643 -0.33016875 -0.42345175
5.02787 0.8669656 0.02145694 -0.30547026 0.11351323 0.72822726 0.79703856 0.064591326
-2.6382992 0.16128755 -0.4331604 0.9031518 0.2165025 2.2949333 0.09063834 3.3631256
-5.462349 -0.99296683 -2.0687757 -0.27668312 -8.137733 0.14624843 -0.33111784 -2.4238112
-0.10078163 -6.0049906
00000000: 4cc2 a03e 3471 7f3e 4ac1 0340 6cf4 39be
00000010: b38e 19bf af4e 1f3b 9f80 13be 50f2 82c0
00000020: 3b7d 183f 9f6b a540 a0b5 393d 100d 53be
00000030: 1675 a7c0 6239 7a3f bd9c 9340 214c 34be
00000040: a0d9 1c3f 6889 823f 73ba ff3e 2b7d 653f
00000050: 93d2 49c0 5367 b93e e10b a9be abce d8be
00000060: 50e4 a040 75f1 5d3f 77c6 af3c 9966 9cbe
00000070: a079 e83d 1a6d 3a3f b80a 4c3f 7548 843d
00000080: e5d9 28c0 9028 253e 33c7 ddbe f534 673f
00000090: d5b2 5d3e 30e0 1240 98a0 b93d 733d 5740
000000a0: 90cb aec0 1333 7ebf d266 04c0 69a9 8dbe
000000b0: 2834 02c1 26c2 153e 4788 a9be b91f 1bc0
000000c0: 9966 cebd e228 c0c0

f1_fc2.bias f4 [10]
0.73949546 -1.9880047 -7.6972895 -0.027955638 0.2241954 -1.0861795 -0.3398397 1.9748476
6.4073644 3.7148626
00000000: 934f 3d3f f076 febf 3250 f6c0 3903 e5bc
00000010: 7b93 653e ee07 8bbf 78ff adbe cec7 fc3f
00000020: 2109 cd40 4fc0 6d40

f1_fc3.weight f4 [5, 10]
-0.639804 0.9524159 0.2542028 -0.982544 -1.9091088 -17.361315 1.9384031 -1.8292091
-6.1844835 -2.756734 -1.0205824 0.6707079 -1.8097076 0.10615939 -1.5366832 0.1559849
0.99997324 -0.42667845 -1.1568811 0.0051211454 -0.83101237 0.25735492 -0.59840715 -0.07405587
-0.4180255 0.21454804 0.22050619 -0.027226986 -1.4212595 0.9206624 -0.3353453 -0.3884145
-2.4263825 -0.17331567 0.5808177 0.12375451 -0.05098592 0.04996944 -1.6695073 1.5860112
-0.4054175 0.024345277 -0.7403779 -0.05244661 -0.2829776 1.1365429 0.526046 -1.1625918
-2.5922616 1.1897635
00000000: 32ca 23bf 87d1 733f df26 823e 0188 7bbf
00000010: ad5d f4bf f9e3 8ac1 981d f83f 8623 eabf
00000020: 4ae7 c5c0 546e 30c0 72a2 82bf 83b3 2b3f
00000030: 80a4 e7bf 186a d93d 09b2 c4bf 81ba 1f3e
00000040: 3ffe 7f3f 9975 dabe ae14 94bf 48cf a73b
00000050: 3abd 54bf 06c4 833e 3631 19bf 9baa 97bd
00000060: 7007 d6be 7bb2 5b3e 60cc 613e 210b dfbc
00000070: d5eb b5bf 88b0 6b3f 61b2 abbe 44de c6be
00000080: da49 1bc0 aa79 31be 78b0 143f 0173 fd3d
00000090: 9dd6 50bd c1ac 4c3d 6ab2 d5bf 6a02 cb3f
000000a0: e292 cfbe bf6f c73c 6889 3dbf 42d2 56bd
000000b0: 71e2 90be 3d7a 913f f3aa 063f cfcf 94bf
000000c0: 9de7 25c0 2c4a 983f

f1_fc3.bias f4 [5]
4.592614 -1.789237 -0.06745789 -1.1450673 -0.4015884
00000000: b2f6 9240 b805 e5bf 5d27 8abd 9191 92bf
00000010: ff9c cdbe

f1_fc4.weight f4 [1, 5]
-0.70216614 -0.25974834 0.7947061 -0.14569956 -0.6324198
00000000: 29c1 33bf bcfd 84be dc71 4b3f 4432 15be
00000010: 44e6 21bf

f2_fc1.weight f4 [5, 2]
0.15612915 0.24530588 -0.13806833 -0.19710895 -0.0074786698 -0.15019403 -0.035216924 0.94469655
0.4075063 0.60018283
00000000: 52e0 1f3e 7731 7b3e c961 0dbe eed6 49be
00000010: a10f f5bb 77cc 19be 9f3f 10bd a2d7 713f
00000020: aaa4 d03e 95a5 193f

f2_fc1.bias f4 [5]
-19.94176 -13.965624 2.067301 -14.517651 -1.9269667
00000000: b988 9fc1 3273 5fc1 a94e 0440 4c48 68c1
00000010: d8a6 f6bf

f2_fc2.weight f4 [10, 5]
-2.3944538 1.3025337 -3.8354993 -0.022325953 -0.16432215 2.1032488 -1.0273199 -0.6420687
-0.012275864 0.299318 -0.23554349 -4.7477255 -0.9038486 -5.7177916 -0.35385436 0.17131348
0.832835 0.61030954 0.23041016 0.032632954 0.42756245 -3.1072397 0.41047025 -2.767399
-0.16150855 -0.54592896 -1.1099439 0.18287243 0.31798518 0.032225747 -1.9855384 -3.3453786
-0.7335163 0.0702942 -0.16436191 -5.3473463 -3.5392723 -1.9044149 -2.9291668 -0.27510726
0.3202198 -1.6549239 0.46300274 -1.8177204 -0.12581822 -0.41745958 3.2490644 -0.14910322
-0.076330565 0.04356543
00000000: bb3e 19c0 6db9 a63f d278 75c0 ebe4 b6bc
00000010: 1144 28be a19b 0640 387f 83bf 9d5e 24bf
00000020: b520 49bc 3540 993e 5032 71be 5eed 97c0
00000030: 9f62 67bf 26f8 b6c0 662c b5be cd6c 2f3e
00000040: ad34 553f 3f3d 1c3f a4f0 6b3e 22aa 053d
00000050: 77e9 da3e 04dd 46c0 2829 d23e 111d 31c0
00000060: 7f62 25be 00c2 0bbf a412 8ebf e942 3b3e
00000070: f4ce a23e 25ff 033d 1f26 febf af1a 56c0
00000080: b9c7 3bbf 68f6 8f3d 7d4e 28be 761d abc0
00000090: 7083 62c0 dec3 f3bf 7877 3bc0 dcda 8cbe
000000a0: daf3 a33e 8cd4 d3bf b20e ed3e 10ab e8bf
000000b0: 7ed6 00be 43bd d5be acf0 4f40 84ae 18be
000000c0: 3353 9cbd aa71 323d

f2_fc2.bias f4 [10]
1.6668715 1.3548583 4.7819033 -0.91448504 3.173331 0.5881541 3.5161417 3.258804
1.7182264 0.7461061
00000000: 0c5c d53f ff6b ad3f 5a05 9940 b11b 6abf
00000010: db17 4b40 4491 163f 7708 6140 3f90 5040
00000020: d8ee db3f cf00 3f3f

f2_fc3.weight f4 [5, 10]
-1.2674054 -0.53668153 1.1183635 -0.45922625 0.2663999 0.48089227 -1.9748152 -1.783797
-3.4329967 -1.0163293 -2.7282038 -0.9963184 -2.9493506 -1.498771 3.6873696 -0.6649924
-2.4044085 2.5938823 -2.7924254 -0.23455141 -0.09023788 -0.14063334 0.46718815 1.0412443
-0.92882943 0.22408131 -0.13579842 -0.29258785 -2.3119392 0.51502305 -1.3200378 -0.43939233
0.26221788 -0.62329197 0.24553919 0.58807033 -1.0235995 0.021317735 -2.5068543 -1.3946408
-0.10240628 -0.14816178 -1.246937 1.0781889 -1.7912217 0.1983152 -0.13582169 -0.34195465
1.1151278 0.3604489
00000000: 573a a2bf f663 09bf 8926 8f3f b41f ebbe
00000010: 9165 883e 8337 f63e bfc6 fcbf 7653 e4bf
00000020: 38b6 5bc0 1417 82bf e49a 2ec0 b90e 7fbf
00000030: 29c2 3cc0 bad7 bfbf ddfd 6b40 f13c 2abf
00000040: d4e1 19c0 2b02 2640 19b7 32c0 3f2e 70be
00000050: a3ce b8bd 3002 10be 4933 ef3e 7e47 853f
00000060: c4c7 6dbf 9275 653e be0e 0bbe 13ce 95be
00000070: d0f6 13c0 8dd8 033f 00f7 a8bf 08f8 e0be
00000080: 6c41 863e 1090 1fbf a06e 7b3e c78b 163f
00000090: 4f05 83bf 88a2 ae3c 4d70 20c0 9783 b2bf
000000a0: 62ba d1bd b9b7 17be a29b 9fbf 1802 8a3f
000000b0: c146 e5bf 2413 4b3e d714 0bbe ae14 afbe
000000c0: 82bc 8e3f c28c b83e

f2_fc3.bias f4 [5]
0.22956036 -0.19598195 -0.49874312 -0.15264209 0.37617183
00000000: df11 6b3e 7eaf 48be 425b ffbe 354e 1cbe
00000010: 9899 c03e

f2_fc4.weight f4 [1, 5]
-1.2228888 -0.5093398 -0.6036303 1.6837776 0.6026604
00000000: 9f87 9cbf 1864 02bf 8487 1abf 0686 d73f
00000010: f447 1a3f

f3_fc1.weight f4 [5, 2]
-0.048817176 -0.040423837 0.00562836 -0.00042306483 -0.016414769 -0.008620232 0.2391509 0.01998088
0.014379009 0.065093145
00000000: 85f4 47bd 7793 25bd 1b6e b83b cdce ddb9
00000010: 4478 86bc e03b 0dbc f9e3 743e f1ae a33c
00000020: ef95 6b3c 8e4f 853d

f3_fc1.bias f4 [5]
-0.10816033 -1.0725665 1.0437566 -1.9825478 -0.85630697
00000000: 2a83 ddbd dc49 89bf d199 853f 20c4 fdbf
00000010: ef36 5bbf

f3_fc2.weight f4 [10, 5]
0.5852784 0.110873476 0.20787944 0.081763275 -0.04057349 -0.08416366 0.5332484 0.28419015
0.05146404 -0.036997423 0.2763585 -0.48737928 -0.49665463 0.14193638 0.2461687 0.28892785
-0.6663363 -0.8040871 0.058633715 -0.0042714914 0.039855216 -0.2921054 0.52008724 0.0343024
-0.021321671 0.15777929 -0.3914304 0.46806255 0.2408296 -0.0006281441 -0.025053054 -1.7312065
-0.5083497 -0.0751065 -0.1410743 0.23286891 0.51120114 0.4445011 0.34364617 0.3614563
-2.0322104 -1.5802929 -2.2790277 -0.23588316 -0.11468073 0.24559772 -0.01858808 -0.033095475
0.465746 0.11036785
00000000: ced4 153f a211 e33d 59de 543e 8173 a73d
00000010: 6330 26bd ff5d acbd f882 083f 5f81 913e
00000020: f5cb 523d 9c8a 17bd dc7e 8d3e c789 f9be
00000030: 8449 febe c557 113e a613 7c3e 5aee 933e
00000040: 0495 2abf a7d8 4dbf e829 703d def7 8bbb
00000050: 393f 233d d78e 95be 7024 053f ac80 0c3d
00000060: c9aa aebc e590 213e 9169 c8be e5a5 ef3e
00000070: 099c 763e 09aa 24ba 103c cdbc 2d98 ddbf
00000080: 3523 02bf 70d1 99bd c875 10be 3075 6e3e
00000090: 14de 023f a695 e33e 64f2 af3e cd10 b93e
000000a0: bc0f 02c0 0a47 cabf 97db 11c0 5b8b 71be
000000b0: bbdd eabd f87d 7b3e 0746 98bc 1f8f 07bd
000000c0: 4276 ee3e 8a08 e23d

f3_fc2.bias f4 [10]
-0.59789383 -0.07000538 -0.18430012 0.77849245 0.22981128 -0.08370734 1.3586199 -0.66075176
1.8860341 0.24143857
00000000: 920f 19bf fb5e 8fbd 2cb9 3cbe 484b 473f
00000010: a653 6b3e c16e abbd 42e7 ad3f 0727 29bf
00000020: 9169 f13f ac3b 773e

f3_fc3.weight f4 [5, 10]
-0.011863803 0.13805303 -0.09641741 0.14154819 0.21784277 -0.25542694 0.3957704 -3.325123e-05
-0.23796214 0.15223171 0.016119376 -0.455739 -0.27654198 -0.13487 0.024249954 -0.18211208
-0.028584702 0.13022558 0.046623718 0.14625195 -1.0410945 -0.42220655 0.18899623 -0.32210848
1.060999 0.21897937 0.51906425 -0.1466653 1.4350731 -0.005199463 -0.13050504 0.13023213
0.110063806 0.40733904 0.12755093 -0.18928674 -0.16704763 -0.08110895 -0.13644482 0.049508974
-0.03556588 -0.31387332 0.025146998 0.22365266 -0.28088152 -0.013320219 -0.7816707 -0.03366461
-0.8167482 -0.30639264
00000000: 6560 42bc c65d 0d3e 7e76 c5bd 02f2 103e
00000010: 2d12 5f3e 52c7 82be 6ba2 ca3e 3d77 0bb8
00000020: 59ac 73be a1e2 1b3e c80c 843c 9f56 e9be
00000030: e996 8dbe 5c1b 0abe d7a7 c63c 977b 3abe
00000040: 772a eabc db59 053e 83f8 3e3d 12c3 153e
00000050: 9642 85bf 752b d8be 3a88 413e 67eb a4be
00000060: d1ce 873f 213c 603e 65e1 043f 6e2f 16be
00000070: 7ab0 b73f 4260 aabb 1da3 05be 925b 053e
00000080: 2269 e13d be8e d03e b69c 023e 62d4 41be
00000090: 890e 2bbe 731c a6bd 31b8 0bbe ecc9 4a3d
000000a0: 87ad 11bd 01b4 a0be 1401 ce3c 3405 653e
000000b0: b4cf 8fbe 0c3d 5abc 921b 48bf e7e3 09bd
000000c0: 6916 51bf 7fdf 9cbe

f3_fc3.bias f4 [5]
-0.304562 -0.1051176 0.11037965 -0.16578166 0.17036763
00000000: 8def 9bbe e547 d7bd ba0e e23d abc2 29be
00000010: da74 2e3e

f3_fc4.weight f4 [1, 5]
-0.36365595 -0.4738018 -0.081546105 -0.48497334 -0.46112734
00000000: 1d31 babe 2696 f2be a501 a7bd 6d4e f8be
00000010: e218 ecbe
