data/Wildfire/Poly/seed=203/Wildfire.pth (torch, 10080 bytes, 21 tensors)

f1_fc1.weight f4 [5, 2]
0.10733151 1.7375401 0.13045448 -0.037750307 -0.06215617 0.21997494 0.02720016 0.40352687
0.01641206 -0.044555858
00000000: 9fd0 db3d b767 de3f dc95 053e 11a0 1abd
00000010: 7897 7ebd 1c41 613e dfd2 de3c 139b ce3e
00000020: 9672 863c 3480 36bd

f1_fc1.bias f4 [5]
-11.516953 2.425562 8.032119 -1.0167803 -4.7227864
00000000: 7145 38c1 683c 1b40 8f83 0041 db25 82bf
00000010: 1121 97c0

f1_fc2.weight f4 [10, 5]
0.37252223 0.22887896 2.157304 -0.26915717 -0.26416045 -0.531927 0.9862564 5.1210427
0.5577125 1.1902773 -0.20017403 -1.0881658 -5.016887 0.6901727 3.5053022 -0.3075841
0.3059462 0.7841644 0.54976094 -1.0556977 -2.154488 -0.95835346 -0.27836353 -1.0844511
2.6559343 0.8562039 0.18425061 0.106496066 0.120369405 0.3025111 0.7648083 0.25145707
-2.6259646 -0.050586376 0.62026733 0.90113574 0.09246943 1.8381175 0.045297995 3.5370204
-1.3649154 -2.2431154 16.266964 0.8325056 -19.075777 0.47505957 -0.07175534 -2.1111672
-0.10114753 -5.220596
00000000: 3cbb be3e 3f5f 6a3e 4511 0a40 f8ce 89be
00000010: 0a40 87be 5e2c 08bf 4d7b 7c3f 95df a340
00000020: 3fc6 0e3f 025b 983f 6cfa 4cbe 0449 8bbf
00000030: 578a a0c0 28af 303f df56 6040 aa7b 9dbe
00000040: fba4 9c3e 00bf 483f 22bd 0c3f 1a21 87bf
00000050: 22e3 09c0 a756 75bf aa85 8ebe 4bcf 8abf
00000060: d4fa 2940 2e30 5b3f 31ac 3c3e 9c1a da3d
00000070: 3c84 f63d bce2 9a3e 7aca 433f fbbe 803e
00000080: ce0f 28c0 a933 4fbd d7c9 1e3f d5b0 663f
00000090: 9d60 bd3d 6f47 eb3f 648a 393d 8b5e 6240
000000a0: 8cb5 aebf 348f 0fc0 be22 8241 161f 553f
000000b0: 319b 98c1 023b f33e 77f4 92bd 5d1d 07c0
000000c0: 7026 cfbd 1f0f a7c0

f1_fc2.bias f4 [10]
0.3230742 1.1465676 -7.5415235 1.2194204 -0.14398238 -0.5218724 -1.0713336 2.4308338
11.563136 2.9689515
00000000: fb69 a53e bac2 923f 2954 f1c0 f815 9c3f
00000010: 1e70 13be 6e99 05bf 7621 89bf c892 1b40
00000020: 9b02 3941 4d03 3e40

f1_fc3.weight f4 [5, 10]
0.4630831 0.20553124 -0.23007609 -2.5073013 -5.768761 -7.69923 1.5812131 0.78859353
-8.842143 -2.887911 -0.30736518 -0.176335 -1.1929979 0.46999556 0.2348765 -0.00235689
0.8290354 0.031300914 -0.567272 -1.204665 -0.6093589 -0.43794122 -0.542252 0.08280944
-0.050366297 -0.019803593 0.17490351 -0.028038884 -2.041773 0.8991163 -0.6602368 -0.412628
-0.57611734 0.22469634 -0.10972201 0.20317064 0.19021858 -0.08068032 -2.0477278 0.43831822
-0.073912 -0.73511857 -1.1512551 0.13629198 -0.57255906 0.86241835 0.0992679 -1.0115222
-2.3077755 1.0206273
00000000: 3a19 ed3e c876 523e 1199 6bbe a077 20c0
00000010: b199 b8c0 1860 f6c0 3165 ca3f 44e1 493f
00000020: 6b79 0dc1 89d3 38c0 f85e 9dbe 2a91 34be
00000030: 28b4 98bf 42a3 f03e 7783 703e 0d76 1abb
00000040: aa3b 543f 6335 003d bd38 11bf 7632 9abf
00000050: f2fe 1bbf d539 e0be 07d1 0abf ff97 a93d
00000060: e44c 4ebd 253b a2bc e819 333e cdb1 e5bc
00000070: 69ac 02c0 7c2c 663f 4705 29bf fa43 d3be
00000080: 6d7c 13bf cc16 663e efb5 e0bd f70b 503e
00000090: a9c8 423e b93b a5bd f90d 03c0 3f6b e03e
000000a0: 2d5f 97bd bb30 3cbf 545c 93bf 2090 0b3e
000000b0: 3b93 12bf 73c7 5c3f f84c cb3d 8f79 81bf
000000c0: 98b2 13c0 eaa3 823f

f1_fc3.bias f4 [5]
4.2230535 -2.5630815 -0.091538906 -0.34635296 -0.14088279
00000000: 4123 8740 8709 24c0 c078 bbbd 2d55 b1be
00000010: 9443 10be

f1_fc4.weight f4 [1, 5]
-0.788759 -0.33475208 0.8544452 0.028748022 -0.64384526
00000000: 1cec 49bf a064 abbe ecbc 5a3f f980 eb3c
00000010: 0bd3 24bf

f2_fc1.weight f4 [5, 2]
0.8287768 -0.17847772 0.18719107 -0.08385188 0.006703977 -0.040508024 0.11471128 1.0374844
0.8600559 -0.62607056
00000000: b72a 543f ddc2 36be 04af 3f3e 89ba abbd
00000010: 09ad db3b beeb 25bd bfed ea3d 4acc 843f
00000020: a02c 5c3f 2946 20bf

f2_fc1.bias f4 [5]
-15.703517 -13.966721 -0.13515574 -18.11207 -1.8505476
00000000: 9b41 7bc1 b077 5fc1 4466 0abe 85e5 90c1
00000010: bede ecbf

f2_fc2.weight f4 [10, 5]
-1.9452826 -4.0765996 -3.9491332 -6.8293214 1.8649354 0.28296536 -0.5881175 -0.6405483
-0.1041196 0.28685066 -0.13729326 -1.4963639 -0.56343955 -0.008723808 0.28008953 -0.81857127
0.65149766 0.23973851 0.29601708 0.61978585 0.073229685 -3.4029474 -0.34607285 -0.057944827
0.18218647 -0.56975114 -0.76904637 0.06947184 0.24215287 0.5294053 0.06781971 -2.3120277
-0.4416254 -0.054579463 0.14104418 1.2356573 -3.3190222 -4.821309 -0.47499493 -0.71432203
-0.14246488 -2.062377 -0.59844196 -0.009737839 0.3142719 1.56126 -2.1795783 -1.6856464
-0.5982561 -1.1379637
00000000: 05ff f8bf 8173 82c0 99be 7cc0 cd89 dac0
00000010: 34b6 ee3f d6e0 903e de8e 16bf f9fa 23bf
00000020: a83c d5bd 17de 923e 9b96 0cbe da88 bfbf
00000030: 933d 10bf 4eee 0ebc e567 8f3e e38d 51bf
00000040: 8dc8 263f 037e 753e 8d8f 973e 49aa 1e3f
00000050: 72f9 953d e4c9 59c0 7630 b1be 8e57 6dbd
00000060: 178f 3a3e 36db 11bf 39e0 44bf 4147 8e3d
00000070: ecf6 773e 1b87 073f 0fe5 8a3d 43f8 13c0
00000080: b91c e2be b78e 5fbd e36d 103e 052a 9e3f
00000090: dc6a 54c0 2a48 9ac0 8932 f3be cfdd 36bf
000000a0: 50e2 11be fcfd 03c0 7e33 19bf 758b 1fbc
000000b0: 3fe8 a03e 5ed7 c73f 367e 0bc0 43c3 d7bf
000000c0: 5027 19bf cba8 91bf

f2_fc2.bias f4 [10]
5.9249196 1.3950158 -2.7763653 -0.83976287 3.4635198 0.6549462 3.9809535 -0.9478913
-3.9277518 3.9616
00000000: f198 bd40 e18f b23f f8af 31c0 b3fa 56bf
00000010: 4faa 5d40 8eaa 273f f1c7 7e40 01a9 72bf
00000020: 4960 7bc0 db8a 7d40

f2_fc3.weight f4 [5, 10]
-0.9037668 -0.16699886 2.0558927 -1.0396328 0.6809616 -0.32499415 -1.8481113 -0.7566959
-2.683221 -0.7433673 -1.4141722 -0.28577366 -1.8271885 -0.95687515 1.2172099 -0.93097144
-3.163608 -0.06068957 -3.600987 -1.2605438 0.03402823 -0.03269969 0.5779204 1.0432328
-1.1107334 0.13909884 -0.4631313 -0.14787443 -2.2240593 0.46779355 -1.528514 -0.2634536
0.091729134 -0.9839457 -0.16850482 -0.66845286 -1.0119379 -0.6083261 -2.7949667 -1.6103565
-0.1657315 -0.018134167 -1.2824341 1.0515109 -1.7124135 0.13966143 0.16658446 -0.46434358
1.0744684 0.46922138
00000000: 435d 67bf c001 2bbe bf93 0340 b012 85bf
00000010: 8053 2e3f a265 a6be e98e ecbf d3b6 41bf
00000020: e5b9 2bc0 524d 3ebf 9803 b5bf ed50 92be
00000030: 50e1 e9bf c5f5 74bf 89cd 9b3f 2554 6ebf
00000040: 8e78 4ac0 a095 78bd 9276 66c0 8059 a1bf
00000050: 2f61 0b3d 1cf0 05bd 97f2 133f a788 853f
00000060: 832c 8ebf ed6f 0e3e 8c1f edbe 656c 17be
00000070: fd56 0ec0 a382 ef3e 59a6 c3bf 64e3 86be
00000080: 7cdc bb3d dee3 7bbf 878c 2cbe ba1f 2bbf
00000090: 2e87 81bf 42bb 1bbf bce0 32c0 2920 cebf
000000a0: 85b5 29be 1b8e 94bc cd26 a4bf e997 863f
000000b0: 5e30 dbbf 6803 0f3e 1e95 2a3e 71be edbe
000000c0: 2e88 893f c93d f03e

f2_fc3.bias f4 [5]
-0.26918125 0.780307 -0.57896906 0.14904955 0.41994166
00000000: 20d2 89be 33c2 473f 5137 14bf 72a0 183e
00000010: 9802 d73e

f2_fc4.weight f4 [1, 5]
-1.1939895 -0.6208118 -0.59378034 1.715679 0.5891932
00000000: a6d4 98bf 86ed 1ebf fd01 18bf 5f9b db3f
00000010: 5ed5 163f

f3_fc1.weight f4 [5, 2]
-0.076929815 0.21118201 -1.5089976 0.051099397 -1.1705273 -0.0075015817 0.73208314 -0.21919191
-0.28052437 0.022702027
00000000: 618d 9dbd 1940 583e d526 c1bf 9a4d 513d
00000010: d7d3 95bf d4cf f5bb cd69 3b3f d873 60be
00000020: e4a0 8fbe 9af9 b93c

f3_fc1.bias f4 [5]
-7.589352 -25.359993 2.130765 -2.0187907 13.95042
00000000: f9db f2c0 44e1 cac1 745e 0840 de33 01c0
00000010: ec34 5f41

f3_fc2.weight f4 [10, 5]
0.011745524 -1.9549513 0.7756129 -0.09981226 0.008704354 0.006695571 2.6433094 -0.2336294
-2.6440518 -0.034574606 0.041780546 -0.21340708 0.33672696 0.40801582 0.10593832 0.1353834
-1.2702016 -0.47057298 -0.7014478 -0.097276926 0.14274286 0.16780117 -0.081342764 0.4383201
-0.039863862 -0.033200502 -0.5216982 -0.52478606 0.14918694 0.08935949 0.22944343 0.32882136
0.21710673 0.24288362 0.36843422 -0.23095272 -2.5561008 -3.9541605 -0.10456308 0.63756937
-0.19654875 -2.6684427 -2.7727363 -0.09729108 0.54211414 0.28433698 -0.11665089 0.498577
0.37773284 0.437183
00000000: 4c70 403c d83b fabf 918e 463f 5f6a ccbd
00000010: b59c 0e3c 8566 db3b fb2b 2940 8c3c 6fbe
00000020: 2538 29c0 1a9e 0dbd 1422 2b3d 6387 5abe
00000030: 7a67 ac3e 73e7 d03e 31f6 d83d f2a1 0a3e
00000040: f795 a2bf f1ee f0be 1592 33bf 2039 c7bd
00000050: 2f2b 123e 12d4 2b3e 0997 a6bd 7e6b e03e
00000060: 4a48 23bd 40fd 07bd 038e 05bf 6158 06bf
00000070: 76c4 183e 1c02 b73d 38f3 6a3e 465b a83e
00000080: 3a51 5e3e 7cb6 783e 69a3 bc3e df7e 6cbe
00000090: 2897 23c0 f710 7dc0 2b25 d6bd bf37 233f
000000a0: 1344 49be c4c7 2ac0 8374 31c0 8c40 c7bd
000000b0: fec7 0a3f 9e94 913e a9e6 eebd 7c45 ff3e
000000c0: 3366 c13e 73d6 df3e

f3_fc2.bias f4 [10]
-1.7697438 -1.8043519 0.43031672 1.5712686 0.44329277 0.040476695 -0.18633813 1.7753946
2.2316036 -0.3063768
00000000: f786 e2bf 01f5 e6bf 7952 dc3e 541f c93f
00000010: 45f7 e23e e4ca 253d 6ccf 3ebe 2140 e33f
00000020: 98d2 0e40 6cdd 9cbe

f3_fc3.weight f4 [5, 10]
-0.13503966 -0.89591014 -0.04265512 0.16573606 -0.06005888 -0.095679834 -0.26516965 -0.41976705
-1.6257527 0.20301585 0.33889022 0.008626904 -0.05136043 0.095942125 0.22545093 -0.013967529
0.20333117 0.29910108 -0.077941574 0.009401011 0.059698783 0.31471312 0.27799085 0.1907233
0.13336638 0.17499456 -0.21917628 0.6670384 -0.60058826 0.24034993 -0.23337261 -0.35787514
0.18900478 0.08834325 0.17064598 -0.2806038 0.29207098 -0.28595933 0.4859492 -0.26415122
0.2119547 -0.33662635 0.036197957 0.08927838 -0.08562327 -0.092884935 -0.16013432 -2.1633205
0.19341207 0.11924127
00000000: d647 0abe 5e5a 65bf 23b7 2ebd b7b6 293e
00000010: 4d00 76bd caf3 c3bd 51c4 87be b5eb d6be
00000020: aa18 d0bf 63e3 4f3e 0583 ad3e dc57 0d3c
00000030: 505f 52bd 4e7d c43d 9cdc 663e 10d8 64bc
00000040: 0c36 503e c723 993e d59f 9fbd b306 1a3c
00000050: b686 743d 1422 a13e d154 8e3e f84c 433e
00000060: 3291 083e c631 333e bf6f 60be 07c3 2a3f
00000070: 27c0 19bf 4b1e 763e 3bf9 6ebe 693b b7be
00000080: 788a 413e 4eed b43d d2bd 2e3e 4dab 8fbe
00000090: 548a 953e 4369 92be 55ce f83e d43e 87be
000000a0: a70a 593e 4a5a acbe 4f44 143d 95d7 b63d
000000b0: 415b afbd 753a bebd 40fa 23be d873 0ac0
000000c0: d00d 463e c434 f43d

f3_fc3.bias f4 [5]
0.22270927 -0.14448474 -0.2760419 -0.12671684 -0.06891093
00000000: e60d 643e cff3 13be 5d55 8dbe 0fc2 01be
00000010: 2c21 8dbd

f3_fc4.weight f4 [1, 5]
-0.6274242 -0.036085993 -0.1058674 0.423525 0.95152205
00000000: df9e 20bf e8ce 13bd 02d1 d8bd 45d8 d83e
00000010: f396 733f
