data/Crossing_waves/Poly/seed=13/Crossing_waves.pth (torch, 8696 bytes, 14 tensors)

f1_fc1.weight f4 [5, 2]
0	0xbd1b96fa	-0.03798578
1	0x3faa2a55	1.3294169
2	0x3e83c8dd	0.25739184
3	0xbff3b3f3	-1.9039291
4	0xbd9f7130	-0.07785261
5	0xbfad0724	-1.3517804
6	0xbe07fe07	-0.13280497
7	0x3c0e6cff	0.008692979
8	0x3ea3d97c	0.32001865
9	0xbf3ba3e8	-0.73296976

f1_fc1.bias f4 [5]
0	0x401494a1	2.3215716
1	0xc07ded6d	-3.9676163
2	0xc04b10c1	-3.1728976
3	0x411333ec	9.200176
4	0xc185f27b	-16.743399

f1_fc2.weight f4 [10, 5]
0	0xbed9ef4e	-0.42565387
1	0x3f4c5741	0.7982064
2	0xbf9ae24b	-1.2100309
3	0x3f8ea563	1.1144222
4	0xc001021d	-2.015754
5	0x3eaa92c2	0.33315092
6	0x3dc7ecb9	0.09761948
7	0xbea59543	-0.3234044
8	0x3e9399de	0.2882833
9	0xbdbaf165	-0.091280736
10	0x3e7e3869	0.24826206
11	0x3f63fabe	0.8905448
12	0xbfd5b133	-1.6694702
13	0xbe4ab0a6	-0.19793949
14	0xbfbbb103	-1.4663395
15	0xbe403059	-0.18768443
16	0xbe362fd1	-0.17791678
17	0x3de18bf0	0.11013019
18	0xbdbc5ed3	-0.09197774
19	0x3ebae2ff	0.3650131
20	0xbf1df461	-0.6170102
21	0xbe675542	-0.22591117
22	0x3f005401	0.5012818
23	0xc027aa82	-2.619782
24	0xbc3d540d	-0.011555684
25	0xbdd675ce	-0.10471688
26	0x3e04b76f	0.129606
27	0xbe29b97e	-0.16574666
28	0x3d851ad9	0.064992614
29	0xbf0b11f0	-0.54324245
30	0xbebefb5f	-0.37301156
31	0x3f31568f	0.692727
32	0xc0000e04	-2.0008554
33	0xbe4c0b8a	-0.19926277
34	0xbf72971f	-0.9476184
35	0x3dc10c8f	0.094262235
36	0x3da683db	0.08130618
37	0xbe435c29	-0.19078125
38	0x3e5612d6	0.20905623
39	0xbd859535	-0.065225996
40	0xbffcb452	-1.9742529
41	0xbfc14b53	-1.5101112
42	0xc0eae49b	-7.340406
43	0xc17bf4cd	-15.747266
44	0xbf2e9697	-0.6819853
45	0xbfd93c76	-1.6971576
46	0x3d92fd13	0.07177176
47	0xbe5434d3	-0.20723276
48	0xc09472d0	-4.639015
49	0xbf778f30	-0.9670286

f1_fc2.bias f4 [10]
0	0x40a4002d	5.1250215
1	0x3f9ceeb4	1.2260346
2	0xc02af1bc	-2.6710043
3	0x3f7be4c6	0.98395956
4	0x40381248	2.8761158
5	0x3ff2137b	1.8912195
6	0xc0041435	-2.0637333
7	0xbf98c15f	-1.1934012
8	0x40d4377b	6.6317725
9	0x40efbf91	7.4921346

f1_fc3.weight f4 [5, 10]
0	0xbf54a271	-0.83060366
1	0xbea45da8	-0.32102704
2	0xbf2b34f6	-0.66877687
3	0xc0372265	-2.8614743
4	0x40bec03d	5.9609666
5	0x3f28228b	0.6567771
6	0x3f92378f	1.1423205
7	0xbecc5168	-0.39905858
8	0x3e95708d	0.29187432
9	0xc023cd81	-2.559418
10	0x3e96d757	0.29461166
11	0xbe24e416	-0.16102633
12	0x3fae7a97	1.3631161
13	0xbd5871cf	-0.05284291
14	0x40245fc1	2.5683444
15	0xbe983263	-0.29725942
16	0xbf444041	-0.76660544
17	0xbf0ed20f	-0.55789274
18	0xbf0211df	-0.5080852
19	0x3f932446	1.1495445
20	0x3ee2f1ec	0.44325197
21	0x3e73c570	0.23805785
22	0xbedb8fe2	-0.4288321
23	0x3df9d3d4	0.12198606
24	0x3e966abd	0.2937831
25	0xbf264305	-0.64946014
26	0x3e1dadde	0.15398356
27	0x3de9aebb	0.1141028
28	0xbfd3b07f	-1.6538237
29	0xbee1734e	-0.44033283
30	0x3ea3b50b	0.31974062
31	0xbe9e39e4	-0.30903542
32	0x3f99aac8	1.2005243
33	0xbd61e53e	-0.055150263
34	0x40367abe	2.8512416
35	0xbc8142b6	-0.01577888
36	0xbf5640b4	-0.8369248
37	0xbe496802	-0.19668582
38	0xbfdee6cc	-1.7414184
39	0x3e874a1c	0.26423728
40	0x3ee8dfa8	0.45483136
41	0x3ea8223d	0.32838622
42	0x3e385715	0.18001969
43	0x3e2437a8	0.16036856
44	0x3e5601a1	0.20899059
45	0xbf9bcab3	-1.2171234
46	0x3e4ca8ab	0.19986217
47	0x3df26acc	0.11836776
48	0x3f0f89ab	0.5606944
49	0x3ffbea64	1.9680905

f1_fc3.bias f4 [5]
0	0x403147eb	2.7700145
1	0x3f97b082	1.1850741
2	0x3f3f1417	0.7464003
3	0xbe7f0437	-0.24903952
4	0x3f54aa97	0.830728

f1_fc4.weight f4 [1, 5]
0	0x3f8328c7	1.0246819
1	0x3ed31749	0.41228703
2	0x3e45987e	0.19296452
3	0xbec103c9	-0.376982
4	0xbe169efb	-0.14709084

f2_fc1.weight f4 [5, 2]
0	0xbbd87b54	-0.0066064987
1	0x3f11ef45	0.5700572
2	0x3e198708	0.14992917
3	0xbf58ddd5	-0.8471349
4	0x3df9ff89	0.122069426
5	0x40063d72	2.0975003
6	0xbdc41f2f	-0.0957626
7	0xbfc2161a	-1.5162995
8	0xbc908414	-0.017641105
9	0x3e1cbf03	0.1530724

f2_fc1.bias f4 [5]
0	0xc0605513	-3.5051925
1	0xc1789532	-15.536425
2	0xc16856ad	-14.521161
3	0x4138467e	11.51721
4	0x411b7830	9.716843

f2_fc2.weight f4 [10, 5]
0	0x3f4a56ac	0.790385
1	0xbe8b4b4f	-0.27205893
2	0xc0940525	-4.625628
3	0xc0673266	-3.612451
4	0x3eb671f4	0.35633814
5	0x3f83d193	1.0298332
6	0x3ee62fc7	0.44958326
7	0xbe845cb8	-0.2585199
8	0x3f2f0082	0.6836015
9	0x3f046237	0.51712364
10	0x413fb7a7	11.982337
11	0xbec7dace	-0.39034122
12	0xbdee5cdb	-0.116388045
13	0x3c808069	0.01568623
14	0x3f975fd4	1.182612
15	0x3dd99d1a	0.10625668
16	0x3e19c5f6	0.15016922
17	0x3f2ad618	0.6673293
18	0x40388363	2.8830192
19	0x3e0fc977	0.14041696
20	0xbecccd35	-0.4000031
21	0x3c3fa464	0.011696909
22	0xbd8a87f9	-0.06764216
23	0xc08b5656	-4.354289
24	0xbe234406	-0.15943918
25	0xc0050ab4	-2.0787783
26	0x3ce8e109	0.028427618
27	0xbf0ee55c	-0.55818725
28	0x40e97629	7.295674
29	0x3ed07922	0.40717417
30	0xbe28c923	-0.16482978
31	0x3d17f8c8	0.03710249
32	0x3f7ce172	0.987815
33	0x3fdcb5b2	1.7242949
34	0xbe954790	-0.2915616
35	0x3fead5a4	1.8346448
36	0xbcf528ee	-0.029926743
37	0xc03a01fa	-2.9063706
38	0xbfd0396a	-1.6267521
39	0x3ea69314	0.32534087
40	0x3e9f48f7	0.31110355
41	0x3f85382d	1.0407768
42	0x3ef2b28b	0.47401842
43	0x3f1ac544	0.60457253
44	0x3d5ea038	0.054352015
45	0xc10836b4	-8.513355
46	0x3ebd1cbe	0.3693599
47	0x3d9716da	0.073774055
48	0xbe834685	-0.2563974
49	0xbf5e57fb	-0.86853

f2_fc2.bias f4 [10]
0	0x405a5882	3.411652
1	0xbdd4f81e	-0.10398887
2	0x405f02a2	3.4845357
3	0xbe13f319	-0.14448203
4	0xbf1396b3	-0.57651824
5	0x407abbd7	3.9177148
6	0xbeb60d0a	-0.35556823
7	0x3d1476b0	0.036246
8	0xc0636a96	-3.5533805
9	0xc0424c22	-3.0358968

f2_fc3.weight f4 [5, 10]
0	0x3f32a0b7	0.6977648
1	0xc0700f02	-3.750916
2	0xc0e63bc0	-7.1947937
3	0xbfc2446f	-1.5177134
4	0x3fdc3f77	1.7206868
5	0x3f57f1d8	0.843534
6	0xbf164cc3	-0.5871088
7	0xc009f060	-2.1552963
8	0x3f48de26	0.7846397
9	0xc10d5c14	-8.83498
10	0x3fad48f1	1.3537885
11	0xbeb77ee0	-0.35838985
12	0xbf17700a	-0.59155333
13	0x3d967a9a	0.07347603
14	0xbf0f0cca	-0.5587889
15	0xbed7e58b	-0.42167315
16	0xbe79dfd5	-0.24401791
17	0xbfeed9c3	-1.8660206
18	0x3e385e6a	0.18004766
19	0x3e728cf6	0.23686585
20	0x3e9ead72	0.30991703
21	0xbe163c95	-0.14671548
22	0x3eb11b69	0.34591225
23	0xbe9b4c63	-0.30331716
24	0x3f7401f8	0.95315504
25	0xbe2b0cec	-0.16704148
26	0x3e665a6d	0.22495432
27	0x3f9d9c8d	1.23134
28	0x3dd12c5f	0.10213541
29	0x3e82aed7	0.25524017
30	0x3eb0b650	0.34514093
31	0xbe2056c1	-0.15658094
32	0x3eb96036	0.36206216
33	0xbe75761a	-0.23970833
34	0x3f7d5228	0.98953485
35	0xbe4643c0	-0.19361782
36	0x3e41c2a0	0.189219
37	0x3fa2b101	1.2710267
38	0x3dc6f652	0.097149506
39	0xbf8f665c	-1.1203113
40	0x3ebb5641	0.36589244
41	0xbff9ade6	-1.9506195
42	0xc0a842e6	-5.2581663
43	0xbf1b3e4c	-0.6064193
44	0x3f0b6718	0.54454184
45	0x3e9d56fd	0.3073043
46	0xbf2b93eb	-0.6702258
47	0xc0077747	-2.116655
48	0x3faa5c48	1.3309412
49	0xc0e6dc8a	-7.2144213

f2_fc3.bias f4 [5]
0	0x3f74c092	0.9560634
1	0x3eff521c	0.49867332
2	0xbd823470	-0.06357658
3	0xbfc30a87	-1.5237588
4	0xbec4d9e4	-0.38447487

f2_fc4.weight f4 [1, 5]
0	0xbe91a038	-0.2844255
1	0x3ead3840	0.33831978
2	0xbe826d03	-0.25473794
3	0x3e77bcb0	0.24193072
4	0x3f0631db	0.52419823
