data/Crossing_waves/Poly/seed=7/Crossing_waves.pth (torch, 8696 bytes, 14 tensors)

f1_fc1.weight f4 [5, 2]
0	0x3dd16f29	0.1022628
1	0xbffc9984	-1.9734349
2	0x3e95214a	0.2912696
3	0x3f42251d	0.7583788
4	0xbd6ed7ac	-0.05831115
5	0xbfcfa78f	-1.622301
6	0xbdb92f7e	-0.090422615
7	0xbea55bca	-0.32296592
8	0xbe80b77a	-0.25139982
9	0xbf3cd030	-0.7375517

f1_fc1.bias f4 [5]
0	0x4099a84a	4.801793
1	0xc1122cf2	-9.135973
2	0x400de264	2.2169428
3	0x413214a2	11.130037
4	0x409ee6bc	4.965666

f1_fc2.weight f4 [10, 5]
0	0xbf2cb649	-0.67465645
1	0x3f0508e9	0.5196672
2	0x3e95ce5c	0.29259002
3	0x3f91be2b	1.138616
4	0xbf03ec77	-0.5153269
5	0x3f39a9fc	0.72525
6	0xbf0bec17	-0.5465712
7	0xbfe5c013	-1.7949241
8	0x3ea25217	0.31703255
9	0x3f52c343	0.82329196
10	0xbe8036ee	-0.25041908
11	0x3ed43cc0	0.414526
12	0x3ee6871b	0.45024952
13	0x3e86db86	0.26339358
14	0xbe8c9302	-0.27455908
15	0xbeb67bf9	-0.3564146
16	0x3e8ef739	0.2792299
17	0x3fa2deed	1.2724282
18	0xbf8a6618	-1.0812407
19	0xc02e5454	-2.723897
20	0x3f28550b	0.65754765
21	0xbf1eeb8e	-0.6207818
22	0xbfc49020	-1.5356483
23	0xbef282e7	-0.47365496
24	0xbd774f10	-0.060378134
25	0x3f80a9cb	1.0051817
26	0xbf4a493d	-0.79018
27	0xc02c5add	-2.6930459
28	0x3f0f4460	0.55963707
29	0x3f7ab242	0.9792825
30	0xbe8bcf2d	-0.273065
31	0xbf5d1bef	-0.8637075
32	0xc14b8d44	-12.721989
33	0xc081b86c	-4.0537624
34	0xc1072ac2	-8.447939
35	0xbee81a6a	-0.45332652
36	0x3eb70e05	0.35752884
37	0xbf445175	-0.76686794
38	0x3ff506c8	1.9142694
39	0xbe6f8851	-0.23391844
40	0x3f63d374	0.88994527
41	0xbf3da725	-0.7408317
42	0x3ddf5cc6	0.10906367
43	0xc04dbd04	-3.2146616
44	0xbf87837e	-1.0587003
45	0x3ebf3151	0.37342313
46	0x3e8ac3c2	0.27102476
47	0x413e7ca3	11.905429
48	0xc166b1ef	-14.418441
49	0x3e284887	0.16433917

f1_fc2.bias f4 [10]
0	0x3fb4e5a6	1.4132583
1	0x4000dec7	2.0135972
2	0xbfdc052b	-1.7189077
3	0x3fdece55	1.7406718
4	0x40a83c97	5.257396
5	0x4056a397	3.3537347
6	0x40efb831	7.4912343
7	0xbfc8e661	-1.5695306
8	0x3f9855c9	1.190118
9	0xc1491637	-12.567924

f1_fc3.weight f4 [5, 10]
0	0xbe407dc0	-0.1879797
1	0xbf55fa6c	-0.8358524
2	0xc0340dfd	-2.8133538
3	0x400a6740	2.1625519
4	0x3ed350c4	0.41272557
5	0x3e824f46	0.25451106
6	0xbf1ecd9f	-0.620325
7	0x3f04630f	0.5171365
8	0xc0053ff9	-2.0820296
9	0xc0449bb6	-3.0720038
10	0xbe0099c9	-0.12558664
11	0xbeccd718	-0.40007854
12	0x3ec26370	0.3796649
13	0xbe20c39b	-0.15699618
14	0x3dae8dfb	0.085231744
15	0x3f0a348b	0.53986424
16	0xbf3fbe4c	-0.74899745
17	0xbcb506ea	-0.022098023
18	0xbfad94d5	-1.3561045
19	0xbe19abc5	-0.15006931
20	0xbeee1f1b	-0.46508107
21	0xbe4ed824	-0.20199639
22	0x3bd29384	0.0064262766
23	0x3e0ad05d	0.13556047
24	0x3f57f943	0.8436472
25	0xbf6012b2	-0.87528527
26	0xbe1d73e4	-0.1537624
27	0xbfa0910b	-1.2544264
28	0x3f64a365	0.8931182
29	0xbce5dd45	-0.028059611
30	0xbf82b3b7	-1.0211095
31	0xbec8a6bd	-0.3918971
32	0xbca843f2	-0.020540211
33	0x3e885855	0.26629892
34	0x3fc6f0ea	1.5542271
35	0xbfcbdeef	-1.5927409
36	0xbedb906b	-0.4288362
37	0x3dc86fd4	0.097869545
38	0x3fccf2a1	1.6011544
39	0xbd4cc1cd	-0.04998951
40	0xbee98320	-0.45607853
41	0xbf5825d0	-0.844327
42	0xbf8e8675	-1.1134783
43	0x3f8530d3	1.0405525
44	0x3ea34125	0.3188564
45	0x3f1b04c4	0.60554147
46	0xbf8f193e	-1.1179578
47	0x3ed21edb	0.41039166
48	0xc0357d15	-2.8357594
49	0xc00ae62b	-2.1702983

f1_fc3.bias f4 [5]
0	0x3fe39cf1	1.778227
1	0xbf921bc2	-1.1414721
2	0x3d26d5a7	0.0407311
3	0x3fe1bded	1.7636086
4	0xbfa6fd91	-1.3046132

f1_fc4.weight f4 [1, 5]
0	0xbea90c20	-0.33017063
1	0xbf2694e5	-0.65070945
2	0xbfc1f8b6	-1.5154026
3	0x3f54f404	0.8318484
4	0x3f1e78cc	0.6190307

f2_fc1.weight f4 [5, 2]
0	0xbc977773	-0.018489575
1	0x3e5c3b31	0.21506955
2	0x3e4cb19e	0.1998963
3	0xc00dc6ca	-2.2152581
4	0xbaa6a5cb	-0.0012714205
5	0x3f07e8f3	0.5308983
6	0xbcdcc88d	-0.026951099
7	0xbfe8cc1d	-1.818729
8	0xbcce3cd8	-0.025175497
9	0xbd79051a	-0.06079588

f2_fc1.bias f4 [5]
0	0x400f47a1	2.238747
1	0xc0a7c608	-5.2429237
2	0xc04b3057	-3.1748254
3	0x4129d5b9	10.614678
4	0x3efb3ab3	0.4906822

f2_fc2.weight f4 [10, 5]
0	0x3e82c535	0.25541082
1	0xbee2d581	-0.44303516
2	0xbfed29de	-1.8528402
3	0x3f11c5bb	0.5694234
4	0xc06e554f	-3.7239568
5	0x3eab8b78	0.33504844
6	0x3e91726b	0.28407606
7	0x3fae279e	1.360584
8	0xbe9f22d8	-0.3108127
9	0x3f975b1b	1.1824678
10	0x3fcbe41d	1.592899
11	0xbe0e46f5	-0.13894255
12	0xc02ace29	-2.668833
13	0xbe75ecaa	-0.24016061
14	0xbf21e0c1	-0.6323357
15	0xc1303883	-11.013797
16	0xbf0b582b	-0.5443141
17	0x405ed9cf	3.482044
18	0xc1936ea2	-18.42902
19	0xbf0abbfe	-0.54193103
20	0xc0195f06	-2.3964248
21	0xbdd90be8	-0.10597974
22	0x3c8d0c50	0.017217785
23	0xbdaf4af3	-0.08559217
24	0xc0447555	-3.0696614
25	0xbf9c28f5	-1.2199999
26	0x3b7bc3d5	0.0038416286
27	0x3d0a06d2	0.03369791
28	0xbe2e3e91	-0.17016055
29	0xbf96978a	-1.1764996
30	0x3fe41e29	1.7821704
31	0xbf5bb620	-0.85824776
32	0xc08ed1af	-4.463096
33	0x3f929d60	1.1454277
34	0xc10602bf	-8.37567
35	0xbf19f4c9	-0.6013914
36	0x3dc90733	0.09815826
37	0xbe73bb41	-0.238019
38	0x3e47a9e1	0.19498397
39	0x3dafdcef	0.085870616
40	0x3fe6e6bc	1.8039165
41	0x3e87e883	0.2654458
42	0x3f0db826	0.55359113
43	0x3c8ea110	0.017410785
44	0xbfc648ae	-1.549093
45	0x415020f1	13.008042
46	0xbfac2a73	-1.3450454
47	0xc11934d7	-9.5754
48	0x3d9f64b4	0.077828795
49	0xc118a3b2	-9.539965

f2_fc2.bias f4 [10]
0	0x3fd4fbd8	1.6639357
1	0xbf65d37a	-0.8977581
2	0x3fb14866	1.3850219
3	0xbff0c451	-1.8809911
4	0x3f854be3	1.0413784
5	0x3eb14270	0.34621
6	0x40894d61	4.2906957
7	0x3fc19470	1.5123425
8	0x3ee662fa	0.44997388
9	0xc0065382	-2.098847

f2_fc3.weight f4 [5, 10]
0	0xbec9bdc2	-0.39402586
1	0xbf7d7987	-0.9901356
2	0x3f098c19	0.537294
3	0xbc9c8216	-0.019104999
4	0xbe44e3bf	-0.19227503
5	0xbfcd4d24	-1.6039166
6	0x3fbe5068	1.4868288
7	0xbb572070	-0.003282573
8	0xbe932842	-0.28741652
9	0xbdd876be	-0.10569523
10	0xbf8d8d6b	-1.1058782
11	0xbf422bbf	-0.75848
12	0x3d8ebb8d	0.06969366
13	0xbfb5a02d	-1.4189507
14	0xbcae3236	-0.021264177
15	0xbff0b0c0	-1.880394
16	0x3e555fc5	0.20837314
17	0xb93c1c61	-0.00017939649
18	0xbdc8fae5	-0.09813479
19	0x3f27cc9d	0.6554659
20	0x40674c3b	3.6140277
21	0x3e3db2a4	0.18525177
22	0xbf52ce9d	-0.82346517
23	0xbf5533c6	-0.83282125
24	0x3f35de13	0.71041983
25	0x3f25ec6c	0.64813876
26	0xbfef1714	-1.8678918
27	0x3da7d55f	0.08194994
28	0xbe36b4f5	-0.17842467
29	0xbc575e3b	-0.013145025
30	0xbe631ea5	-0.22179659
31	0xb920c87e	-0.00015333478
32	0xbfa467fd	-1.2844235
33	0xbf7684f5	-0.96296626
34	0x3f43a943	0.7643015
35	0x3f38ae82	0.7214128
36	0x3e54ee72	0.20794085
37	0xbeaa63b5	-0.33279195
38	0x3e2eaf8b	0.17059152
39	0x3f3897b5	0.72106487
40	0xbf712d83	-0.9421007
41	0xbf41febb	-0.7577931
42	0xbf761f61	-0.9614163
43	0x3e2c393f	0.16818713
44	0x3ebe224b	0.37135538
45	0x3f438f6c	0.7639072
46	0x4016529e	2.3487926
47	0xbe98fefa	-0.29882032
48	0xbe8a3529	-0.26993683
49	0x3dd26c71	0.1027459

f2_fc3.bias f4 [5]
0	0x3f8a55da	1.080745
1	0x400fd442	2.2473302
2	0x3f456a50	0.77115345
3	0xbe25dc53	-0.16197328
4	0xbe9695ff	-0.29411313

f2_fc4.weight f4 [1, 5]
0	0x3ed43418	0.41445994
1	0xbe8caa12	-0.27473503
2	0xbecf5e27	-0.4050152
3	0x3eb4087d	0.35162726
4	0xbeb15eb3	-0.34642562
