data/Wildfire/Poly/seed=222/Wildfire.pth (torch, 10080 bytes, 21 tensors)

f1_fc1.weight f4 [5, 2]
0	0x3de1f525	0.11033086
1	0x3ff96a4e	1.9485567
2	0x3db31d51	0.08745826
3	0xbdb3782b	-0.087631546
4	0xbd3eba16	-0.046564184
5	0x3e4f11b8	0.20221603
6	0x3e162db7	0.14665876
7	0x3ee8e336	0.45485848
8	0xbcb6e33e	-0.022325154
9	0xbdc209ce	-0.09474526

f1_fc1.bias f4 [5]
0	0xc12d75d6	-10.841269
1	0x3fc4d400	1.5377197
2	0x40ec035e	7.375411
3	0xbf92f4d7	-1.1480969
4	0x404c89ee	3.1959186

f1_fc2.weight f4 [10, 5]
0	0x3e9ce99e	0.30646986
1	0x3ed35065	0.41272274
2	0x400f4b87	2.2389848
3	0xbe908da0	-0.2823305
4	0xbe79994f	-0.24374889
5	0xbeb16336	-0.34646004
6	0xbf05c455	-0.52252704
7	0x40cd6296	6.4182844
8	0xbef8f0f2	-0.48621327
9	0xbe02bf33	-0.12768249
10	0x3de12005	0.10992435
11	0xbe613cf7	-0.21995912
12	0xc0a74125	-5.226702
13	0x3f7c4558	0.9854331
14	0x402897fa	2.634276
15	0xbe817f50	-0.25292444
16	0x3e2e4c9a	0.17021409
17	0x3ff9d180	1.9517059
18	0x3eb2f0ce	0.34949344
19	0x3efb1c50	0.49045038
20	0xc0cffe7d	-6.4998155
21	0x3f844a02	1.0335085
22	0x4021dc2b	2.529063
23	0x3e511002	0.20416263
24	0x3ea8bb80	0.3295555
25	0x3f58dc18	0.84710836
26	0x3e058edd	0.1304278
27	0xbc3a08e9	-0.011354663
28	0x3e17cb78	0.14823711
29	0x3eb258d4	0.34833395
30	0x3f4e41a6	0.8056892
31	0xbd60106a	-0.054703154
32	0xc01ad434	-2.4192019
33	0xbd93e4c8	-0.07221371
34	0xbf9f8b34	-1.2464356
35	0x3f675583	0.90364856
36	0x3da1a194	0.07892147
37	0x3ff6caf2	1.9280684
38	0x3bec127e	0.007204353
39	0x405f8b86	3.4928908
40	0xbe9223b3	-0.2854286
41	0xbf97d814	-1.1862817
42	0x3f948717	1.1603726
43	0x3e85d4f8	0.26139045
44	0xbff248e7	-1.8928498
45	0x3e913ad0	0.28365183
46	0xbef2d1f6	-0.47425812
47	0xc003b1d3	-2.0577285
48	0xbe6aefbe	-0.22943017
49	0xc0bae637	-5.8406024

f1_fc2.bias f4 [10]
0	0x3e9068a1	0.28204826
1	0x4027c6e7	2.621515
2	0xc0ec90f3	-7.392694
3	0x3efee598	0.4978454
4	0x4022e623	2.5452964
5	0xbf20b5d2	-0.62777436
6	0x3ee95f5d	0.4558057
7	0x4022d236	2.5440803
8	0x411b38ba	9.701349
9	0x406426f6	3.564878

f1_fc3.weight f4 [5, 10]
0	0x3f6050e4	0.8762343
1	0x3f5ef81a	0.8709732
2	0xbf001e04	-0.500458
3	0xbf295a38	-0.6615329
4	0xc10ab693	-8.669574
5	0xc1730bb4	-15.190357
6	0x3f941f15	1.1571985
7	0xbeebab0d	-0.4602894
8	0xc0f7bd1c	-7.7418346
9	0xc02d83a3	-2.7111595
10	0xbf9297a6	-1.145253
11	0xbfafe2da	-1.3741105
12	0xbfc7f2a2	-1.5620921
13	0x3fd254ad	1.6432091
14	0xbfffdd12	-1.998934
15	0x3e6c67fd	0.23086543
16	0x3ff4e2c8	1.9131708
17	0xbf9de751	-1.2336217
18	0x3f933d7d	1.150314
19	0xbfb41712	-1.406954
20	0xbf15b678	-0.5848155
21	0xbf3fe579	-0.7495952
22	0xbf788eb6	-0.9709276
23	0x3e920827	0.28521845
24	0xbe17fe5f	-0.14843129
25	0x3cd4fdf5	0.026000002
26	0x3e687f62	0.22704843
27	0x3c891d05	0.01673747
28	0xbffe7068	-1.9878054
29	0x3f64fb71	0.8944617
30	0xbf37c455	-0.71783954
31	0xbf2b610b	-0.6694495
32	0xbfae2d90	-1.3607655
33	0x3eb64778	0.356014
34	0xbe0ed8b4	-0.13949853
35	0x3e5ff91e	0.21872374
36	0x3e7ce8cc	0.2469818
37	0xbdad9d11	-0.08477224
38	0xc0100d95	-2.250829
39	0x3efee1f1	0.49781755
40	0xbe5a731b	-0.21332972
41	0xbeb4c759	-0.3530834
42	0xbf9ff7e6	-1.2497528
43	0x3d5517bb	0.052024584
44	0xbed2af43	-0.4114934
45	0x3f7e7e35	0.99411327
46	0x3e86d960	0.2633772
47	0xbf76d69e	-0.9642123
48	0xc0112b3f	-2.2682645
49	0x3f6f11df	0.93386644

f1_fc3.bias f4 [5]
0	0x408cdd63	4.4020247
1	0x3e45ce0a	0.19316879
2	0xbd0c0db0	-0.03419274
3	0xbe899c23	-0.26876935
4	0xbe98da8d	-0.2985424

f1_fc4.weight f4 [1, 5]
0	0xbf3dfef4	-0.7421715
1	0xbe8481ce	-0.25880283
2	0x3f290cae	0.6603497
3	0xbd703a43	-0.058649313
4	0xbf018a9c	-0.50602126

f2_fc1.weight f4 [5, 2]
0	0x3f151c7c	0.5824659
1	0x3f0e0c50	0.5548754
2	0x3d0e7d86	0.034787677
3	0x3e4736ae	0.19454452
4	0xbce22a29	-0.027607994
5	0xbe4e857d	-0.20168109
6	0xbc09ef63	-0.008418891
7	0x3f990bf3	1.1956772
8	0x3edb156e	0.42789787
9	0x3ec3ce97	0.38243553

f2_fc1.bias f4 [5]
0	0xc1a01d16	-20.014202
1	0xc181d86b	-16.230673
2	0x4168fece	14.562208
3	0xc181295a	-16.145191
4	0xbf442d43	-0.76631564

f2_fc2.weight f4 [10, 5]
0	0x3f9fbc48	1.2479334
1	0x4025b496	2.589147
2	0xc0faae7c	-7.8337994
3	0xc1335fa0	-11.210846
4	0xbec5ec7f	-0.38656995
5	0x3f6c8c85	0.92401916
6	0x3fa19e2b	1.2626394
7	0xbf8e81d6	-1.1133373
8	0xbe0cb5fd	-0.13741298
9	0xbecc87cb	-0.39947352
10	0xbee8c0e2	-0.45459658
11	0xc0873617	-4.225353
12	0x3f27d0a6	0.6555275
13	0xc1211731	-10.068162
14	0x3de44301	0.111455925
15	0xbfc0a41d	-1.5050083
16	0x3e3c5458	0.1839155
17	0xbdc744a2	-0.097298875
18	0xbcad2057	-0.021133585
19	0xbe9fa691	-0.31181768
20	0xbda1dbe7	-0.07903271
21	0xbfde91ba	-1.7388222
22	0x3cb530fd	0.022118086
23	0xbf936a89	-1.1516887
24	0xbc6f3fb5	-0.014602591
25	0xbf250740	-0.6446419
26	0xbf5f425d	-0.8721064
27	0x3f537b48	0.8260999
28	0x3dd495cb	0.10380133
29	0x3ede439b	0.43410954
30	0xbf080908	-0.5313878
31	0xbfdede09	-1.741151
32	0x3fee6c54	1.8626809
33	0x3e4c85b1	0.19972874
34	0x3d4cdbbb	0.05001424
35	0xbe327eff	-0.17431258
36	0xc079d4ee	-3.9036212
37	0x3f697984	0.91201043
38	0xc029197d	-2.6421807
39	0xbde757db	-0.11296054
40	0xbe3f52b5	-0.18683894
41	0xc035f1e1	-2.842888
42	0x3d61f6e2	0.055167086
43	0xc038238a	-2.8771691
44	0x3d40ff7c	0.04711865
45	0xbf700e0c	-0.93771434
46	0xc18d9f9c	-17.702934
47	0xbfb916dc	-1.4460101
48	0xc12aee96	-10.6832485
49	0x3e64d7da	0.22347966

f2_fc2.bias f4 [10]
0	0x3ec31faf	0.3811011
1	0xc01c2d18	-2.4402523
2	0x4088528b	4.260076
3	0xbfb5d4da	-1.4205582
4	0x3fe709e9	1.8049899
5	0xbf47e1a8	-0.780787
6	0x404c74a6	3.1946197
7	0x406603f2	3.5939908
8	0x4039edfd	2.9051507
9	0x41ad9a19	21.700243

f2_fc3.weight f4 [5, 10]
0	0xbfa050fd	-1.2524716
1	0xbf24867e	-0.6426772
2	0x3fcebf2e	1.6152093
3	0xbfe0fea2	-1.7577708
4	0x3fad7a80	1.3553009
5	0xbe807e95	-0.25096574
6	0xbfb336e6	-1.4001129
7	0xbfbba18f	-1.4658679
8	0xc01c8c78	-2.4460735
9	0xbfcf03e3	-1.6173061
10	0xbf5f97b8	-0.8734088
11	0xbf02b7b0	-0.51061535
12	0xbfb439ca	-1.4080136
13	0xc01851ec	-2.38
14	0x40131f38	2.2987804
15	0x3e860fdb	0.26183972
16	0xbfebc039	-1.8418037
17	0x3ebac776	0.36480302
18	0xc040d085	-3.012727
19	0xbf0e0e7e	-0.55490863
20	0xbda01c15	-0.07817856
21	0xbe4ec3f3	-0.20191936
22	0x3edb7a23	0.4286662
23	0x3f8208b4	1.0158906
24	0xbf492771	-0.7857581
25	0x3e4f497b	0.20242874
26	0xbdca7c97	-0.09887045
27	0xbeacded1	-0.33763745
28	0xc0166c30	-2.3503532
29	0x3ef3161d	0.4747781
30	0xbf5d5148	-0.8645215
31	0xbf07b180	-0.5300522
32	0x3ecf69f3	0.4051052
33	0xbff358fe	-1.9011533
34	0xbee4a4c1	-0.44656947
35	0xbdddf341	-0.108374126
36	0xbfb8c192	-1.4434073
37	0x3df9c2d0	0.12195361
38	0xc013b45d	-2.3078835
39	0xbf49cb78	-0.78826094
40	0xbdebca4b	-0.11513194
41	0xbe596071	-0.21228196
42	0xbfa07e6a	-1.2538579
43	0x3f8cc632	1.0997984
44	0xbff4e50b	-1.9132398
45	0x3e62847d	0.22120853
46	0xbddef365	-0.108862676
47	0xbea6d8ae	-0.32587188
48	0x3f8cd921	1.1003762
49	0x3ebbe2b2	0.36696392

f2_fc3.bias f4 [5]
0	0x3d9a77f2	0.07542409
1	0x3e793750	0.24337506
2	0xbef006d1	-0.468802
3	0xbef9207a	-0.4865759
4	0x3ebd3abe	0.3695888

f2_fc4.weight f4 [1, 5]
0	0xbf8d1868	-1.1023073
1	0xbf22e198	-0.6362548
2	0xbf210d90	-0.6291132
3	0x3fe4eb8e	1.7884386
4	0x3f1260eb	0.57179135

f3_fc1.weight f4 [5, 2]
0	0x3edcf0eb	0.43152556
1	0x3e5a226a	0.2130219
2	0x3ebfdfb0	0.37475348
3	0xbe14305e	-0.14471576
4	0x3e03d316	0.12873492
5	0xbe32cbfb	-0.17460625
6	0x3eb20cd6	0.34775418
7	0x3f1852cd	0.59501344
8	0xbf41e3d9	-0.7573829
9	0x3e93cfc1	0.2886944

f3_fc1.bias f4 [5]
0	0xbf18ff8e	-0.59764946
1	0x40173b37	2.3629892
2	0xbfbce65f	-1.4757804
3	0xbf46d272	-0.77664864
4	0x3f0d9250	0.5530138

f3_fc2.weight f4 [10, 5]
0	0x3d8ddce0	0.06926894
1	0x3f119a60	0.5687618
2	0x3e27e6da	0.16396657
3	0xbd163a8b	-0.036676925
4	0xbe4278f5	-0.18991454
5	0x3cce3bed	0.02517506
6	0x3e767e1c	0.24071544
7	0x3e1b1bb2	0.15147284
8	0xbeb0b937	-0.34516308
9	0xbf9a3310	-1.2046833
10	0xbedaa3de	-0.42703146
11	0xbddb4ec5	-0.107083835
12	0xbec6d815	-0.38836733
13	0x3e62b417	0.22139011
14	0x3ea5e5e4	0.32401955
15	0x3e316efa	0.1732749
16	0xbedebc2b	-0.43502936
17	0x3ed1888e	0.40924495
18	0x3dcea7c1	0.1009059
19	0x3cf2794b	0.029598853
20	0xbd86f74c	-0.06590137
21	0x3ea20538	0.31644607
22	0x3dcf2997	0.101153545
23	0xbe974958	-0.29548144
24	0xbfd3584b	-1.651132
25	0x3e23b01b	0.15985148
26	0x3ec3a681	0.3821297
27	0xbdb95fb3	-0.09051456
28	0x3e026b46	0.12736234
29	0xbeb4ba1e	-0.35298246
30	0x3ef9801a	0.48730546
31	0x3e97c9ac	0.2964605
32	0x3ec76728	0.3894589
33	0x3d8b6a1b	0.068073474
34	0x3ec40f97	0.38293144
35	0x3be4d79d	0.006983711
36	0xbe9ad72b	-0.30242285
37	0xbe2b7e20	-0.16747332
38	0x3e20d27c	0.15705293
39	0x3ebc81cb	0.36817774
40	0xbe24385c	-0.16037124
41	0x3f3d2a68	0.7389283
42	0xbe925b8f	-0.2858548
43	0xbe80cfac	-0.2515844
44	0xbfecb2c3	-1.8492054
45	0x3eb4bcb7	0.35300228
46	0xbe32148b	-0.17390649
47	0x3dd97dd4	0.10619703
48	0x3ead8d1e	0.33896726
49	0x3e937592	0.28800637

f3_fc2.bias f4 [10]
0	0xbf203f76	-0.62596834
1	0x3daf4a1e	0.085590586
2	0x3f0c8664	0.54892564
3	0x3e4b4983	0.19852261
4	0x3e097abe	0.13425729
5	0xbe2566bd	-0.16152473
6	0xbe92dc13	-0.28683528
7	0xbe8a30b0	-0.2699027
8	0x3fdc573b	1.7214121
9	0x3e7611fb	0.24030297

f3_fc3.weight f4 [5, 10]
0	0xbf1640a0	-0.5869236
1	0x3e22d13a	0.15900126
2	0x3e896dd6	0.2684161
3	0xbcc8bfac	-0.024505459
4	0xbed3752b	-0.4130033
5	0x3e809df9	0.25120524
6	0xbe2d4e4d	-0.169244
7	0x3ccfc417	0.025362058
8	0x3c67c6dd	0.014146534
9	0x3ad031d1	0.0015883987
10	0x3e8a76cd	0.27043763
11	0xbe5335a7	-0.20625935
12	0x3da465d7	0.08027237
13	0xbe47205e	-0.19445941
14	0x3e8a826a	0.27052623
15	0xbe6ec35f	-0.23316716
16	0xbdb501ef	-0.088382594
17	0x3d366668	0.044531256
18	0x3e358bf1	0.17729165
19	0x3e539616	0.20662722
20	0x3d9804c7	0.07422786
21	0x3d6955ce	0.056966595
22	0x3e602526	0.21889171
23	0x3db39c38	0.08770031
24	0xbe805650	-0.2506585
25	0x3d94fd02	0.0727482
26	0x3d824548	0.063608706
27	0x3e89271f	0.2678766
28	0x3e0f595d	0.13998933
29	0xbe3cb5e2	-0.18428758
30	0xbe3b4173	-0.18286686
31	0xbe122429	-0.14271607
32	0xbf5e4116	-0.86818063
33	0x3e58e628	0.21181548
34	0xbf2e326d	-0.68045694
35	0x3e6fc65d	0.23415513
36	0x3e9249c1	0.28571895
37	0x3eacdbe3	0.3376151
38	0xbe98d757	-0.2985179
39	0xbee8f1a7	-0.45496866
40	0xbe12d567	-0.14339219
41	0xbd2fd992	-0.0429321
42	0x3e13edec	0.14446229
43	0xbdcacc94	-0.099023014
44	0xbf13cf02	-0.57737744
45	0x3e48a239	0.19593133
46	0x3e3e6d5a	0.18596402
47	0xbc8beb34	-0.017079927
48	0xbf1fcba8	-0.6242013
49	0xbe1d5f40	-0.15368366

f3_fc3.bias f4 [5]
0	0xbe72e3ba	-0.23719683
1	0xbe22ed0f	-0.15910743
2	0x3e99f17a	0.30067044
3	0x3e7af7e2	0.24508622
4	0x3f0f6d2f	0.56025976

f3_fc4.weight f4 [1, 5]
0	0xbe96d4cf	-0.29459235
1	0xbe6d0769	-0.23147358
2	0x3e8172d1	0.2528291
3	0xbe27b40d	-0.16377278
4	0x3d901296	0.07034795
