data/Wildfire/Poly/seed=215/Wildfire.pth (torch, 10080 bytes, 21 tensors)

f1_fc1.weight f4 [5, 2]
00000000: 0d24 093e 5232 fd3f 02b1 be3d e737 d4bd
00000010: 6951 74bd f995 483e 1869 113e 2923 d03e
00000020: 98ee a43d f9ca afbd
0.13392659 1.9780982 0.09311105 -0.10362225 -0.05964795 0.1958846 0.14200246 0.40651825
0.08053321 -0.08583636

f1_fc1.bias f4 [5]
00000000: 4222 33c1 7932 ec3f 75aa e940 3689 6cbf
00000010: a118 63c1
-11.195864 1.8452903 7.3020577 -0.9239687 -14.193513

f1_fc2.weight f4 [10, 5]
00000000: 8e08 a73e 630d ed3e 76a2 0740 6e69 78be
00000010: 2366 b7be c414 a9be 61ee ba3e 6fe3 6040
00000020: e394 483e 0c24 4640 9653 a53d f3af b8be
00000030: 1046 aac0 5d0f 763f cef8 3e40 93a5 80be
00000040: d9c7 083d 6ff6 1e40 90b1 2c3e 54af c0be
00000050: 01c4 01bf f8a9 26c1 da5a 9140 65c6 1fc0
00000060: 1c44 1a40 c990 513f 35b2 4f3b 3e05 893d
00000070: fda0 cb3d 1dd9 473f 7a86 573f 2516 893e
00000080: dacd 25c0 564e 0fbd 7899 2b3f 1b93 6d3f
00000090: 2ddf 673e ec0f e93f 3666 993d 1e90 5240
000000a0: 096c 13bd 1cee 09c0 3638 03c0 f31a 093f
000000b0: 0004 4fc1 7032 893e 4acc d9be c9c7 fabf
000000c0: 32aa 85be d5b8 b0c0
0.32623714 0.46299276 2.1192908 -0.24258968 -0.35820112 -0.33023655 0.36509994 3.5138814
0.19588046 3.0959501 0.080725834 -0.3607174 -5.3210526 0.9611719 2.9839358 -0.25126323
0.033393715 2.483791 0.1686461 -0.37633765 -0.50689703 -10.416496 4.5423403 -2.496484
2.410407 0.8186155 0.0031691913 0.06690453 0.099428155 0.78065664 0.8418957 0.26774707
-2.5906892 -0.034986816 0.6703105 0.9280259 0.22643729 1.8207984 0.07490198 3.2900462
-0.035991702 -2.155158 -2.0503058 0.53556746 -12.938477 0.26796293 -0.42538673 -1.959222
-0.2610641 -5.5225625

f1_fc2.bias f4 [10]
00000000: a255 ef3e 0acf 99bc 83fd e5c0 8703 9f3e
00000010: 81c7 323d ea60 6cbf 07eb 95bf 3df3 2740
00000020: fd59 d340 0212 4d40
0.4674502 -0.018775482 -7.1871963 0.3105738 0.043647293 -0.9233538 -1.171235 2.624221
6.604735 3.204224

f1_fc3.weight f4 [5, 10]
00000000: b28c b1bf 5d99 8dbf df45 d6bd e4ab d1bf
00000010: 88e7 b5c0 536e 0ac1 63ed ad3f 4cb8 a4bf
00000020: 374d 0ec1 2912 15c0 7068 fbbe 6464 aebe
00000030: acf2 f7bf 744e bd3e c24c f8be c44a f7bd
00000040: 1c9b 583f 7f9d 5cbe b9ef a9bf ca1f 09bf
00000050: 2a3a 12bf 82d2 b4be c0f9 21bf 0aab a03e
00000060: d785 173d a949 3a3c fcb8 503e df1a 043c
00000070: 0c36 fabf 0ced 683f c249 37bf 131d 96bf
00000080: e5c4 20bf 3928 df3c 19fa 1bbf 6679 5d3e
00000090: 52bc 573e 4d0a 97bd a0b1 24c0 94f6 f53e
000000a0: 4c64 793e 1de7 9b3d 1e0c 93bf 9cfa e1bd
000000b0: 155c aa3e 1f21 6f3f 0b53 723b b6e8 60bf
000000c0: c341 b5bf e1da 053f
-1.3871062 -1.1062428 -0.104625456 -1.6380582 -5.684513 -8.651935 1.358807 -1.2868743
-8.893851 -2.3292334 -0.49103117 -0.34060967 -1.9370933 0.36973917 -0.48496062 -0.12074807
0.8461168 -0.21544455 -1.3276283 -0.5356413 -0.5712 -0.35316855 -0.63271713 0.31380492
0.036992874 0.011370101 0.20383066 0.008063047 -1.9547744 0.90986705 -0.7159692 -1.1727623
-0.6280044 0.02724086 -0.60928494 0.21628341 0.21067932 -0.073750116 -2.5733414 0.48039687
0.24354666 0.07612441 -1.1488073 -0.11034128 0.33273378 0.93409914 0.0036975767 -0.8785509
-1.4160694 0.5228711

f1_fc3.bias f4 [5]
00000000: f581 8540 00e5 ebbf c0be 37be 26ee 1c3e
00000010: 1b1b 85bf
4.172114 -1.842926 -0.17943859 0.15325221 -1.0398897

f1_fc4.weight f4 [1, 5]
00000000: 00bc 2cbf 6910 07bf 941b 4f3f 7d7a 8bbb
00000010: 863f 13bf
-0.67474365 -0.52759415 0.80901456 -0.004256545 -0.57518804

f2_fc1.weight f4 [5, 2]
00000000: 49eb d83e eada c7be cfbd ba3d 6cc9 ccbd
00000010: 08e2 5cbd 83e8 c13b c305 f83d cb41 b8bd
00000020: a768 283f 48f5 febe
0.42367008 -0.39034206 0.09118234 -0.09999356 -0.053926498 0.00591761 0.12110474 -0.08996924
0.65784687 -0.4979651

f2_fc1.bias f4 [5]
00000000: 50b6 99c1 82e0 6ac1 0e1a c740 629c 93c1
00000010: 175b bcbe
-19.21402 -14.6798115 6.2219305 -18.451359 -0.36788246

f2_fc2.weight f4 [10, 5]
00000000: 1ce1 cac1 f79b b3c1 91a2 3d41 f8f7 e4c1
00000010: 0e30 19c0 a517 873f 7052 893e f67a 413f
00000020: cabe 193e 2b2c bcbe 3158 d8be 93be 76c0
00000030: d6f7 d5be 0e59 1dc0 1ea5 323d dfae 803e
00000040: bfce 75bf d758 8ebf c9ac a43e 9ef0 0dbe
00000050: 862f 25bf fb12 0bc0 4273 0e3f 89f9 353c
00000060: 1e8a 633e 2ac6 a8be e8c5 aebe dbfe 563f
00000070: 5652 043e 3f94 143e 97f4 ccbf e3dd 8fc0
00000080: b3cd 98bf 12ed 86bd 2ac1 113f 2b4b 983c
00000090: fb2a 53c0 7d85 0d41 a102 24c0 ddd4 03bd
000000a0: cebc 23bf 22c0 adc0 5de4 d23f b4fe 83c0
000000b0: 182d d63d 6d5d 3340 565f 683f 1d83 3dbf
000000c0: 9eaf 15c0 3499 b3bf
-25.359917 -22.451155 11.852189 -28.621078 -2.393558 1.0554091 0.26820707 0.7557825
0.15014187 -0.36752447 -0.42254785 -3.8553817 -0.41790646 -2.4585605 0.0436145 0.25133416
-0.96018595 -1.1120862 0.32163075 -0.1386132 -0.6452564 -2.1730335 0.5564462 0.011106857
0.22220656 -0.32963687 -0.34135365 0.8398263 0.12922034 0.14509676 -1.6012143 -4.495836
-1.1937774 -0.06588186 0.5693537 0.01859053 -3.2994983 8.84509 -2.5626605 -0.032185424
-0.6395997 -5.4297037 1.6475941 -4.1248417 0.1045782 2.8025773 0.9077047 -0.7402819
-2.3388438 -1.4031129

f2_fc2.bias f4 [10]
00000000: 2580 cd41 efb8 9e3e b211 8140 6a61 413f
00000010: d575 1040 c5ee c03d 9b9c 8c40 8ac1 c23f
00000020: c19c ad40 c703 2a40
25.68757 0.31000468 4.03341 0.7553927 2.257192 0.09420542 4.394117 1.5215313
5.425385 2.6564806

f2_fc3.weight f4 [5, 10]
00000000: 05d8 a0bf b19f adbf 6e1e 803f 71c3 88bf
00000010: 8a70 983f 753c 483f 0352 52c0 315e b0bf
00000020: 83d5 5cc0 99aa b4bf 61c0 82be 5130 aebe
00000030: f263 8ebf a87a 9abf 596d db3f 6fb9 c43e
00000040: cdd7 a5bf 0475 a93f a5b8 2cc0 7af3 373c
00000050: d24b 97bd bbed 343d 9494 013f 0bb0 893f
00000060: b9a8 8abf d083 563e 0ec5 c6bd f4c5 2dbe
00000070: 3857 10c0 a0aa 0a3f 39d7 bfbf 1209 58bf
00000080: a505 8e3f c8f7 2fbf c2aa b1be 995d 013f
00000090: 0818 5dbf 6768 51be 2f32 f1bf ee1a b6bf
000000a0: d2c0 05be d9a8 353d 0b20 96bf cb6c 8d3f
000000b0: 7fab b0bf 13d8 4e3e a284 053d fcb0 f4be
000000c0: 46ea 973f f329 ae3e
-1.2565924 -1.3564359 1.0009286 -1.0684644 1.1909344 0.7821725 -3.2862556 -1.3778745
-3.4505317 -1.4114562 -0.25537398 -0.34021237 -1.1124251 -1.2068682 1.7142745 0.38422725
-1.2956482 1.3238835 -2.6987698 0.011227483 -0.073875085 0.04417203 0.5061734 1.0756849
-1.083274 0.2094872 -0.09705554 -0.16970044 -2.2553234 0.54166603 -1.4987556 -0.8438884
1.1095473 -0.6873746 -0.3470059 0.50533444 -0.86364794 -0.20449983 -1.884344 -1.4226968
-0.13061836 0.04435048 -1.1728529 1.1048826 -1.3802336 0.20199613 0.03259719 -0.47791278
1.186837 0.3401638

f2_fc3.bias f4 [5]
00000000: 7c98 9b3d a734 66bf a7d3 08bf 54f3 0e3e
00000010: 6135 d03e
0.075974435 -0.8992409 -0.53447956 0.1396001 0.40665725

f2_fc4.weight f4 [1, 5]
00000000: ed11 9fbf f02b fabe fecb 12bf 49a9 d53f
00000010: 1085 173f
-1.2427346 -0.48861647 -0.5734252 1.6692287 0.5918741

f3_fc1.weight f4 [5, 2]
00000000: e5bc 813d bb89 ef3e 680d 00b9 c2b5 02bc
00000010: aed2 093f 6f65 53be 3586 303f 7842 86be
00000020: b398 1e3d 328e 923e
0.06334857 0.46784768 -0.00012212025 -0.007977905 0.53837097 -0.20644163 0.68954784 -0.26222587
0.038719844 0.2862411

f3_fc1.bias f4 [5]
00000000: 4ebd 29be 4d88 d3bd 9bc0 38bf 596b c13e
00000010: c27b 883f
-0.1657612 -0.10328732 -0.7216889 0.37777212 1.0662768

f3_fc2.weight f4 [10, 5]
00000000: 70d1 4abe 384e e4be 5c59 893e 7b1a 783d
00000010: 364c 7fbe be4c 783c 2e0a 873f 9ad4 49bb
00000020: 684c f8bc c55c 223e 2ed0 463d 3227 12bf
00000030: 2e7b 50bd 5780 093d ef3c d9bc d4fb 2bbe
00000040: ee6b a4bf b10f 133e b110 fcbd 913c 853e
00000050: a0ac 47be b303 60bf 0e0e 80bc 0c77 903d
00000060: f607 a43e b1ff e93c 8eed 913c ab7d c5be
00000070: 0d34 933e 0da3 e53d d750 17be 2d2d 49be
00000080: 9d11 d9bd 7676 af3e 37e1 8d3e 720d 6a3e
00000090: ff95 2abf 05b1 c9bd daf3 393e 5e3b c4bd
000000a0: ddb7 293e cbc1 b6be eb5d b2bd fac0 573e
000000b0: ecdf 8bbe e4a5 26bd e438 133d 99ed e63d
000000c0: babc 9e3e 7103 353e
-0.19806457 -0.44590926 0.26825988 0.06057213 -0.24931416 0.0151550155 1.0549982 -0.0030796886
-0.03030987 0.15855701 0.04853838 -0.5709106 -0.050898723 0.03356966 -0.026518313 -0.16795284
-1.2845438 0.14361455 -0.12307871 0.2602277 -0.19499445 -0.87505645 -0.015631702 0.070539564
0.32037324 0.028564306 0.01781347 -0.3857244 0.2875065 0.1121274 -0.14776932 -0.1964614
-0.105990626 0.34270066 0.27710888 0.22856691 -0.66635126 -0.09848217 0.18159428 -0.09581636
0.16574045 -0.35694727 -0.0870932 0.21069708 -0.27319276 -0.04068555 0.035942927 0.11275787
0.31003362 0.17677094

f3_fc2.bias f4 [10]
00000000: 8278 e63e 77ae ae3a a13e f63e 0fe9 273f
00000010: f0dc 853f 9c5e 233e 4815 23be 6b58 d0be
00000020: 5f64 9ebe b97e afbe
0.45013815 0.0013327141 0.48094657 0.65589994 1.045805 0.1595406 -0.15926087 -0.40692458
-0.30935952 -0.3427637

f3_fc3.weight f4 [5, 10]
00000000: bc15 24bc 5521 e6bd cc8a 96be ce3a 9a3e
00000010: 2ae2 21bf 5b00 a33b 3c8c 9e3b 9708 0d3e
00000020: 2cc7 7e3c a4e7 2e3d 6e5c d2bc 1b7f 88bc
00000030: ee88 273e 3315 f83d 8241 e03d c7e7 9ebe
00000040: 33d4 9d3d 6598 263e cdc3 86be ca9c 333c
00000050: bd55 92bf cae4 043e 4abc 2b3e 5003 363e
00000060: bcea d7be 0bea 18bd 5caf 83bf 6a23 ac3d
00000070: 19e5 1fc0 7a1f f9be ea59 053d 2d11 9b3d
00000080: 1c12 843e 500c 69be d966 283f 788f 473d
00000090: 6f84 183e bc24 32be f1a9 c6be 1d55 dfbc
000000a0: 3d7a ffbb 07af ad3c 0792 1f3e 71f4 06bf
000000b0: c4be 93bd 563f bfbd 6594 9e3e 2b1c ceba
000000c0: 7e10 49be 41d2 0fbe
-0.0100149475 -0.11236826 -0.2940277 0.3012299 -0.63235724 0.0049744076 0.0048384946 0.13772808
0.015550416 0.04270138 -0.02567884 -0.016662171 0.16360828 0.121134184 0.109499946 -0.31036207
0.077064894 0.16269071 -0.2632126 0.010962674 -1.1432415 0.12977901 0.16771045 0.17774701
-0.42171276 -0.037332576 -1.028789 0.08405192 -2.498358 -0.48656827 0.03255645 0.075716354
0.25795066 -0.22758603 0.65781933 0.048720807 0.1489427 -0.17396826 -0.3880153 -0.027262265
-0.0077965544 0.021201624 0.15583049 -0.5271674 -0.0721412 -0.09338252 0.3097259 -0.0015724947
-0.19635198 -0.14045049

f3_fc3.bias f4 [5]
00000000: 8dcc 113f 38b5 503e be64 e9bd c457 d63e
00000010: 9eea 2dbe
0.56952745 0.2038163 -0.11396168 0.41863835 -0.1698403

f3_fc4.weight f4 [1, 5]
00000000: 1833 92be 4298 5cbe 4947 d9bb 6246 85be
00000010: 2964 9fbe
-0.28554606 -0.21542457 -0.0066308123 -0.2603026 -0.31131104
