data/Crossing_waves/Poly/seed=35/Crossing_waves.pth (torch, 8696 bytes, 14 tensors)

f1_fc1.weight f4 [5, 2]
0	0xbc7f6907	-0.015589005
1	0xbe1a5400	-0.15071106
2	0x3e8344b5	0.25638357
3	0xbf237655	-0.63852435
4	0x3b8d290b	0.004307871
5	0x3ecae9ee	0.396316
6	0xbcce827d	-0.025208706
7	0xbed044f9	-0.40677622
8	0xbda2e0f6	-0.07953064
9	0xbfd9948f	-1.6998461

f1_fc1.bias f4 [5]
0	0x3f12e189	0.5737539
1	0xc1fcd612	-31.604527
2	0xc0cda157	-6.425945
3	0x405fa20d	3.4942658
4	0x414f3c23	12.952182

f1_fc2.weight f4 [10, 5]
0	0xc073ff83	-3.8124702
1	0xbf0b4f0b	-0.54417485
2	0xc006b80b	-2.104983
3	0xbdf5cfab	-0.120025
4	0x3f2c5fab	0.6733348
5	0x3f512531	0.81697375
6	0x3efa94dc	0.48941696
7	0x403450a4	2.817422
8	0x401dd6bb	2.466231
9	0xbf63bd15	-0.8896039
10	0x3f04c65e	0.51865184
11	0x3e308f31	0.17242123
12	0xc000b54f	-2.0110662
13	0x3d6f09b4	0.058358863
14	0xbf39e2e4	-0.7261183
15	0x40c757c1	6.229462
16	0xbfe8d1d2	-1.8189032
17	0x411f3bd4	9.952106
18	0x40890eeb	4.283071
19	0xc01b65c4	-2.4280863
20	0xbf337cc2	-0.7011224
21	0xbeb01d26	-0.34397238
22	0xbf96adf1	-1.1771833
23	0xbfd01c23	-1.6258587
24	0x3f3a7030	0.72827435
25	0x3f3ea4fb	0.7447049
26	0x3e5ab663	0.21358638
27	0xbfa2f59e	-1.2731206
28	0x3e7bfa7c	0.24607271
29	0xbcf9f167	-0.030510617
30	0x3e327347	0.17426787
31	0x3ecb736c	0.39736497
32	0x3f660651	0.8985339
33	0x3f74fa9b	0.95694894
34	0xbf025799	-0.50914913
35	0x410481c7	8.281684
36	0x3f172a02	0.59048474
37	0xbfce946e	-1.6139047
38	0xc064941e	-3.5715404
39	0x3da28549	0.079355784
40	0xbf7cd2a7	-0.9875893
41	0xbd178b24	-0.03699793
42	0xbfb42228	-1.4072924
43	0xbf05448c	-0.5205772
44	0x3f421a02	0.75820935
45	0x3f30df7f	0.6909103
46	0x3e8d13f6	0.2755429
47	0x3e6ee970	0.23331237
48	0x3f604e15	0.87619144
49	0x3f8ac1a0	1.084034

f1_fc2.bias f4 [10]
0	0x40036205	2.0528576
1	0xbfed9522	-1.8561137
2	0x3fa8785e	1.3161733
3	0xc0dfb173	-6.9904113
4	0x3f673f3f	0.9033088
5	0x3e52c791	0.20583941
6	0x3e206c71	0.15666367
7	0xc08f6082	-4.4805307
8	0x3f9cd1ab	1.2251486
9	0xbedcd12a	-0.4312833

f1_fc3.weight f4 [5, 10]
0	0xbe02415a	-0.12720242
1	0xc082d962	-4.089036
2	0x3ea71602	0.32633978
3	0x3f2caad2	0.6744815
4	0xbdcdf143	-0.10055783
5	0xbdcd93a2	-0.10037924
6	0xbeaab0a4	-0.3333789
7	0x3fc08834	1.5041566
8	0x3e125811	0.14291407
9	0x3e70ab10	0.23502755
10	0x3ee894dd	0.45426074
11	0xbf9b9c51	-1.2157079
12	0x3d97414b	0.073855005
13	0x3eeca309	0.46218136
14	0xc020a026	-2.5097747
15	0x3a8ccff2	0.0010743125
16	0xbcbceb1c	-0.023061328
17	0xbc74e058	-0.014946066
18	0xbf230e89	-0.63694054
19	0x3ece57e1	0.4030142
20	0xbf0d504c	-0.5520065
21	0x3f0fcbb7	0.5617022
22	0x3ee65959	0.44990042
23	0x3d594542	0.053044565
24	0xbfee5c3a	-1.8621895
25	0x3dcb28f3	0.0991992
26	0x3eb87a49	0.36030796
27	0x3e6257d1	0.22103812
28	0xbfbe79f6	-1.488097
29	0x3f53ce3b	0.8273656
30	0xbd0aff29	-0.033934746
31	0x3fccc21d	1.5996739
32	0x3eba2ff2	0.36364704
33	0xbf50330f	-0.8132791
34	0x3e4272e1	0.18989135
35	0x3e3c485e	0.18386981
36	0xbeba5dea	-0.36399776
37	0x3eab5074	0.33459818
38	0xbca1bba9	-0.019742804
39	0x3e3a7f90	0.18212724
40	0xbe3d152a	-0.18465105
41	0xbfc1ad20	-1.5130959
42	0x3f14c07d	0.58106214
43	0xbdd7e8e5	-0.10542468
44	0x3e4161d9	0.18884982
45	0xc02bc9ea	-2.6841989
46	0xbe4ca678	-0.19985378
47	0xc02c68c0	-2.6938934
48	0x3edcb84a	0.4310935
49	0x3e3139d2	0.17307213

f1_fc3.bias f4 [5]
0	0xbf419b65	-0.7562774
1	0xbeded43a	-0.4352129
2	0xbe52cded	-0.20586367
3	0xbda6c2fb	-0.08142658
4	0x3ead19b0	0.3380866

f1_fc4.weight f4 [1, 5]
0	0x3f036f95	0.51342136
1	0x3f4a3195	0.78981906
2	0x3f2a8163	0.6660368
3	0xbf206c73	-0.6266548
4	0x3db6940d	0.08914957

f2_fc1.weight f4 [5, 2]
0	0x3d7fa1fb	0.062410336
1	0x3e5ba4fe	0.21449658
2	0x3e0a6cf1	0.1351812
3	0x4067e933	3.6236084
4	0x3be72a0c	0.007054573
5	0xbf0c227c	-0.5474012
6	0x3d87cb3b	0.0663056
7	0x3fe428cc	1.782495
8	0x3ddeaa58	0.10872334
9	0xbee040e0	-0.43799496

f2_fc1.bias f4 [5]
0	0xc0a85661	-5.2605443
1	0xc1e063c4	-28.048714
2	0xc0963f76	-4.6952467
3	0x40bdfc60	5.9370575
4	0xbfb0b97e	-1.3806608

f2_fc2.weight f4 [10, 5]
0	0xbf6736db	-0.9031808
1	0xbf8400b8	-1.0312719
2	0xc0bf800f	-5.984382
3	0x3e3762f4	0.17908841
4	0xbed3c2e5	-0.4135963
5	0x3ee873c4	0.45400822
6	0x3ece5e90	0.4030652
7	0x408ec1ba	4.4611483
8	0x3ee093f7	0.43862888
9	0xbe6e8df8	-0.23296344
10	0xbd92c63c	-0.071667165
11	0xbf1ee0a6	-0.62061536
12	0x40089858	2.1342983
13	0x3ec0b9fe	0.376419
14	0x3f092b50	0.53581715
15	0x3e4297a4	0.19003159
16	0xbea8316b	-0.32850203
17	0x3ea1781f	0.31536958
18	0xbd29c85d	-0.041450847
19	0x3ece7347	0.40322325
20	0x3e2da0d5	0.16955884
21	0xbd19afaf	-0.03752106
22	0xc0855bb9	-4.1674466
23	0xbee6c422	-0.45071512
24	0x3ef4c99e	0.47810072
25	0xbf08bb32	-0.5341064
26	0xc0f293ee	-7.580558
27	0xbf923999	-1.1423827
28	0x3ea6da0a	0.32588226
29	0xbe6fc25d	-0.23413987
30	0x3fb24db0	1.3929958
31	0x3fa427d5	1.2824656
32	0xbe4390b7	-0.19098173
33	0xbef15051	-0.4713159
34	0xbe6765a2	-0.22597364
35	0x3fb04e17	1.3773831
36	0x3e6f5e78	0.2337588
37	0xc0f1a42e	-7.5512915
38	0xbebae860	-0.36505413
39	0xbfa6e7f7	-1.303954
40	0xbedd5576	-0.43229264
41	0xbf0b647a	-0.5445019
42	0xbfd547b4	-1.6662507
43	0x3e133190	0.14374375
44	0xbe3302d7	-0.17481552
45	0x3eb0754d	0.34464493
46	0x3eda1021	0.4259043
47	0xbfceb3b2	-1.6148589
48	0xbe501649	-0.20321001
49	0x3e5a6c69	0.21330418

f2_fc2.bias f4 [10]
0	0x40a96914	5.294077
1	0xbf75de73	-0.96042556
2	0x3fe57b2e	1.7928216
3	0x3f14a699	0.5806671
4	0x3eb335d7	0.35002014
5	0xc075e938	-3.8423595
6	0xc081e93a	-4.05972
7	0x40354612	2.8324018
8	0x3fcaac0f	1.5833758
9	0x4033fff9	2.8124983

f2_fc3.weight f4 [5, 10]
0	0x4030e469	2.763941
1	0x3eab04d4	0.3340212
2	0xbef446e3	-0.47710332
3	0xbe3d670b	-0.18496339
4	0x3f13aee8	0.5768876
5	0x3fd2ae29	1.64594
6	0xbef6e1c3	-0.48219118
7	0xbeacd7d5	-0.33758417
8	0xbfb74f0c	-1.4320998
9	0xbe228e2b	-0.15874545
10	0x3eba9487	0.36441442
11	0x3ec88360	0.3916273
12	0x3e83de44	0.25755513
13	0xbed22a42	-0.41047865
14	0xbe3a7aec	-0.18210953
15	0xbf539b62	-0.8265897
16	0xbe3fc94d	-0.18729134
17	0xbdb114c4	-0.08646539
18	0xbc486f97	-0.012233636
19	0x3dab9be6	0.08379345
20	0xc0460dd5	-3.0945942
21	0xbf0d5ff0	-0.55224514
22	0x3d732cc3	0.05936886
23	0x3d880e9e	0.06643413
24	0x3e91c7ee	0.28472847
25	0xbd113a6a	-0.0354561
26	0x3ebed66e	0.37272972
27	0xbf46cbd8	-0.7765479
28	0xc006fb5f	-2.1090925
29	0xbe8efc84	-0.2792703
30	0xbf28e920	-0.6598072
31	0xbd8fe559	-0.070261665
32	0xbe35c99a	-0.17752686
33	0x3e8f2a5a	0.27962
34	0xbe67c79f	-0.22634743
35	0x3e589b55	0.21153004
36	0xbdb98a7f	-0.09059619
37	0xbd1db5ec	-0.038503572
38	0x40157517	2.3352716
39	0x3e9311db	0.2872456
40	0x3fde574a	1.7370389
41	0x3e86ec68	0.2635224
42	0xbf19935a	-0.59990466
43	0xbe339bea	-0.17539945
44	0x3f34484b	0.7042281
45	0x3fce2b4f	1.6106967
46	0xbec93844	-0.3930074
47	0xbe86eb72	-0.26351506
48	0x3d2247c5	0.039619226
49	0x3ec637b1	0.38714364

f2_fc3.bias f4 [5]
0	0x3e4bcf1f	0.19903229
1	0x3e217793	0.1576827
2	0xbe7d8a8b	-0.24759881
3	0x3f957ed1	1.1679326
4	0x3f32f596	0.69905984

f2_fc4.weight f4 [1, 5]
0	0x3f335df8	0.7006526
1	0xbe85164d	-0.25993577
2	0xbe65ca9f	-0.22440575
3	0xbeffedb9	-0.49986055
4	0xbf48c039	-0.7841831
