data/Wildfire/Poly/seed=160/Wildfire.pth (torch, 10080 bytes, 21 tensors)

f1_fc1.weight f4 [5, 2]
0	0x3d9e3a48	0.0772596
1	0x3ff9a68b	1.950395
2	0x3df48f41	0.11941386
3	0xbbd454d1	-0.0064798375
4	0xbd95ffb7	-0.07324164
5	0x3e672d20	0.22575808
6	0x3e38ac19	0.180344
7	0x3ee848de	0.45368093
8	0x3de2ea6e	0.1107987
9	0xbe32318c	-0.17401713

f1_fc1.bias f4 [5]
0	0xc13b6464	-11.712009
1	0xbfc59c9d	-1.543842
2	0x40f959d3	7.792215
3	0xbf3bfb13	-0.73429984
4	0xc14be72b	-12.7439375

f1_fc2.weight f4 [10, 5]
0	0x3e9c8579	0.30570582
1	0xbddecb0e	-0.10878573
2	0x40130548	2.2971973
3	0xbe942ab3	-0.28938827
4	0xbea49716	-0.3214652
5	0xbef08b6f	-0.4698138
6	0x3e65d569	0.22444691
7	0x40d10475	6.531794
8	0x3d4129f9	0.04715917
9	0xbf8a6587	-1.0812234
10	0x3da12d28	0.07869941
11	0xbf242483	-0.6411821
12	0xc0a38291	-5.1096883
13	0x3f7c2567	0.9849457
14	0x40903804	4.506838
15	0xbdf860d2	-0.12127842
16	0xbe07cc70	-0.1326158
17	0x3fb61128	1.4223986
18	0x3dc28e5f	0.094998114
19	0xbf3d2d11	-0.7389689
20	0x3eefac98	0.46811366
21	0xbecbf9b5	-0.3983895
22	0xc158e887	-13.556769
23	0xbe51b547	-0.20479308
24	0x3e9e2953	0.30890903
25	0x3f50c6e7	0.815535
26	0x3e367d60	0.17821264
27	0xbe0f42c0	-0.13990307
28	0x3dea9a6f	0.11455237
29	0x405166aa	3.271891
30	0x3f5f64bf	0.872631
31	0x3f695505	0.91145355
32	0xc0316123	-2.7715538
33	0x3c91dd20	0.017805636
34	0x3b8e8932	0.004349851
35	0x3f71b2a8	0.9441323
36	0x3e9f963c	0.31169307
37	0x3ff84e55	1.9398905
38	0x3daa97ac	0.0832971
39	0x4041207d	3.017608
40	0xbf6e6235	-0.931186
41	0xc069bcb1	-3.6521418
42	0x4136bc99	11.421044
43	0x3f91f969	1.1404239
44	0xc1220312	-10.12575
45	0x3e832ccc	0.25620115
46	0xbf20e39e	-0.62847316
47	0xc00562b9	-2.0841506
48	0xbe826c08	-0.25473046
49	0xc0bdf5cc	-5.9362545

f1_fc2.bias f4 [10]
0	0x3ed0ff62	0.40819842
1	0x402f7277	2.7413614
2	0xc0e36e39	-7.107205
3	0x3ee03e11	0.43797353
4	0x40077a51	2.1168406
5	0xbfad4318	-1.35361
6	0xbfaa705e	-1.3315542
7	0x4029799c	2.6480474
8	0x413392f1	11.223374
9	0x406ef706	3.733827

f1_fc3.weight f4 [5, 10]
0	0xbdeea02f	-0.11651646
1	0xc0107344	-2.2570353
2	0xbec6dacc	-0.38838804
3	0xbfe8dd47	-1.8192528
4	0xc0b35c7f	-5.605041
5	0xc1204d2a	-10.018839
6	0xbfb222ca	-1.3916867
7	0xc00f5be2	-2.239983
8	0xc10cf6b5	-8.810231
9	0xbff869b0	-1.9407253
10	0xbeab041d	-0.33401576
11	0xbffed969	-1.9910098
12	0xbf65704f	-0.89624494
13	0x3e9c8cfe	0.30576319
14	0xbf6642ac	-0.89945483
15	0xbe257f7e	-0.16161916
16	0x3f1c8386	0.6113819
17	0xbe155023	-0.14581351
18	0xbfdce265	-1.725659
19	0xc004c54e	-2.0745425
20	0xbf14f240	-0.58182144
21	0xbfb4be7d	-1.4120632
22	0xbf28d0ce	-0.6594361
23	0x3f1ee59d	0.6206911
24	0xbdbaceb0	-0.09121454
25	0x3d0941d4	0.033510044
26	0x3e745c33	0.23863296
27	0x3cc9fb6e	0.024656024
28	0xc006c9ce	-2.1060672
29	0x3f4246a1	0.7588902
30	0xbf3c22d3	-0.7349064
31	0xc0063f7d	-2.097625
32	0xbf5c62ec	-0.8608844
33	0xbefc55b2	-0.4928413
34	0xbeef587a	-0.4674719
35	0x3e47f4b6	0.19526944
36	0x3e736b4a	0.23771396
37	0xbd1fff23	-0.039061677
38	0xc0184e4a	-2.3797784
39	0xbe36f800	-0.17868042
40	0x3d06c6dc	0.03290449
41	0x3da3decb	0.08001479
42	0xbe9551b0	-0.29163885
43	0xbede01aa	-0.43360645
44	0xbeaf31a8	-0.34217572
45	0x3f79f08a	0.9763266
46	0x3e10f2b4	0.14155084
47	0xbf59e000	-0.8510742
48	0xbff86d95	-1.9408442
49	0x3f8f380b	1.1188978

f1_fc3.bias f4 [5]
0	0x407b7d0d	3.9295075
1	0xbfb6276a	-1.4230778
2	0xbd15884c	-0.036506936
3	0xbc7be50b	-0.015374432
4	0xbf08e2ca	-0.5347105

f1_fc4.weight f4 [1, 5]
0	0xbf230410	-0.63678074
1	0xbe96f664	-0.29484856
2	0x3f136a9d	0.57584554
3	0xbddb7d7a	-0.10717292
4	0xbf0c2fb5	-0.54760295

f2_fc1.weight f4 [5, 2]
0	0x3e1583a5	0.14601
1	0xbbb594b3	-0.005541408
2	0x3da53aa0	0.080678225
3	0x3eb42dcf	0.351912
4	0xbca13a55	-0.019681135
5	0xbe4e40c1	-0.20141889
6	0xbaef93b8	-0.0018278277
7	0x3fb3a0fd	1.4033505
8	0x3d915773	0.07096758
9	0xbd8221e1	-0.06354118

f2_fc1.bias f4 [5]
0	0xc1967e65	-18.811716
1	0xc172bcf2	-15.171129
2	0x3f914b71	1.1351148
3	0xc18d366f	-17.651579
4	0xc0d2065b	-6.563276

f2_fc2.weight f4 [10, 5]
0	0x40074661	2.1136706
1	0x40a31b5e	5.0970907
2	0xbf51f659	-0.8201652
3	0xbfaef493	-1.3668388
4	0xbf689967	-0.90859073
5	0x3f2c3405	0.67266876
6	0x3e37626e	0.17908642
7	0xbf7ff737	-0.99986595
8	0xbd533724	-0.051566258
9	0x3e52ec75	0.20598014
10	0xc04ad094	-3.1689806
11	0xbf1fd2d5	-0.6243108
12	0x3f106a1f	0.5641193
13	0xc0ae7178	-5.451351
14	0xbf6a106c	-0.9143131
15	0x3f8580e0	1.0429955
16	0xbef7811b	-0.48340687
17	0x3efbfa3f	0.4921436
18	0x3e1008f8	0.14065921
19	0x3cc224ff	0.023699282
20	0xbeb56e99	-0.35435942
21	0xbf838359	-1.0274459
22	0x4041a519	3.0257018
23	0xbf39098f	-0.7228021
24	0xbfcfc538	-1.6232061
25	0x401140c4	2.269578
26	0xbf8b85ba	-1.0900185
27	0x3f13f9a6	0.5780281
28	0x3e57d670	0.21077895
29	0xbf858e9c	-1.0434146
30	0xbffbf213	-1.968325
31	0xc06bc2be	-3.6837611
32	0x40394dc7	2.8953722
33	0xbf521fd1	-0.820798
34	0xbfd1df80	-1.6396332
35	0x40c2e563	6.0905013
36	0xc06d0e12	-3.7039838
37	0xbf9a0f08	-1.2035837
38	0xc0176eff	-2.3661497
39	0xbeaf0666	-0.3418457
40	0xc0822256	-4.0666914
41	0xc08036c2	-4.0066843
42	0x40afc0f2	5.492303
43	0xc029667b	-2.64688
44	0xc03f9a71	-2.9938014
45	0xc05d787e	-3.4604793
46	0xbfc114f4	-1.5084519
47	0x4112539c	9.145412
48	0xc0a80d87	-5.2516513
49	0xc0e8aa63	-7.270799

f2_fc2.bias f4 [10]
0	0xbfc844bc	-1.5645976
1	0x40017743	2.0229042
2	0x3f727fee	0.94726455
3	0x3f283c9c	0.6571748
4	0x4096d6e7	4.713733
5	0x3ca7fabb	0.0205053
6	0x3ffae625	1.9601485
7	0x405c3b76	3.4411292
8	0xbf928304	-1.1446233
9	0x40d61f6e	6.6913366

f2_fc3.weight f4 [5, 10]
0	0x3f0a2ca4	0.53974366
1	0xbf9cee15	-1.2260157
2	0x3f39ef77	0.7263102
3	0xbffcc906	-1.9748847
4	0xbf8b9ca8	-1.0907183
5	0xbf2d5dde	-0.67721355
6	0x3ac110a8	0.0014729695
7	0xbf235c82	-0.6381303
8	0xc01293e4	-2.2902765
9	0xbf07f752	-0.53111756
10	0xbf8d66fc	-1.1047053
11	0xbfb225b7	-1.391776
12	0x3da23049	0.07919366
13	0xc055908e	-3.336948
14	0x40830937	4.094875
15	0xbf85db4f	-1.0457553
16	0xc059466f	-3.394924
17	0x3e4a4e2a	0.1975638
18	0xc059b981	-3.4019473
19	0x3eea7e5d	0.45799533
20	0xbdd961ac	-0.106143326
21	0xbda48baa	-0.08034451
22	0x3f064615	0.52450687
23	0x3f86a476	1.051894
24	0xbf753ac3	-0.9579279
25	0x3e530972	0.20609072
26	0xbec333b1	-0.38125375
27	0xbea3cb78	-0.31991172
28	0xc011114d	-2.266681
29	0x3f0b1a42	0.5433694
30	0xbee919b4	-0.45527422
31	0xbf37cd4d	-0.7179764
32	0x3e18c9e8	0.14920771
33	0xbff0af34	-1.8803468
34	0x3f1f2591	0.62166697
35	0xbf31d12d	-0.694598
36	0xbf7a5447	-0.9778485
37	0x3e00e822	0.12588552
38	0xc001d4e3	-2.0286186
39	0xbe5ecf28	-0.21758711
40	0xbddc6f5c	-0.107634276
41	0xbda6f0b1	-0.08151377
42	0xbfa5074a	-1.289285
43	0x3f889d01	1.0672914
44	0xbfe57d26	-1.7928817
45	0x3e55c056	0.20874152
46	0x3d2dfd89	0.042478118
47	0xbea6383d	-0.3246478
48	0x3f896e80	1.0736847
49	0x3ea9960c	0.3312229

f2_fc3.bias f4 [5]
0	0xbf2b4d75	-0.66915065
1	0xbe1772b6	-0.14789852
2	0xbf07d372	-0.53057015
3	0xbf9cac6b	-1.2240118
4	0x3ed66d98	0.41880488

f2_fc4.weight f4 [1, 5]
0	0xbf9d5775	-1.2292315
1	0xbeedf8fb	-0.4647902
2	0xbf1b669d	-0.6070345
3	0x3fd4e287	1.6631631
4	0x3f19222e	0.5981778

f3_fc1.weight f4 [5, 2]
0	0xbbd08b49	-0.0063642603
1	0xbab3e1cd	-0.001372391
2	0xbeab0d81	-0.3340874
3	0x3f08caf0	0.5343466
4	0xbc768651	-0.015046672
5	0xba46a08a	-0.0007577023
6	0x3ee9aee9	0.45641258
7	0x3f039bdc	0.514097
8	0xbf0d6044	-0.55225015
9	0x3e89a738	0.2688539

f3_fc1.bias f4 [5]
0	0x3f6d2e5f	0.9264888
1	0x3f70c549	0.94051033
2	0x403c3313	2.9406173
3	0x3f569fad	0.83837396
4	0x3f47135f	0.7776393

f3_fc2.weight f4 [10, 5]
0	0xbf1feb90	-0.62468815
1	0xbcbc4940	-0.022984147
2	0xbec8b287	-0.39198706
3	0x3b3973f6	0.0028297878
4	0xbf4ff9f3	-0.8124077
5	0xc00c957c	-2.1966238
6	0x3e248858	0.16067636
7	0xc006eb3c	-2.1081076
8	0xbddaca67	-0.106831364
9	0xbf48a372	-0.783744
10	0x3e07c772	0.13259676
11	0xbeee6bb7	-0.46566555
12	0xbf063e0c	-0.52438426
13	0x3e6dce90	0.23223329
14	0xbd2636a4	-0.040579453
15	0xbf0beb2a	-0.54655707
16	0xbce921f0	-0.028458565
17	0xbec17631	-0.37785485
18	0x3c02a06e	0.00797282
19	0xbf2929a0	-0.6607914
20	0x3df09bc4	0.1174846
21	0xbe3a0da7	-0.1816927
22	0xbc7df74d	-0.015500856
23	0x3eafe13f	0.34351537
24	0xbe8aebb9	-0.27132967
25	0xbf0e54ae	-0.5559796
26	0xbea73495	-0.32657304
27	0x3e830bff	0.2559509
28	0x3e12bee4	0.14330631
29	0x3ed9fc38	0.4257524
30	0xbe8f7b56	-0.28023785
31	0xbe37b1db	-0.1793894
32	0x3e91df38	0.28490615
33	0x3d8e727a	0.069554284
34	0x3e8e075d	0.27739993
35	0xbe95bc2e	-0.29245132
36	0x3e929139	0.2862642
37	0xbd509a00	-0.050928116
38	0x3e877bed	0.26461735
39	0xbd80cf2c	-0.06289515
40	0xbe9200b6	-0.28516167
41	0x3e3f4d37	0.18681799
42	0x3d0a524f	0.0337699
43	0x3e7d85ce	0.24758074
44	0x3ed801f3	0.42188987
45	0x3dedd9de	0.116138205
46	0xbe0982be	-0.1342878
47	0x3ecb676c	0.39727342
48	0x3d8c285e	0.06843637
49	0x3c7d98e7	0.015478349

f3_fc2.bias f4 [10]
0	0x3f38e3db	0.7222268
1	0x3feb89ae	1.8401392
2	0x3dd4994b	0.10380801
3	0x3f51b9cb	0.8192412
4	0x3da2dad3	0.07951894
5	0x3ee502fb	0.44728836
6	0x3eac4614	0.33647215
7	0xbde2e29f	-0.11078381
8	0xbbecb620	-0.0072238594
9	0xbf72f542	-0.94905484

f3_fc3.weight f4 [5, 10]
0	0x3e288acb	0.16459195
1	0xbe89a9e8	-0.2688744
2	0xbe46c187	-0.19409762
3	0x3e608af5	0.21928008
4	0x3e0d02c2	0.13770583
5	0x3e7bbf57	0.24584709
6	0xbde7fb3f	-0.11327218
7	0x3e936406	0.2878725
8	0x3e186bd4	0.14884883
9	0x3ea1bf7f	0.31591412
10	0xbe6962ab	-0.22791545
11	0x3c77f549	0.015134164
12	0xbc388bf8	-0.01126384
13	0x3f61908e	0.881112
14	0x3d6b6a6c	0.05747454
15	0x3e27ac18	0.16374242
16	0xbe7f0d5d	-0.24907441
17	0x3d7e6a44	0.06211306
18	0xbe03e5d4	-0.12880641
19	0x3e809ad6	0.2511813
20	0xbebe34e0	-0.37149715
21	0x3ececc7e	0.4039039
22	0xbe2c26d9	-0.16811694
23	0x3e7e11d4	0.24811488
24	0x3e2939e3	0.16525988
25	0xbe16c83a	-0.14724818
26	0xbc99f3d5	-0.018793026
27	0xbd3374d6	-0.043812595
28	0x3e9528c1	0.29132655
29	0xbdbc6b09	-0.09200103
30	0xbeec66a7	-0.46172068
31	0x3e752f1c	0.23943752
32	0xbdc3372c	-0.095320076
33	0x3d8bbbc0	0.0682292
34	0x3c0e88fc	0.008699652
35	0xbeafabb2	-0.3431068
36	0x3d63a3bb	0.055576067
37	0x3e9105f4	0.28324854
38	0xbb4476f6	-0.0029978133
39	0x3e602ae5	0.21891363
40	0x3e78fb32	0.24314573
41	0xbebbdaec	-0.36690462
42	0xbe1c3512	-0.1525462
43	0xbe168014	-0.14697295
44	0x3dcbc9d6	0.099506065
45	0xbe3c6958	-0.1839956
46	0xbeb9d26b	-0.3629335
47	0x3e20ab71	0.156904
48	0x3ea0bab9	0.31392458
49	0x3d6d6fc8	0.05796793

f3_fc3.bias f4 [5]
0	0x3d818c25	0.063255586
1	0xbe7a40d7	-0.24438797
2	0xbdd27f57	-0.102781944
3	0xbcfbc89a	-0.030735303
4	0x3eba1a1c	0.36348045

f3_fc4.weight f4 [1, 5]
0	0x3de16511	0.11005605
1	0xbe867e6a	-0.2626832
2	0xbecfb85f	-0.4057035
3	0xbd0d8e3a	-0.034559466
4	0x3e2486bc	0.16067022
