data/Wildfire/Poly/seed=155/Wildfire.pth (torch, 10080 bytes, 21 tensors)

f1_fc1.weight f4 [5, 2]
00000000: 7bb7 283e 8b55 0240 a071 9bbb b8f7 b4bc
00000010: 983c 38bd 4231 663e ef2e 263e 9f98 da3e
00000020: 31f1 3abb 2a76 a9bc
0.16476242 2.0364711 -0.0047437698 -0.022090778 -0.04497966 0.22479728 0.16228841 0.42694566
-0.002852511 -0.020686228

f1_fc1.bias f4 [5]
00000000: ca2e 37c1 4fa6 e93f 50ac 0041 29e7 79bf
00000010: 26ab 1ac0
-11.448923 1.8253878 8.0420685 -0.9761835 -2.416696

f1_fc2.weight f4 [10, 5]
00000000: 4afa 9d3e b784 133f aa95 1840 136d 70be
00000010: 1189 d6be 3eb0 9ebe f942 49ba 5151 a840
00000020: 8aae 86be 16fc 2c40 1491 b13d d5c2 a1be
00000030: 755f a1c0 139d 7d3f c05b 4140 1640 67be
00000040: fd58 aebe 6e20 0640 e13f 423e b9e6 4040
00000050: 4967 5d3e 6728 d63f b9be 643f 31bf 85bf
00000060: 05f9 7e3f 7ba7 5b3f f838 753d 0f88 a8bd
00000070: 05f6 0b3e 0726 0e3f 7be4 5e3f 4827 973e
00000080: 8808 34c0 774f 4bbd 6e69 223f cb04 643f
00000090: 207c 743e 181e 0040 e6e7 f33c d179 5340
000000a0: 8c49 8b3c ba31 b5bf 7d61 5440 6d59 bcbf
000000b0: ce88 5ec1 2742 943e 2826 19be b36f 0dc0
000000c0: 6daf 8dbe 7e4a aac0
0.30855018 0.5762438 2.3841348 -0.23479109 -0.41901448 -0.30993837 -0.0007677521 5.2599263
-0.26305038 2.702886 0.086702496 -0.31593958 -5.0429025 0.990678 3.021225 -0.2258304
-0.34052268 2.0957294 0.1896968 3.0140822 0.21621431 1.673108 0.8935352 -1.0448972
0.99598724 0.8580243 0.059868783 -0.08229076 0.13668068 0.55526775 0.87067384 0.29522157
-2.8130207 -0.04963633 0.6344212 0.89069813 0.23875475 2.0018368 0.029773664 3.30431
0.017002843 -1.41558 3.3184502 -1.471479 -13.9084 0.2895672 -0.14955962 -2.2099426
-0.27672902 -5.3215933

f1_fc2.bias f4 [10]
00000000: 6e4e 013f c151 83be 83c9 e6c0 f813 06c0
00000010: 4675 c23f 0cbf 3cbf db0f 8fbf 2656 2840
00000020: 2a37 e840 ea39 4040
0.505103 -0.2564831 -7.2120986 -2.0949688 1.5192039 -0.73729014 -1.1176714 2.630258
7.256734 3.0035348

f1_fc3.weight f4 [5, 10]
00000000: 9355 e83e 4d27 7cbf 30f7 88c0 85f0 9bbf
00000010: f291 8ac0 749b 5fc0 62da e83f f5f6 c43f
00000020: 41eb f8bf 5bd6 aa3f dfbf 19bf dc33 4e3e
00000030: 7075 dabf 8872 da3e 50c7 a6bf 2db9 163d
00000040: 538c 5fbd 37b2 883d 4d9f 90be 9e37 4340
00000050: 2cd7 0cbf 9b4a 473e 784e eabe 813d c53e
00000060: d701 783e 43a9 6c3c 9440 683e 3bde 113d
00000070: 6123 e2bf 130b 233f 939a 49bf a9f5 abbf
00000080: 58d7 1bbf f7ac d83e fca4 93bd a93b 713e
00000090: f3f1 963e 882b c4bd bd04 01c0 468e 083f
000000a0: 6637 aebd e35d eabf ba21 e0bf 0194 2b3e
000000b0: 307f c3be f704 6a3f 68ae 963e c686 79bf
000000c0: d1ea 05c0 606b 7d3f
0.45377788 -0.9849747 -4.2801743 -1.2182776 -4.3303156 -3.493863 1.8191645 1.5387865
-1.9446794 1.3346666 -0.600584 0.2013697 -1.7067089 0.42665505 -1.3029575 0.03679769
-0.054577183 0.06674617 -0.28246537 3.0502696 -0.55015826 0.19462053 -0.45762992 0.38523486
0.24219452 0.014444652 0.22680885 0.035612326 -1.7667047 0.6368877 -0.78751487 -1.3434345
-0.60875463 0.42319462 -0.07209203 0.23557915 0.29481468 -0.095786154 -2.0159142 0.5334209
-0.0850666 -1.8309902 -1.7510293 0.16755678 -0.38182974 0.91413826 0.29429936 -0.9747127
-2.092457 0.98991966

f1_fc3.bias f4 [5]
00000000: 0b98 1640 90c1 90bf 7076 c4be c554 c4be
00000010: 900e a9be
2.35303 -1.130907 -0.3837161 -0.38345924 -0.33018923

f1_fc4.weight f4 [1, 5]
00000000: 3a9f 2dbf fffb 74be 0cdd 483f 1468 77be
00000010: a047 18bf
-0.67821085 -0.23924254 0.7846229 -0.24160796 -0.5948429

f2_fc1.weight f4 [5, 2]
00000000: d97a 213f 018b 3f3c 2b66 f33d 603f 9cbd
00000010: fb9e 2f3d ab10 c0bd cb7d 7a3d f381 473e
00000020: c8de 773f 64c2 883d
0.63078076 0.011690856 0.11884721 -0.07629275 0.042876225 -0.09378179 0.06115512 0.19483165
0.9682431 0.06677702

f2_fc1.bias f4 [5]
00000000: f887 9dc1 4237 7ec1 ac69 a9bf 7f78 96c1
00000010: ed7b 3540
-19.691391 -15.888491 -1.3235373 -18.808836 2.8356888

f2_fc2.weight f4 [10, 5]
00000000: ee61 5b3f 24e7 7c40 a30c afbf 3b68 f0bf
00000010: e6c1 89bf f17a 103f 1be9 a8bf daea 113f
00000020: 2014 f23a c5a4 5bbe 3afd 2cbf a94f 96c0
00000030: 6413 d23e 3849 1ec0 7a9f 4a3e 699e 8dbf
00000040: 43fc 1340 a9a9 4f3f 6f7c 3fbf 35ab f13e
00000050: 9895 29bf 6b4c 52c0 c53c de3e 2946 37bd
00000060: 540c 803e f747 8fbe 8335 62bf e826 ff3e
00000070: f944 963d 1738 0e3e 5bce 95bf 6870 a0c0
00000080: c431 9dbf a067 a1bd 3ace df3e 243f 023f
00000090: 1296 4bbf 5dfe 9e3f 09ca d3be 5ff0 83be
000000a0: 6fca a2be 2463 51c0 b499 923f a959 d9bf
000000b0: bc41 b03d 8216 2e3f abe0 03c0 8b45 b8be
000000c0: e32b 74c0 5894 89bf
0.85696304 3.9516077 -1.3675731 -1.8781809 -1.0762298 0.56437594 -1.3196138 0.5699898
0.0018469132 -0.21449573 -0.67573893 -4.697224 0.4103042 -2.473219 0.19787398 -1.1063968
2.3122718 0.81118256 -0.74799246 0.47200933 -0.66243887 -3.2859142 0.43405738 -0.044744644
0.25009406 -0.27984592 -0.883629 0.4983437 0.07337374 0.13888584 -1.17036 -5.0137215
-1.2280812 -0.07881093 0.43712026 0.50877595 -0.79525864 1.2421376 -0.41365078 -0.25769326
-0.3179507 -3.271676 1.1453156 -1.6980487 0.08606288 0.68003094 -2.0605876 -0.35990557
-3.8151786 -1.0748396

f2_fc2.bias f4 [10]
00000000: 69ff 91bf f1bc 593f 7210 a740 96dd 5fc0
00000010: 1bc2 5940 d1b5 1f3e 0d23 a540 2916 b5bd
00000020: 47cc f23f 16be c140
-1.140607 0.85053927 5.2207575 -3.4978995 3.4024723 0.15596701 5.1605287 -0.08842117
1.896859 6.054454

f2_fc3.weight f4 [5, 10]
00000000: c964 55bf 09ca 47bf 8d1d a63f 8131 82bf
00000010: 83b7 473f ec04 92be 5b04 02c0 a3e7 8dbf
00000020: 21d0 4cc0 1dc7 7cbf 23d3 1fbf 2611 ddbf
00000030: dc0c c7c0 5227 35c0 fad3 bc40 d6e9 3ebf
00000040: 31f0 9dc0 4586 8e3f ce3d 37bf ccd0 13bf
00000050: adec be3b 827a 9dbd 28d0 083f b208 843f
00000060: 2a39 8ebf 71c9 2f3e 2018 afbe bbcf a1be
00000070: 078c 12c0 fba0 103f b0e4 bfbf 3f7f 59bf
00000080: f9da a83e cece c9be c916 af3e eda5 9dbe
00000090: 3880 eebf ab98 41be 5470 14c0 c59d b7bf
000000a0: 0d86 51be 0523 a4bd 7075 a8bf 9533 8a3f
000000b0: 9c76 d1bf fd01 343e 96b2 153d b182 a0be
000000c0: 4a40 883f 6400 923e
-0.8335691 -0.78042656 1.2977768 -1.0171357 0.7801439 -0.2851938 -2.0315158 -1.1086315
-3.2002032 -0.9874132 -0.62431544 -1.7270858 -6.2203197 -2.830525 5.900876 -0.74575555
-4.9355702 1.1134726 -0.7157868 -0.57740474 0.005826554 -0.07689382 0.5344262 1.0315154
-1.1111195 0.17166688 -0.34198093 -0.31603798 -2.2897966 0.56495637 -1.4991665 -0.8495979
0.32979563 -0.39415592 0.3419707 -0.30790654 -1.8632879 -0.18905894 -2.319356 -1.4345022
-0.20461293 -0.08014492 -1.3160839 1.0796992 -1.6364322 0.17578883 0.036547266 -0.3134971
1.064462 0.28515923

f2_fc3.bias f4 [5]
00000000: 3341 b0be abb6 d1bb 823c 0dbf b4ca 0e3e
00000010: 4b03 eb3e
-0.34424743 -0.0063999495 -0.5517045 0.13944513 0.4590095

f2_fc4.weight f4 [1, 5]
00000000: 27b7 83bf d9b5 2ebf 0436 7abe a173 e73f
00000010: 0f03 743e
-1.0290269 -0.6824623 -0.24434668 1.8082162 0.23829292

f3_fc1.weight f4 [5, 2]
00000000: 9992 99bd dca3 df3e d977 02be 13ec be3d
00000010: 47cb fc3c d9c1 533e 654b 86bb ba71 9dba
00000020: 2a09 cb3d 46e0 1ebe
-0.074986644 0.43679702 -0.12741031 0.09322371 0.030858649 0.20679416 -0.004098343 -0.0012012043
0.09913857 -0.15515241

f3_fc1.bias f4 [5]
00000000: a81f e33e cd28 6340 22f2 8bbe 3b5b 31c0
00000010: 5282 ba3f
0.4436009 3.5493653 -0.2733317 -2.7711933 1.4571021

f3_fc2.weight f4 [10, 5]
00000000: 7e1b c73d bfda 98be c35b d0bb 3e74 c8be
00000010: a503 7fbe dede 8fbe 3d2f a73d ea88 803e
00000020: 0b99 0a3e 9e34 afbc 7cb4 c33e c5f4 403e
00000030: f336 1ebe 5a47 07be 57e3 ce3d ac7d 24be
00000040: ebd9 393d 2721 b13e 4341 0440 4db9 7dbe
00000050: ca05 4a3e f6fe bcbd feb4 c4be 6b50 563e
00000060: 4fdf b33e f499 ce3e d218 2dbe 81df a3be
00000070: b1a5 cc3e 9c93 7bbd 4dc9 efbc e321 7cbd
00000080: 3a9b 013d 3a39 39bf 8251 eebc c5ae f73e
00000090: ae0d 8cbe bf06 cbbe cd3f d03d 4b37 9eba
000000a0: 0334 013e 5698 c0bd d72c a3be c2d1 123e
000000b0: 9828 903e 8985 61bb df55 e03d f638 9dbd
000000c0: d5f1 96bf a7ff d53a
0.097220406 -0.2985439 -0.006358595 -0.39151186 -0.24903734 -0.28099722 0.08163307 0.25104457
0.13534944 -0.021387395 0.38223636 0.18843372 -0.15450649 -0.13210812 0.101019554 -0.16063565
0.04537384 0.34595606 2.0664833 -0.24777718 0.19728771 -0.092283174 -0.38419336 0.20929115
0.35131308 0.40351832 -0.16904 -0.32006457 0.39970163 -0.06142007 -0.029270792 -0.061555754
0.031642176 -0.72352946 -0.0290916 0.48375526 -0.27354187 -0.39653584 0.10168419 -0.0012070922
0.12617497 -0.09404056 -0.31870148 0.14337829 0.2815597 -0.0034411869 0.109538786 -0.0767688
-1.1792551 0.0016326801

f3_fc2.bias f4 [10]
00000000: b059 8ebe 7cf5 01bf 9534 ecbe eaf2 d8bf
00000010: 94f6 6cbe 7ca1 7fbe 339e 803d 268e 97be
00000020: 07d6 163e 220d 853f
-0.278028 -0.50765204 -0.46133867 -1.6949131 -0.23140937 -0.24963945 0.06280174 -0.29600638
0.14730082 1.0394633

f3_fc3.weight f4 [5, 10]
00000000: 15a1 c3be ce3a 5ebe b2ce 0cbd 9d4e 633e
00000010: 1d85 aebe efed 66bc 5b2f 9bbe 2f8e 743d
00000020: 3f43 05bf ae39 17be d981 b6bd e82c 713e
00000030: 3733 393c 175b 543e f62b af3d 567c 07be
00000040: ce00 633f b2ee 933d b422 b5be bd14 b93e
00000050: e28b a03e fa00 8a3e 63bf 793d 10b2 0ebb
00000060: f75e 15bf 70e1 a1bd af93 123e 22d8 52be
00000070: a221 c13e f510 c43e 58a5 18bf 088e b33d
00000080: c3d2 0ebe 272c 873e fd92 47be 5867 703d
00000090: 91b5 02bf 91eb 103e c75d 143b ee39 ddbe
000000a0: 848d e03d 195f 903d 9eb2 753e 0420 1fbe
000000b0: 8215 82be 0953 b9bd b635 8dbe c673 a2be
000000c0: 64fc c9be 11c9 1e3e
-0.38208833 -0.2170212 -0.034376808 0.22197957 -0.34085932 -0.014094814 -0.30309567 0.05970591
-0.52055734 -0.14768097 -0.08911485 0.23552287 0.0113037145 0.20737873 0.08553307 -0.13231024
0.886731 0.07223262 -0.3537804 0.36148635 0.31356722 0.2695387 0.060973536 -0.0021773614
-0.5834803 -0.07904327 0.1431415 -0.2059026 0.37720972 0.38294187 -0.59627295 0.08767325
-0.13947587 0.26400873 -0.19489665 0.058692306 -0.510583 0.14152361 0.0022638903 -0.4320826
0.10964492 0.070493884 0.23993918 -0.15539557 -0.25407034 -0.09049041 -0.2758004 -0.31728953
-0.3945037 0.15506388

f3_fc3.bias f4 [5]
00000000: 7e9d 1c3f f43f 8fbe a648 bb3d 9ba0 2ebe
00000010: 63f5 f43b
0.61177814 -0.2797848 0.09144716 -0.17053454 0.0074755414

f3_fc4.weight f4 [1, 5]
00000000: 6ee4 31be d837 553e 6fad 32be 82d4 83be
00000010: 922a 193e
-0.17372295 0.20822084 -0.17448972 -0.25748068 0.14957646
