data/Wildfire/Poly/seed=163/Wildfire.pth (torch, 10080 bytes, 21 tensors)

f1_fc1.weight f4 [5, 2]
0	0x3cbbf10f	0.022942094
1	0x3ff11449	1.8834316
2	0x3de8c066	0.11364822
3	0xbd86a567	-0.06574517
4	0xbdafe756	-0.08589046
5	0x3dce9326	0.1008666
6	0x3d35d06c	0.04438822
7	0x3e8464ee	0.25858253
8	0xb9f90a7e	-0.00047500798
9	0xbd30e03b	-0.043182593

f1_fc1.bias f4 [5]
0	0xc13688d5	-11.408406
1	0x4001d0d9	2.028372
2	0x4127c018	10.484398
3	0xbf40ef6a	-0.75365317
4	0xc097c54b	-4.7428336

f1_fc2.weight f4 [10, 5]
0	0x3eebd3c0	0.4605999
1	0x3e78192b	0.24228351
2	0x400f2ae8	2.2369938
3	0xbe834d7a	-0.25645047
4	0xbdcba5d8	-0.099437416
5	0xbe14f6c6	-0.14547262
6	0x3f126c88	0.57196856
7	0x3f3bc66c	0.7334964
8	0x3f1702ce	0.58988655
9	0x40f166cc	7.5437984
10	0xbe030020	-0.12793016
11	0xbe8dc471	-0.27688935
12	0xc0d017a2	-6.502885
13	0x3f59268a	0.8482443
14	0x3ffe51d6	1.9868724
15	0xbdfa6fda	-0.12228365
16	0x3e00656e	0.12538692
17	0xc054e8e8	-3.3267155
18	0x3f0add1e	0.5424365
19	0x402ef50a	2.733706
20	0xc03f22c2	-2.9864964
21	0x3f2dfc58	0.6796317
22	0xc0d0d3e8	-6.5258675
23	0xc008c6eb	-2.137141
24	0x409e68f1	4.95031
25	0x3f5b2ab4	0.85612035
26	0x3dc76e93	0.09737887
27	0xbdd43777	-0.103621416
28	0x3dc39fe8	0.09551984
29	0x3f0e5b56	0.5560812
30	0x3f3a2813	0.727174
31	0x3e685ad2	0.22690895
32	0xc02f86be	-2.742599
33	0xbda272ed	-0.079320766
34	0x3efafd99	0.49021605
35	0x3f6c1291	0.9221583
36	0x3e282b35	0.16422732
37	0x40061598	2.095068
38	0x3d8aef2a	0.06783898
39	0x4052264c	3.2835875
40	0xbe6e3eae	-0.23266098
41	0xc05c1821	-3.4389727
42	0x411f856b	9.970073
43	0x400b5ba7	2.177469
44	0xc19a5ad4	-19.29435
45	0x3e95c517	0.2925193
46	0xbf002a88	-0.500649
47	0xc0102fba	-2.252913
48	0xbe5bde67	-0.21471559
49	0xc0b5abed	-5.677237

f1_fc2.bias f4 [10]
0	0x3e6267f8	0.22109973
1	0xc094ee43	-4.6540847
2	0xc0c747ae	-6.2275
3	0xbfecec22	-1.8509562
4	0xc01ba05e	-2.431663
5	0xbf3aafba	-0.7292439
6	0xbf7d4321	-0.98930556
7	0x402903cb	2.6408565
8	0x414a415b	12.640956
9	0x40550b6b	3.328822

f1_fc3.weight f4 [5, 10]
0	0xc005a5d3	-2.088246
1	0xbfb62b3e	-1.4231946
2	0x3f9f645d	1.2452503
3	0x3ee2430d	0.4419178
4	0xc00d952d	-2.21223
5	0x3f4f0312	0.8086406
6	0xbfe232cb	-1.7671751
7	0x3f7cf4fc	0.98811316
8	0xbff6bd4b	-1.9276518
9	0x3ff67c41	1.9256669
10	0xbf8e251c	-1.1105075
11	0xc07f57c3	-3.9897316
12	0x3f046afe	0.5172576
13	0x3fc596ad	1.5436608
14	0xbf823c11	-1.0174581
15	0xbe7f2262	-0.2491546
16	0x3f52664a	0.8218733
17	0xbee3479f	-0.4439058
18	0x3d809eea	0.062803105
19	0x3ff25bcf	1.8934268
20	0xbf0e41c0	-0.55569077
21	0xbf0b30b8	-0.54371214
22	0xbf148d1a	-0.58027804
23	0x3e8482d1	0.25881055
24	0xbe4e47a5	-0.20144518
25	0xbd33e03c	-0.04391502
26	0x3e090a00	0.13382721
27	0xbd1e2e15	-0.038618166
28	0xc00bb7cb	-2.1830928
29	0x3f663ead	0.89939386
30	0xbf6622c6	-0.8989681
31	0xbfdad4c8	-1.7096186
32	0x3ee905b7	0.45512173
33	0x3fb3b93d	1.4040905
34	0x3f458c43	0.7716715
35	0x3e766f09	0.24065794
36	0x3ee36988	0.4441645
37	0xbe157ac2	-0.1459761
38	0xbf7aa14c	-0.9790237
39	0xbd84987d	-0.06474397
40	0xbe237122	-0.15961125
41	0xbeab5390	-0.3346219
42	0xbf8bf118	-1.0932951
43	0x3d1853a6	0.03718915
44	0xbec7f47a	-0.39053708
45	0x3f58d572	0.8470069
46	0x3dc69a86	0.09697442
47	0xbf85e7a6	-1.0461318
48	0xc0090daf	-2.1414602
49	0x3f7f9abd	0.99845487

f1_fc3.bias f4 [5]
0	0x40234f21	2.5517046
1	0xc04cc602	-3.1995854
2	0x3d97e992	0.07417597
3	0xbfb68804	-1.4260259
4	0xbeae1523	-0.340005

f1_fc4.weight f4 [1, 5]
0	0xbf31bee1	-0.69431883
1	0xbe7ae74e	-0.24502298
2	0x3f0f730e	0.56034935
3	0xbdaced0b	-0.0844365
4	0xbefabb4b	-0.48971018

f2_fc1.weight f4 [5, 2]
0	0x3e6bc666	0.23024902
1	0x3e756767	0.23965226
2	0xbe006d7a	-0.12541762
3	0x3dfba80e	0.12287913
4	0x3d06add7	0.03288063
5	0xbf111467	-0.56671757
6	0xbc86e946	-0.016468655
7	0x3ecfa850	0.405581
8	0x3e4fba97	0.20286022
9	0xbee9fc00	-0.45700073

f2_fc1.bias f4 [5]
0	0xc1cc7295	-25.555948
1	0xc16dd67f	-14.864867
2	0x41068e3b	8.409724
3	0xc09c9105	-4.8927026
4	0x3fe4c824	1.7873578

f2_fc2.weight f4 [10, 5]
0	0x40d2c0a9	6.586018
1	0x40da8f11	6.829964
2	0xbefada35	-0.48994604
3	0xc0719039	-3.7744277
4	0xbf86d2e3	-1.0533108
5	0x3fdd8b3a	1.7308114
6	0xbe711af6	-0.23545441
7	0xbdfa51b4	-0.12222615
8	0x3c88ea06	0.016713154
9	0x3dd9d04e	0.10635434
10	0xbf457754	-0.77135205
11	0xc03012e7	-2.7511537
12	0x3eb50345	0.35354057
13	0xc10f918c	-8.973034
14	0xbf1a87d2	-0.60363495
15	0xbf4c7db3	-0.798793
16	0xbf1321f2	-0.5747367
17	0xbbef7588	-0.007307712
18	0x3ea5abcd	0.32357636
19	0x3c0fdda6	0.008780872
20	0xbf105b06	-0.5638889
21	0xbfef65e4	-1.870297
22	0x3e369375	0.17829688
23	0xbfbb036c	-1.4610419
24	0xbe7394c9	-0.23787226
25	0xbf024eee	-0.5090169
26	0xbf1421d6	-0.5786413
27	0x3d2eacc0	0.042645216
28	0x3eacf518	0.33780742
29	0xbbd770e3	-0.0065747364
30	0xbf126797	-0.57189316
31	0xbf3a318b	-0.72731847
32	0x3da2311b	0.079195224
33	0xbf34dd0f	-0.7064981
34	0xbe028df9	-0.12749471
35	0x3f694e05	0.91134673
36	0x3da90ffd	0.08255003
37	0x3e6839b1	0.22678258
38	0xc095718d	-4.670111
39	0xbe8b0fda	-0.2716053
40	0xbf0bf1e9	-0.54666
41	0xbfd533a5	-1.6656386
42	0x3eb58ed6	0.35460538
43	0xc093c804	-4.618166
44	0xbef348d4	-0.475165
45	0x3fd4322d	1.6577812
46	0x405c378a	3.4408898
47	0x40969e15	4.706797
48	0xc0d285eb	-6.5788474
49	0xc11e3d6b	-9.889995

f2_fc2.bias f4 [10]
0	0xc01eb2ac	-2.4796553
1	0x3f74198f	0.953515
2	0x40324390	2.7853737
3	0xbefb600f	-0.49096724
4	0x3ff7fe1d	1.9374424
5	0x3f141bb9	0.578548
6	0x3f5ebe6d	0.87009317
7	0xbeb9de1c	-0.36302269
8	0x3fdd5cba	1.7293923
9	0xbdcb47cb	-0.09925803

f2_fc3.weight f4 [5, 10]
0	0xbe0eb5eb	-0.13936584
1	0xbf2def31	-0.679431
2	0x3f2bbdd4	0.6708653
3	0xbfd9196c	-1.6960883
4	0xbf139369	-0.57646805
5	0xbd762126	-0.060090207
6	0xbe10d22a	-0.14142671
7	0xbeb51d20	-0.35373783
8	0xbff230a8	-1.8921099
9	0xbe24bc3b	-0.16087429
10	0xbf023d96	-0.5087522
11	0xbf969d71	-1.1766797
12	0xbf1ef5e0	-0.62093925
13	0xbfb65789	-1.4245464
14	0x405a8d91	3.4148905
15	0xbfd79090	-1.6840992
16	0xc0562f50	-3.3466377
17	0x3fd0b9fb	1.6306757
18	0xc06ae9ab	-3.670512
19	0x3f020006	0.50781286
20	0xbdd66e2b	-0.104702316
21	0xbde0dd65	-0.10979728
22	0x3eebea66	0.4607727
23	0x3f85881b	1.0432161
24	0xbf3db536	-0.7410463
25	0x3e5cec5e	0.21574542
26	0xbe9a103f	-0.3009052
27	0xbe966c35	-0.2937943
28	0xc015325c	-2.3311987
29	0x3efa6107	0.4890215
30	0xbf0a592c	-0.54042315
31	0xbed33fed	-0.4125971
32	0x3eab5168	0.33460546
33	0xbfa31d82	-1.274338
34	0xbe5545c6	-0.20827398
35	0xbdf30887	-0.11866861
36	0x3f5d335c	0.86406493
37	0x3e1d5d68	0.15367663
38	0xc0102b46	-2.2526412
39	0xbf00d7b5	-0.5032914
40	0xbdd80a59	-0.10548849
41	0xbde07054	-0.10958925
42	0xbfa1bca5	-1.2635695
43	0x3f89b9af	1.0759791
44	0xbff5cc2b	-1.9202932
45	0x3e5477ea	0.20748869
46	0x3e3f29a3	0.18668227
47	0xbeb7cd51	-0.3589883
48	0x3f8cbe64	1.0995603
49	0x3eb48592	0.35258156

f2_fc3.bias f4 [5]
0	0xbcb8c537	-0.022554977
1	0xbf287613	-0.65805167
2	0xbef3bdea	-0.4760583
3	0xbf92cca8	-1.1468706
4	0x3ec88713	0.39165553

f2_fc4.weight f4 [1, 5]
0	0xbf9b6cce	-1.214258
1	0xbf04a731	-0.51817614
2	0xbf1b90d8	-0.6076789
3	0x3fd7fd30	1.6874142
4	0x3f18dbee	0.59710586

f3_fc1.weight f4 [5, 2]
0	0xbf070393	-0.5273983
1	0x3e3f05d1	0.18654563
2	0xbedc7a28	-0.43061948
3	0x3e1c9861	0.15292503
4	0x3e2037cc	0.15646285
5	0xbd086882	-0.03330279
6	0x3c7b7f0e	0.015350116
7	0xbd1f4d53	-0.0388921
8	0xbf08970b	-0.53355473
9	0x3e4204df	0.1894717

f3_fc1.bias f4 [5]
0	0xc04a3336	-3.1593757
1	0xbee0ac84	-0.4388162
2	0xc16cbb74	-14.795765
3	0xc05110d9	-3.2666533
4	0x3e652ec1	0.22381116

f3_fc2.weight f4 [10, 5]
0	0xbf945c09	-1.1590587
1	0x3db8a04c	0.09014949
2	0x3e7afda9	0.24510826
3	0xbf5e1b84	-0.86760736
4	0xbd8b55f2	-0.06803502
5	0x3eabd286	0.33559054
6	0x3eb269e3	0.3484641
7	0x3ee44b9a	0.4458893
8	0xbe954d07	-0.2916033
9	0xbebdeed0	-0.37096262
10	0xbe0f8b08	-0.1401788
11	0xbf6b1243	-0.9182474
12	0xbf8205e2	-1.0158045
13	0xbf0886e4	-0.53330827
14	0xbf8fb7f7	-1.1228017
15	0xbc9b8a53	-0.018986857
16	0xbe83d0d0	-0.2574525
17	0xbf9aee6d	-1.2104012
18	0xbf8a354a	-1.0797513
19	0x3ed3d6a2	0.4137469
20	0x3e834ea9	0.2564595
21	0xbd8db3ca	-0.06919058
22	0xbf016bfb	-0.5055539
23	0xbf574ead	-0.84104425
24	0xbdc40fb8	-0.095733106
25	0x3d77a852	0.060463257
26	0x3e8214a8	0.25406384
27	0x3fa0b41f	1.2554969
28	0x3ceff26b	0.029290399
29	0x3eaffeb2	0.34374005
30	0x3ec37739	0.38176897
31	0xbec8d85b	-0.39227566
32	0xbe0199fa	-0.12656394
33	0xbcc263fd	-0.023729319
34	0x3e6fe56e	0.23427364
35	0x3f1046fc	0.56358314
36	0xbde32cd7	-0.11092537
37	0x3d8b7fe1	0.068115
38	0xbcc4d057	-0.024025125
39	0xbf2f322d	-0.6843594
40	0x3d9ee46d	0.077584125
41	0xbe47bb4e	-0.19505045
42	0xbf1c97a1	-0.6116887
43	0x3fc09cd2	1.5047858
44	0x3e06abc4	0.13151461
45	0xbe9c8669	-0.30571297
46	0xbf236a7f	-0.63834375
47	0xbf2fba0a	-0.6864325
48	0xbec6de7b	-0.38841614
49	0xbf7a8ae6	-0.9786819

f3_fc2.bias f4 [10]
0	0xbe8390bb	-0.25696358
1	0x3e4ace01	0.19805147
2	0x3ecb35b3	0.39689407
3	0x3efd27a7	0.49444315
4	0x3f8c12ca	1.0943234
5	0x3cd38933	0.025822258
6	0x3ed88850	0.42291498
7	0xbd6cf139	-0.057847235
8	0xbe2addc9	-0.16686167
9	0x3e9d7817	0.30755684

f3_fc3.weight f4 [5, 10]
0	0xbd35c535	-0.044377524
1	0x3e098afe	0.13431928
2	0xbdb4ddd3	-0.08831372
3	0x3e406146	0.18787107
4	0xbd254321	-0.040347222
5	0x3e43f1c5	0.19135197
6	0xbde654ee	-0.11246668
7	0x3ec8b3c7	0.3919966
8	0xbce77745	-0.028255114
9	0x3f25326b	0.64530057
10	0xbdd82f14	-0.105558544
11	0xbebad409	-0.36489895
12	0xc060e524	-3.5139856
13	0xbf9491b3	-1.1606964
14	0x3e8e667d	0.27812567
15	0xbf24752b	-0.64241284
16	0xbe98f162	-0.2987166
17	0x3f37177f	0.7152023
18	0x3e2bd09c	0.16778797
19	0x4089e5e0	4.309311
20	0xbda2026f	-0.079106204
21	0xbe883728	-0.2660458
22	0x3efe50b9	0.49670961
23	0xbc8ddbd8	-0.017316744
24	0x3e4b7a2c	0.19870824
25	0x3e6bf3ef	0.23042272
26	0x3e1b8620	0.15187883
27	0xbedb4a23	-0.4283
28	0x3ca86392	0.020555291
29	0xbe7a68c6	-0.2445403
30	0x3e84d64f	0.25944754
31	0xbe898fd0	-0.26867533
32	0x3f56b62a	0.8387171
33	0xbe1eefc1	-0.15521146
34	0xbe997806	-0.29974383
35	0x3e15e4cc	0.1463806
36	0x3de734c1	0.11289359
37	0x3e529374	0.20564061
38	0xbd8bef24	-0.06832722
39	0xbf1eade8	-0.6198411
40	0x3e67a756	0.22622427
41	0xbe88d590	-0.26725435
42	0xbf057653	-0.52133673
43	0xbfacae6e	-1.3490732
44	0x3f33ee01	0.7028504
45	0xbf006a78	-0.5016246
46	0xbe9778fc	-0.2958449
47	0xbe8e82c8	-0.27834153
48	0xbf340599	-0.7032104
49	0x3e9a1205	0.30091873

f3_fc3.bias f4 [5]
0	0x3df279e3	0.11839654
1	0x3e80d736	0.25164193
2	0x3e824b28	0.25447965
3	0xbeca8d75	-0.39561048
4	0x3e181000	0.14849854

f3_fc4.weight f4 [1, 5]
0	0x3eaa4f3b	0.33263573
1	0x3f0b81be	0.54494846
2	0xbeb31c04	-0.34982312
3	0xbeee2d0d	-0.46518746
4	0xbee86804	-0.45391858
