data/Crossing_waves/Poly/seed=66/Crossing_waves.pth (torch, 8696 bytes, 14 tensors)

f1_fc1.weight f4 [5, 2]
00000000: 8086 82bd ea5e 92bf f1b3 87bd 8506 bf3e
00000010: abe1 0b3d e3cb 2b3f 6f0a 8d3d ec5f 4ac0
00000020: dfac 873c e3af 853e
-0.0637331 -1.1435215 -0.06626118 0.37309662 0.03415076 0.6710798 0.06886756 -3.1621046
0.016561924 0.26110753

f1_fc1.bias f4 [5]
00000000: ea8c 0141 eedc 6741 be08 4bbf 9b68 c2bf
00000010: 7858 7f3f
8.096903 14.491438 -0.79310215 -1.5188173 0.9974437

f1_fc2.weight f4 [10, 5]
00000000: a42b 963e 75f7 2540 164d 643f 99e2 3e3d
00000010: d80d dd3e 0b51 bfbf 9969 8840 b931 81c0
00000020: 98cc d9bf 72fa 7640 9f4f 7f40 33d1 9cbf
00000030: aec2 34bf d667 273d 6e6f 4140 c8d1 b0bf
00000040: 00e1 60c0 7c3a 4c3f d917 b9bd 2ab7 e33e
00000050: be2b 1ec0 5403 8240 04f3 74bf 05f0 dcbe
00000060: 7dc4 29c0 e3e6 203f 91f6 3c40 b39c 93bf
00000070: 2851 0b3e 3b3a b5bf 198e c03f a5ba 2f3f
00000080: 2262 22bf dc07 36be 3b02 64be aff7 cabe
00000090: 4e8d 0540 0069 acbf c1cd 773e 74d9 e13d
000000a0: bb74 ffbb ba94 6940 25b0 bbbf 256b f6be
000000b0: 31c6 aebf 3166 4d3e de0e efbe 303b 52be
000000c0: a4d2 0cbe 218c eb3e
0.2933017 2.5932286 0.89180124 0.04660282 0.43174624 -1.4946607 4.2628903 -4.0373197
-1.7015562 3.859036 3.9892347 -1.2251343 -0.7060956 0.04087051 3.0224261 -1.381402
-3.513733 0.7977674 -0.09037752 0.4447568 -2.4714198 4.0629063 -0.9568331 -0.4315187
-2.6526177 0.62852305 2.9525492 -1.1532196 0.13605177 -1.4158396 1.5043365 0.6864417
-0.6343099 -0.17776436 -0.22266476 -0.39642093 2.0867496 -1.3469543 0.24199583 0.11027804
-0.007795898 3.6497025 -1.466313 -0.4812862 -1.3654233 0.20058514 -0.4669103 -0.2053039
-0.13752228 0.46005347

f1_fc2.bias f4 [10]
00000000: fa46 efbf 35b0 b840 88bc 7fbf 7d00 7d40
00000010: 31b5 083f 7979 403f fe9e 4140 f8ac be3e
00000020: 280b 1c40 92cf 6640
-1.8693535 5.7715096 -0.9989705 3.9531548 0.53401476 0.7518535 3.025329 0.3724134
2.438181 3.606419

f1_fc3.weight f4 [5, 10]
00000000: 1132 dbbf 0f82 6abf ab8d 1a3e d253 26c0
00000010: 8015 b2bf 7c3f 983f db3e c3c0 c2ed cdbf
00000020: da67 80bf 8fea 9c40 7c24 e4be 9803 a33d
00000030: 391e 66be 2428 90bf 511c 39c0 66f0 8abf
00000040: 7885 f5be d9f7 b53e d9c6 1340 eb37 ad3f
00000050: 2cfc 15be 7253 3ebd ba9c 1abe a20c 30bf
00000060: 1da2 0cbf 52ba c3be aa96 ccbe ac98 e93e
00000070: 6118 6b3f d853 923f 0aef 8cbe d7bd b03e
00000080: 432c 65bf a55d 04bf ac59 8ec0 134c aabe
00000090: d737 99bf 9e0e 9f3e b2aa 3240 cc7a 9ebf
000000a0: eca7 31be c9b6 9dbb d698 2bbe 89b8 a0bf
000000b0: b39f 23bf f500 2fbe 1abb 14bf 96c9 a23e
000000c0: 9056 6c3f 72e3 8a3f
-1.7124654 -0.91604704 0.15093105 -2.598866 -1.3912811 1.1894374 -6.101423 -1.6088183
-1.0031693 4.9036326 -0.44559085 0.0795967 -0.22472467 -1.126225 -2.8923533 -1.0854614
-0.4795339 0.35540655 2.3090117 1.353269 -0.14646977 -0.0464663 -0.15098849 -0.68769276
-0.54934865 -0.3822809 -0.39958698 0.45624292 0.91834074 1.1431837 -0.27526122 0.34519836
-0.89520663 -0.5170539 -4.4484463 -0.33261165 -1.1970166 0.3106584 2.7916684 -1.2381225
-0.17349213 -0.0048130495 -0.16757521 -1.2556316 -0.63915557 -0.17090209 -0.58097994 0.31794423
0.92319584 1.0850661

f1_fc3.bias f4 [5]
00000000: 95be 4f3f b43a ac3f bc0a 933f efcd 32bf
00000010: 6713 923f
0.8115018 1.3455415 1.1487651 -0.6984548 1.1412171

f1_fc4.weight f4 [1, 5]
00000000: d711 03bf e0b6 1f3f f7b6 61bd 895a 1dbf
00000010: 6a48 533d
-0.51199096 0.6238842 -0.05510613 -0.6146627 0.05158273

f2_fc1.weight f4 [5, 2]
00000000: cc69 213e 957c f43f b4c6 4b3e 1293 58c0
00000010: 780e d93d 5cd5 6cbf c0a8 12bd 9198 3cbf
00000020: a8ee 9abb 55b8 fe3f
0.15763015 1.910052 0.19900018 -3.3839765 0.10598463 -0.9251306 -0.035805464 -0.736703
-0.004728157 1.9900004

f2_fc1.bias f4 [5]
00000000: 3f60 3a40 cbf4 acc0 de1b 18c1 152c f340
00000010: 3601 b8bf
2.9121244 -5.404882 -9.5068035 7.599131 -1.437537

f2_fc2.weight f4 [10, 5]
00000000: b9b2 17bf 0aff 61bc c6e5 2fc0 b738 27c0
00000010: b8a8 713f 3916 133e fc4e c6be 7fe5 d0be
00000020: bc4e 1d40 1d10 26bf 4ab1 9e3e d141 8fbf
00000030: 6a5b 3340 5019 d4bf d376 613e 4c9e 32be
00000040: 1b74 0f3f 4e30 bfbf 609b f53f 7115 27bf
00000050: 9db2 2dbf ed2f 24bf bf05 0d3f d41a 76bf
00000060: 1626 0d40 01b4 1a3f ef4c 763e ac83 7ebf
00000070: c5f6 623f 1a4e 64be d659 193e b8fb 323e
00000080: 5e62 ba3e a8de d6bf b030 f63e f53e b8be
00000090: 59bd a03f cd95 44c0 9c67 3940 8fb8 a1be
000000a0: ff3e a7be c0ad 4d3e 6f74 953f ca27 f4c0
000000b0: fce1 563f e65c 96be 1e1c e93e b006 973f
000000c0: 6633 30c1 83fd 003f
-0.59257084 -0.013793716 -2.7483993 -2.6128366 0.9439807 0.14363946 -0.38732135 -0.40800092
2.4579306 -0.64868337 0.30994636 -1.119196 2.8024545 -1.6570225 0.22017984 -0.17443198
0.5603654 -1.4936616 1.9188042 -0.6526709 -0.6785067 -0.6413563 0.5508689 -0.96134686
2.2054496 0.60430914 0.24052785 -0.99419665 0.8865779 -0.22295418 0.14975676 0.17478836
0.36403173 -1.6786699 0.4808402 -0.35985532 1.2557784 -3.071643 2.8969488 -0.3158612
-0.3266525 0.20085812 1.1676158 -7.629857 0.83938575 -0.2936775 0.45529264 1.1798916
-11.012548 0.5038683

f2_fc2.bias f4 [10]
00000000: cf5f f040 9192 4f40 730e a8bf 3f7c 0340
00000010: 735c 6fc0 243f 8840 8e65 67bf 8c6c 0a40
00000020: 03f8 80c0 803f afc0
7.5116954 3.2433207 -1.312941 2.0544584 -3.7400177 4.2577076 -0.90389335 2.1628752
-4.030275 -5.4765015

f2_fc3.weight f4 [5, 10]
00000000: 7e54 393e 95e7 e43e f017 25c0 a93b 5fbe
00000010: fa3b 4bbe dfd0 9fbe a958 183f 1535 3fbf
00000020: 4f3e c2bf 0159 e73e 7c19 95bf 1f8b 753f
00000030: 8f11 1fc0 2abd 29c1 51a8 43be 7d81 59bf
00000040: 6412 ccc0 6692 c73f 2f5a eebe daf6 47be
00000050: 6ee6 06c0 f040 8ac0 8328 063f b69e cf3f
00000060: 76f2 d8bf 71b0 febe 06ed 27bc 29f0 d2bf
00000070: cd77 44c0 9040 d6be d5b3 6cc0 126b a93c
00000080: a28c d73f daae f8bf 60b5 8ac0 ab82 afbf
00000090: cacb 42be d078 853f 9155 593f be4b 9fc0
000000a0: 59cb 553f ba7e 813e ed55 ebbf 979d 66bf
000000b0: 8e6a 09bf 56bf 023d 8de2 b93e 97bc 393e
000000c0: 9781 313f 4df0 37bf
0.18098637 0.44707933 -2.579586 -0.21800102 -0.19847098 -0.31214043 0.59510285 -0.7469037
-1.5175265 0.45185092 -1.1648402 0.95915407 -2.4854467 -10.608683 -0.19107176 -0.8496321
-6.377245 1.5591552 -0.4655318 -0.1952776 -2.1078143 -4.320427 0.52405566 1.622031
-1.6948993 -0.4974399 -0.010249382 -1.6479541 -3.069812 -0.41846132 -3.698476 0.020680938
1.6839793 -1.942836 -4.3346405 -1.3711752 -0.19023052 1.0427494 0.8489619 -4.977996
0.8351341 0.25291997 -1.8385597 -0.90084213 -0.53678215 0.031920753 0.36305657 0.18138348
0.69338363 -0.71851045

f2_fc3.bias f4 [5]
00000000: eb92 8cbf 746c 863d b2e1 aebf f4e5 973d
00000010: 8ea8 09c0
-1.0982336 0.065636545 -1.3662627 0.07416907 -2.1509128

f2_fc4.weight f4 [1, 5]
00000000: 59a9 15be 3aa7 dfbe 0333 283f 5b7a c83d
00000010: 0827 8e3b
-0.14615382 -0.4368227 0.6570284 0.097889625 0.004338149
