data/Wildfire/Poly/seed=208/Wildfire.pth (torch, 10080 bytes, 21 tensors)

f1_fc1.weight f4 [5, 2]
000000 13 06 e3 3c a9 1f f5 3f 21 93 a4 3d b1 98 b0 bd
       0.027712857 1.9150287 0.08035875 -0.086228736
000010 cd 32 86 bd 20 4d 52 3e 95 6d d1 3d e9 30 cb 3e
       -0.06552658 0.20537233 0.10225979 0.39685753
000020 1d ad 0c 3d a8 b2 09 bf
       0.03434478 -0.5378823

f1_fc1.bias f4 [5]
000000 5a 46 39 c1 c5 ff e2 3f c1 e5 00 41 03 ef 73 bf
       -11.579676 1.7734305 8.056092 -0.9528658
000010 f4 2a c5 c0
       -6.1614933

f1_fc2.weight f4 [10, 5]
000000 41 51 ad 3e 71 c7 e2 3e 95 74 09 40 e3 d6 55 be
       0.33851054 0.44292787 2.1477406 -0.20882754
000010 e0 be a2 be 36 36 8b be a9 1b 71 3d 2d bd 3e 40
       -0.3178625 -0.27189797 0.05886427 2.9802964
000020 b9 7d f8 3d 45 f0 41 40 8e 04 92 3d fb ce eb be
       0.12133355 3.03029 0.07129775 -0.4605635
000030 8d c6 a6 c0 6a 68 6b 3f 87 f7 41 40 08 e4 20 c1
       -5.211737 0.919562 3.0307329 -10.055672
000040 7a 6d e8 3d 09 a3 4f c1 03 1d 3c bf 29 e5 19 3f
       0.11349006 -12.9773035 -0.7348177 0.60115296
000050 90 04 37 bf 3a 0a 45 3f 8b 42 92 40 c5 d4 f4 bd
       -0.71491337 0.7696873 4.570623 -0.11954645
000060 42 9e 75 40 11 eb 5f 3f 91 72 05 3e f3 92 36 3d
       3.8377843 0.8746806 0.13031985 0.044573735
000070 e4 a5 ee 3d 9c d1 2d 3f c3 14 5a 3f 35 e7 68 3e
       0.11652735 0.67897964 0.8518793 0.22744448
000080 04 11 2c c0 35 8a 55 bd 9d e7 3e 3f ef 3a 5c 3f
       -2.6885386 -0.052133758 0.74572164 0.86027426
000090 6d d8 08 3e f6 bf f5 3f 22 67 15 3d 57 fe 4d 40
       0.1336381 1.9199207 0.03647531 3.2186487
0000a0 e2 04 61 c0 26 3e dc 3f 1d 00 d7 c0 90 1e 1b c0
       -3.515923 1.7206466 -6.718764 -2.4237404
0000b0 dd 5a 94 c0 61 37 77 3e bc 74 19 bf 0e 8e 06 c0
       -4.6360917 0.24142219 -0.5994375 -2.1024203
0000c0 c3 30 85 be 79 36 b0 c0
       -0.26013765 -5.5066495

f1_fc2.bias f4 [10]
000000 d9 b6 d2 3e 2f ff 25 bf d8 ec e7 c0 de de 37 3f
       0.41155127 -0.64842504 -7.2476616 0.71824443
000010 6b 56 24 bf 02 29 58 bf c9 b5 9c bf 96 1f 2d 40
       -0.64194363 -0.8443757 -1.2242976 2.7050529
000020 9b f4 b2 40 fb 7e 4b 40
       5.592359 3.1796253

f1_fc3.weight f4 [5, 10]
000000 c3 d1 08 40 90 8a 9b c0 d4 4e 22 c0 86 2e 56 c0
       2.1378028 -4.8606644 -2.5360613 -3.3465896
000010 ad 54 1d c1 91 b3 ae c0 dc 0b 07 c1 03 b2 9b 40
       -9.833173 -5.4594197 -8.440395 4.86548
000020 e6 e3 28 c1 9f 79 6c c0 64 ff 41 bf 80 56 8f be
       -10.555639 -3.6949232 -0.7578032 -0.27995682
000030 a1 b7 b0 c0 e2 e2 96 3e 66 f6 c4 be 7a 55 02 be
       -5.5224156 0.29469973 -0.38469237 -0.12727919
000040 40 27 81 3f 2f 94 86 be 26 e5 a2 be 35 ef 85 3e
       1.0090103 -0.2628493 -0.3181545 0.26159063
000050 fb ac ee be 5f 5a 2b bf be 6d 9e bf ae 9c 1e 3e
       -0.4661635 -0.6693477 -1.2377241 0.15489456
000060 1f 7e 87 be e0 e2 8f 3c 74 fb 1d 3e fe 2a 23 3d
       -0.2646341 0.017564237 0.15427953 0.039835922
000070 4c f3 10 c0 50 be 73 3f 87 ac 2f bf d2 f4 d5 be
       -2.2648497 0.9521227 -0.6862263 -0.41788346
000080 a3 7d 92 be eb e1 9b 3e 62 bf 7e be f0 48 60 3e
       -0.28611478 0.304458 -0.24877694 0.21902823
000090 8a 03 6d 3e 4b ce 9f bd 4c fe fc bf bb 81 5c 3e
       0.23145881 -0.07803019 -1.9765105 0.21533863
0000a0 ef 69 8e bd 6a eb ce 3c 8d 3b b9 bf 0d d7 89 3e
       -0.06953799 0.025258739 -1.4471298 0.26921883
0000b0 4e 8d 93 be 0f b4 6a 3f 97 33 30 3e e4 8e 78 bf
       -0.28818744 0.91681 0.1720718 -0.97093034
0000c0 cb 58 00 c0 a8 12 84 3f
       -2.0054195 1.0318193

f1_fc3.bias f4 [5]
000000 3e 0a 8d 40 7c 2d 35 c0 8e c4 cc 3d 6c b9 f7 be
       4.4075003 -2.8309011 0.09998427 -0.48383653
000010 8a f6 cb be
       -0.39836532

f1_fc4.weight f4 [1, 5]
000000 9a ed 31 bf 93 df 84 be ab b5 80 3f 1c fe 79 bb
       -0.69503176 -0.25951824 1.0055441 -0.0038145846
000010 c5 e3 7f bf
       -0.99956924

f2_fc1.weight f4 [5, 2]
000000 f9 94 83 3f bc f3 f1 3e b8 83 c7 bd fb e5 17 3c
       1.0279838 0.47256267 -0.0974192 0.00927114
000010 c5 09 15 bd 79 6b 44 bf f2 4b 56 bb 31 e6 64 3f
       -0.03638627 -0.7672649 -0.0032699076 0.89413744
000020 f3 e9 8f 3f de 5a ee bd
       1.1243271 -0.11638425

f2_fc1.bias f4 [5]
000000 28 20 89 c1 7c 62 83 c0 09 2c 51 41 e7 2e 58 c1
       -17.140701 -4.105772 13.073251 -13.511451
000010 bb 03 05 c0
       -2.0783527

f2_fc2.weight f4 [10, 5]
000000 62 49 9f c1 c4 28 81 c1 60 e1 2f 42 eb c9 4d c1
       -19.910831 -16.144905 43.970093 -12.861796
000010 24 75 df c1 d3 1d 8e 3f 2f a5 1d 40 1f ce 17 40
       -27.932198 1.1102852 2.463207 2.3719556
000020 2d bf 34 bf ca f3 61 bf 2e bd 59 bf 7f a3 ce c0
       -0.7060421 -0.8826262 -0.8505429 -6.457458
000030 d4 d9 23 bf 99 1e 12 c1 d8 e9 0e 3f 11 c1 d7 be
       -0.64004254 -9.13247 0.5582557 -0.42139485
000040 1e 06 93 3f 45 67 be 3e e4 e0 91 3e 88 8a c6 3e
       1.1486242 0.37188163 0.2849189 0.38777566
000050 f8 52 6d be 3f dc 57 c0 8d 13 df bd 32 81 59 c0
       -0.23176181 -3.3728178 -0.10892401 -3.3985105
000060 ee 7e 06 3e c7 e0 d1 be 0c 25 b3 bf 0d 18 a8 3e
       0.13134357 -0.40991804 -1.3995681 0.3283085
000070 5d af 8b 3e 35 e1 cb 3e 50 d5 7f 3e 6b 44 8d c0
       0.2728223 0.39820257 0.24983716 -4.414602
000080 b3 35 2f c0 41 46 2f be 12 22 9a be 82 3e 3e be
       -2.7376525 -0.17116643 -0.3010412 -0.18578532
000090 db 9b ab c0 8d b6 0c 40 b0 b5 a1 c0 e0 7f 8b 3d
       -5.3627753 2.198642 -5.0534286 0.068114996
0000a0 a0 15 7d be b0 cf 55 c0 ab 0a 1d be fb 00 82 c0
       -0.2471528 -3.3408012 -0.15336101 -4.0626197
0000b0 99 1b 0a 3e 45 56 e1 bd ae 56 08 c0 e5 9a c6 3d
       0.1348709 -0.11002783 -2.1302905 0.096975125
0000c0 e2 f6 b4 c0 a6 c8 25 bc
       -5.655137 -0.010118639

f2_fc2.bias f4 [10]
000000 96 81 98 41 5f 17 09 c0 ed c3 cf 40 0e 6c b2 bf
       19.063274 -2.1420515 6.4926667 -1.3939226
000010 33 10 5c 40 70 51 29 3f 35 c1 8e 40 b3 be a2 40
       3.4384887 0.6613989 4.461085 5.0857787
000020 e9 d1 59 40 2c 10 c4 40
       3.403437 6.126974

f2_fc3.weight f4 [5, 10]
000000 79 f7 e1 bf 3b 4a 35 c0 f2 32 5c 3f 81 81 90 bf
       -1.7653648 -2.8326557 0.86015236 -1.1289521
000010 8d 40 83 bb 93 b1 8c 3e c3 9c 81 bf ed 9f 05 c0
       -0.004005498 0.27479228 -1.0125965 -2.087886
000020 71 1c 68 c0 9d 8a d3 bf 0e 73 ee bf 11 49 ad bf
       -3.626736 -1.6526676 -1.8628862 -1.3537923
000030 34 f6 90 be 93 85 dd c0 6c 4f 91 40 c4 3b 31 bf
       -0.28312838 -6.9225554 4.540945 -0.6923182
000040 3f 3d 12 c0 48 dd 49 40 45 48 b5 c0 cb 24 ac c0
       -2.2849882 3.154131 -5.665072 -5.3794913
000050 f3 ad 89 bd 67 3b 83 bd 37 61 f1 3e 90 fd 83 3f
       -0.06722631 -0.064078145 0.47144482 1.0311756
000060 48 02 57 bf c7 f3 4c 3e 0d 43 9b be 21 9a ae be
       -0.83987856 0.20014869 -0.30324593 -0.34101966
000070 ff ec 14 c0 78 d1 fd 3e 07 ea 99 bf c5 5b c9 bf
       -2.326965 0.49573874 -1.2024544 -1.5731131
000080 a8 90 25 3e 7d 6f 15 bf 5d 86 bc 3d 0d dc 22 3d
       0.16168463 -0.5837324 0.09205315 0.039760638
000090 e3 d7 3a bf a4 af 30 3e 0e 9b 42 c0 43 3a c2 bf
       -0.72985667 0.17254502 -3.0407138 -1.517403
0000a0 98 3b 1c be 84 cf 88 bd c0 cd a7 bf 3e 78 8a 3f
       -0.15257108 -0.066802055 -1.3109665 1.0817945
0000b0 8e 4e f3 bf 70 f5 5b 3e ec 2b ed 3d 27 4d b7 be
       -1.9008348 0.21480346 0.11580643 -0.3580105
0000c0 f0 a3 89 3f 1e a4 a7 3e
       1.0753155 0.327424

f2_fc3.bias f4 [5]
000000 23 a5 14 3f 8a 59 8b 3f c0 e6 f3 be eb cd 14 be
       0.5806448 1.08867 -0.47636986 -0.14531676
000010 50 75 c3 3e
       0.3817544

f2_fc4.weight f4 [1, 5]
000000 bc 60 88 bf 10 2c 38 bf dc b6 1e bf 74 93 f5 3f
       -1.0654521 -0.71942234 -0.6199777 1.9185624
000010 ae 8d 16 3f
       0.58809936

f3_fc1.weight f4 [5, 2]
000000 77 59 93 3e f2 08 f2 be 43 64 04 3f 91 23 0e 3f
       0.28779194 -0.4727245 0.5171549 0.5552302
000010 6d 43 23 3f 6b 78 f8 3d 0b 50 d0 3e d7 a1 0f 3f
       0.6377476 0.12132343 0.40686068 0.56106323
000020 df 7a 28 3f fe 07 53 3a
       0.65812486 0.0008050202

f3_fc1.bias f4 [5]
000000 ba 14 8e bf b3 67 a0 bd 4c dc 83 bf 0b 36 23 bf
       -1.1100075 -0.07832279 -1.0301604 -0.6375434
000010 15 2d e9 3c
       0.02846388

f3_fc2.weight f4 [10, 5]
000000 47 f2 a8 3e 06 46 b3 3e 5c f4 8c 3e d9 dc 0d be
       0.32997343 0.3501436 0.2753018 -0.13853778
000010 a8 30 ff 3d ba 4d 74 bc 69 0f 6b 3d 8a 6a 95 3e
       0.12460452 -0.01491111 0.057387743 0.29182845
000020 a7 13 8f 3e 15 66 e0 bd 14 39 83 3e 44 8e 0d 3d
       0.2794468 -0.109569706 0.25629485 0.034559503
000030 ef 3c c6 be a0 90 a5 3e 88 a8 81 3e 4f af 38 3e
       -0.38718364 0.32336903 0.25323892 0.18035625
000040 2f b1 be be 12 ab e5 3e bd a2 69 3d f7 da ec 3d
       -0.37244555 0.4485708 0.057039965 0.11565202
000050 da 18 98 3e 26 81 c4 3e ae f9 0c 3e 72 94 2f 3d
       0.2970646 0.38379782 0.1376712 0.042866178
000060 e1 83 b7 be a0 c7 d9 3e 85 a8 18 3d 4d 21 49 3e
       -0.35842803 0.42535114 0.037270088 0.1964161
000070 84 fa 5d 3e 7a 41 3b 3d 70 33 eb 3e 08 07 19 be
       0.21677595 0.04571674 0.4593768 -0.14944088
000080 34 e6 1f 3e 24 79 4a 3e b8 ae 89 be 0f 91 a0 be
       0.1561516 0.19772774 -0.26891112 -0.3136067
000090 16 a9 ec bd bc f6 a0 be 73 a3 99 3e ff fc b6 bc
       -0.11555688 -0.31438243 0.30007514 -0.022337435
0000a0 37 51 cc 3e 7e bc 79 be a2 8a aa 3e 3f 9d c0 bd
       0.39905712 -0.2438831 0.33308893 -0.09404992
0000b0 36 a6 ab 3d a2 f6 9a bb c2 ab 97 bb e9 58 34 3e
       0.083813116 -0.004729108 -0.0046286294 0.17612042
0000c0 bd 77 83 3e 9d d9 d2 be
       0.2567729 -0.4118165

f3_fc2.bias f4 [10]
000000 ac 0b 95 bd 25 42 6e 3e ed 8a 87 be a0 7a 3b bf
       -0.07277617 0.2326742 -0.2647318 -0.73233986
000010 52 0b bf bf c4 75 28 bf f4 82 5b bf 03 22 4b 3f
       -1.492533 -0.65804696 -0.85746694 0.7934877
000020 4f a4 46 c0 0a a3 c9 3d
       -3.1037786 0.0984555

f3_fc3.weight f4 [5, 10]
000000 38 e9 7f be dd 09 b8 bd 55 07 0b 3e ff f0 de be
       -0.2499131 -0.08986256 0.13577016 -0.4354324
000010 5a 82 84 3e 48 46 7d bd d5 61 fa be cc ed c0 be
       0.258807 -0.061834604 -0.48902765 -0.37681425
000020 fa 3a 57 3f 2d 53 30 3e 2a 57 55 be 42 2a f1 bc
       0.84074366 0.17219229 -0.20834032 -0.029439095
000030 38 50 3b 3e 2e 09 1c 3b 07 60 b4 bd 01 ab ab 3e
       0.1829232 0.0023809182 -0.08807378 0.33528903
000040 fa f5 17 3e c4 19 46 bd 49 19 d0 3d 02 4b 26 be
       0.14839926 -0.048364416 0.10161073 -0.1623955
000050 94 87 5b 3e 71 a2 f1 3d 0e a6 98 3e 13 df 0b be
       0.21438438 0.11798561 0.2981419 -0.13659315
000060 0d 23 2c be 01 f8 a5 be fa 8c 54 3e f7 e3 43 3e
       -0.16810246 -0.32415774 0.20756903 0.1912993
000070 27 ec ee bd c9 74 de bc 49 a9 77 3e 50 9d 5b be
       -0.11666136 -0.027155297 0.24185671 -0.21446729
000080 d0 f3 8f bd a3 15 40 be 97 a7 27 be d5 fe 66 3e
       -0.070289254 -0.18758254 -0.16372524 0.22558148
000090 36 f3 6d 3d 7b b0 47 3f e2 a7 d4 3e 75 af 3c be
       0.058093272 0.7800366 0.41534334 -0.18426307
0000a0 f4 14 e4 3d c6 5d c5 bd af 21 04 be d9 81 88 be
       0.11136809 -0.096370265 -0.12903474 -0.26661566
0000b0 b2 eb 5a bc f6 79 5d 3e 7c 22 4e 3e 40 59 55 3e
       -0.013361858 0.21628556 0.20130342 0.20834827
0000c0 c7 38 b2 be 99 f2 97 3d
       -0.34808943 0.07419319

f3_fc3.bias f4 [5]
000000 61 d3 31 bf b8 01 b5 be f1 18 ea be ba eb 89 3e
       -0.69463164 -0.35352874 -0.45722154 0.26937658
000010 b5 0c 8b bd
       -0.06789533

f3_fc4.weight f4 [1, 5]
000000 f4 99 4a be a4 29 f6 bd 9b 2d ca bd 1a 80 47 3d
       -0.19785291 -0.12019661 -0.0987198 0.04870615
000010 a3 e0 7f 3d
       0.06247009
