data/Wildfire/Poly/seed=250/Wildfire.pth (torch, 10080 bytes, 21 tensors)

f1_fc1.weight f4 [5, 2]
00000000: 385f 92be eb4d a53f 83f8 a03d b2ab 62bd
00000010: fa23 82bd aa39 c73d 0450 8a3d b888 ec3d
00000020: ee8b 2a3c f375 92be
-0.2858827 1.2914404 0.078599 -0.055339523 -0.06354518 0.097277954 0.06753543 0.115495145
0.010409338 -0.28605613

f1_fc1.bias f4 [5]
00000000: 3f50 39c1 a055 0040 6635 0441 2080 61bf
00000010: dd21 99c0
-11.582091 2.0052261 8.263037 -0.8808613 -4.7853837

f1_fc2.weight f4 [10, 5]
00000000: cd93 a13e 341f 9b3e e718 f53f 6d6a 09be
00000010: e30d 483f d029 27be c4b6 2b3f d011 ad40
00000020: ecf1 903e 6f85 903f 8536 23be 6717 28bf
00000030: 13f3 c6c0 9a0e 543f 26f0 923f 57a0 09be
00000040: c447 cb3e e1fd 593f 5ffa b13e b003 963f
00000050: d124 19c0 bd3a 6f3e ff21 15c0 72a5 c4be
00000060: 7ec5 d83e c151 583f b7ab 083e 1173 b7be
00000070: 4415 fd3b 1d09 af3e 473f 543f 41e0 923e
00000080: 0162 d9bf 4f11 68bd 447a 473f 9c10 663f
00000090: 433e e03d cde1 3440 0d9a 8eba 3d42 5040
000000a0: d25b 9ebf 03f1 29c0 8449 9d40 1b6a f13d
000000b0: e340 85c1 6a57 e23e 1323 d0bf 0b5e 13c0
000000c0: 1f1d b9bf 99f5 95c0
0.31558076 0.30297244 1.9148225 -0.13419504 0.7814619 -0.16324544 0.67075753 5.4084244
0.28309572 1.1290721 -0.15938766 -0.6566071 -6.217172 0.8283478 1.1479537 -0.13440071
0.3970319 0.85153013 0.3476133 1.1719875 -2.392872 0.2336225 -2.3302 -0.38407475
0.42338175 0.84499747 0.13346754 -0.35829976 0.0077234823 0.3418664 0.82909054 0.28686717
-1.6983033 -0.05665713 0.7792094 0.89869094 0.109493755 2.8262818 -0.0010879651 3.2540429
-1.2371771 -2.6553352 4.915224 0.11787816 -16.656683 0.44207317 -1.6260704 -2.302615
-1.4462012 -4.68623

f1_fc2.bias f4 [10]
00000000: ef6f 99bf 30db 843f 2f24 ddc0 5959 a83e
00000010: 7803 0640 6f62 11bf ccb2 75bf 4b52 2240
00000020: 9560 1341 1ff3 1a40
-1.1987284 1.0379391 -6.910667 0.32880667 2.0939617 -0.5679082 -0.9597595 2.5362728
9.21108 2.421089

f1_fc3.weight f4 [5, 10]
00000000: 6967 80be cea4 0dbd 7fc6 063e cc9e 56bf
00000010: 0333 f3bf fbb1 b2c0 94e3 993f e67a 34c0
00000020: 4ede 00c1 7d6f 43bf dce3 43bf 4b9b 1abf
00000030: eb21 8fbf 4336 6b3f 8b11 d03d 5bdd 53be
00000040: 35ac 4d3f 9a38 99be 0144 eabf 151d 5dbf
00000050: 1135 14bf 0d62 89be 3526 f1be 1dd1 723e
00000060: 7f35 afbd 39cc 4fbb cb66 4a3e e7b1 053c
00000070: d7a8 09c0 eafe 4e3f 67c4 39bf 782f 0dbf
00000080: 6d56 1cbf 0380 063f c2ef 06bd 2210 413e
00000090: 3518 433e 99a7 febd 69bf 04c0 7b44 9f3e
000000a0: 09ce 83be 67b0 dfbe 6806 45bf a74a 803e
000000b0: 8067 77bf 1fd2 743f 508e e9bd 6691 39bf
000000c0: 9253 17c0 7478 113f
-0.25078896 -0.034580998 0.13161658 -0.83836055 -1.8999943 -5.584226 1.2022576 -2.8200011
-8.054274 -0.7634199 -0.7651956 -0.6039321 -1.1182226 0.9187967 0.10159596 -0.20689909
0.8034089 -0.29925996 -1.8302003 -0.863725 -0.5789347 -0.2683262 -0.47099462 0.23712583
-0.085551254 -0.003170742 0.19765775 0.008160091 -2.1509302 0.8085772 -0.7256531 -0.55150557
-0.61069375 0.5253908 -0.032943495 0.1885381 0.19052203 -0.124343105 -2.0741827 0.31106934
-0.2574313 -0.43689272 -0.769629 0.25056955 -0.96642303 0.9563312 -0.11404097 -0.72487485
-2.3644757 0.5682442

f1_fc3.bias f4 [5]
00000000: 9f4d 5e40 2324 a6bf da7e c23b 3c88 aabe
00000010: aed5 f1bd
3.4734876 -1.2979778 0.005935532 -0.33307064 -0.11808334

f1_fc4.weight f4 [1, 5]
00000000: 6da3 28bf 8745 16bd 22a8 643f de2c 16bf
00000010: 92bd 19bf
-0.6587437 -0.0366874 0.8931905 -0.5866221 -0.60054886

f2_fc1.weight f4 [5, 2]
00000000: 1126 113f 3fab 2abe afd0 193e 33b9 c0bc
00000010: d90f b13d c6ab 87bf b417 07bd 0d90 773f
00000020: 1257 493f 9d89 2abf
0.5669871 -0.16666888 0.15021013 -0.02352581 0.08645601 -1.0599296 -0.03298159 0.9670418
0.78648484 -0.6661623

f2_fc1.bias f4 [5]
00000000: 8d3e a7c1 2ee4 88c1 f1f3 0241 b881 61c1
00000010: 76d2 f13f
-20.905542 -17.111416 8.184556 -14.09417 1.8892353

f2_fc2.weight f4 [10, 5]
00000000: 3031 27bd 603f 493f 97f0 7a3c ce90 8cbd
00000010: 13c3 973b da9f d13f 99a2 45c0 2141 d93c
00000020: e933 80bc d61b d7be 0f8b 32bf ce1f a9c0
00000030: f2e7 fb3d 588f 13c1 642e b23d e79b cdbf
00000040: 8433 083f fbe9 8dbe 7a8c 8c3e 0fc5 4b3f
00000050: c52c 37bf af5f 8cc0 c6f1 d6bd 4765 71be
00000060: 4331 5e3e e141 c63e 9ca0 a4bd 24aa 9c3e
00000070: b77a d53d 4058 80be 92f0 36bf ba7a 91c0
00000080: 40ab 5cbe 2f4c 71be 32d6 5d3e 87e4 fb3c
00000090: 1dba c13e 8fd5 503e cfd1 c3bf 6b13 98bd
000000a0: 0ec0 27bf fec8 f1bf efd8 3e3d e7e0 dac0
000000b0: c201 213e d429 95be 9b0f 23c0 5daa 233e
000000c0: 9697 9cc0 2237 93bc
-0.040818393 0.7861233 0.01531615 -0.06863557 0.004631409 1.6376908 -3.0880492 0.026520314
-0.015649753 -0.42013425 -0.69743437 -5.2851324 0.123000994 -9.222496 0.087002546 -1.6063203
0.53203607 -0.27717575 0.27450925 0.7959756 -0.7155269 -4.38668 -0.104953334 -0.2357379
0.2169848 0.38722137 -0.08038446 0.30598557 0.104237966 -0.2506733 -0.7146083 -4.5462313
-0.21549702 -0.23564218 0.2166374 0.030748619 0.37837306 0.20393966 -1.5298404 -0.07425579
-0.6552743 -1.8889463 0.046593603 -6.839954 0.15723327 -0.29133475 -2.5478275 0.15982957
-4.893504 -0.017970625

f2_fc2.bias f4 [10]
00000000: 34ab e2bf 4653 26bf 75d8 a940 507f 3b3f
00000010: 7632 9540 de0d 8ec0 1b68 8c40 7571 7bbe
00000020: bd97 4140 514a 6340
-1.7708497 -0.64970815 5.307673 0.7324114 4.66241 -4.439193 4.387708 -0.24554999
3.0248864 3.551411

f2_fc3.weight f4 [5, 10]
00000000: cb34 f7bf 1c56 edbe e5df 2e3f 7310 b8bf
00000010: 2e19 d43e dc0e 8f3d 6542 0ec0 47ef 0ec0
00000020: 6454 79c0 f176 09c0 999c 04bf 8ddd 49be
00000030: 7d1e 0d3e 37a7 17c0 7e43 a23f ae0a 29be
00000040: 2b1f f1bf 79c1 2dbf bbde 70bf ff68 23bf
00000050: fde3 10bd d962 2cbe c980 003f 02ed 863f
00000060: 33ba 67bf 6e51 573e 8b69 0cbf ea66 77be
00000070: e61a 12c0 3763 0a3f 1427 ecbf be1d e0be
00000080: 7b35 8bbe 5f87 70c0 c5be 13bf 222f 15bc
00000090: 412f febf 6a44 93bf 6ef9 57c0 6433 d2bf
000000a0: f814 2cbe a594 2dbe 26f4 aabf da41 883f
000000b0: b022 eabf e3e3 583e afa7 b93e a650 d0be
000000c0: 6426 843f 0636 973e
-1.9312986 -0.4635476 0.68310386 -1.438002 0.4142546 0.06985256 -2.2228024 -2.2333543
-3.8957758 -2.1478846 -0.5180145 -0.19713421 0.13781162 -2.369581 1.2676847 -0.1650798
-1.8837637 -0.6787334 -0.9408986 -0.63832086 -0.035373677 -0.16834582 0.5019651 1.0541079
-0.9051849 0.21027157 -0.54848546 -0.24160352 -2.2828918 0.5405764 -1.8449426 -0.4377269
-0.2718924 -3.7582624 -0.57712966 -0.009105476 -1.9858171 -1.1505253 -3.374599 -1.6421933
-0.16804874 -0.16951235 -1.3355758 1.0645096 -1.8291836 0.21180682 0.36260745 -0.4068653
1.0324216 0.29533404

f2_fc3.bias f4 [5]
00000000: 01c6 333f 2a9c d43e 0a61 05bf dcd2 d43e
00000010: 4ee1 dc3e
0.70224005 0.41525394 -0.52101195 0.41567123 0.43140644

f2_fc4.weight f4 [1, 5]
00000000: 7161 9dbf 4b73 06bf a325 1bbf f982 d73f
00000010: 13a8 193f
-1.2295362 -0.52519673 -0.60604304 1.6836845 0.60022086

f3_fc1.weight f4 [5, 2]
00000000: a1d3 2e3f 2219 e3be abc3 99bc a8af 88bb
00000010: a0f4 903d a948 773c 83dd 033f 8c62 acbe
00000020: 5761 e8bc 7d3a c6bb
0.6829167 -0.44355112 -0.01877006 -0.0041713305 0.070779085 0.015093007 0.51509875 -0.33668935
-0.028366728 -0.006049453

f3_fc1.bias f4 [5]
00000000: 7eb3 2ebd 8ab7 993f 1b9a b83e 5747 cd3e
00000010: 98f2 4f40
-0.042651646 1.2009137 0.36055073 0.4009349 3.2491817

f3_fc2.weight f4 [10, 5]
00000000: 4c0d cabe c9d2 06bf effa a63c a22a e53e
00000010: 5172 a2be 39a9 32be 1bcd bc3f a478 493d
00000020: f305 793e 7316 4140 ed23 8a3e 3842 2f3e
00000030: 001a e83e 3f9f 06be a5ed 923e f6d3 93be
00000040: 1d00 543f 9882 4a3e 2b9a b33e b0f7 d83f
00000050: 9843 013e e442 47be 1989 303d b038 a63e
00000060: 3072 79bf a4d6 ba3d ab77 5d3e c6a0 a73e
00000070: 385f 8f3e 7430 673f 34df 21be 0c00 12be
00000080: dd29 c83e 17e9 113e b113 5bbe 1c0d d9bf
00000090: 05f3 6abe f8ca 09bf 182c bdbf 59ba 8040
000000a0: 4650 b9bd 5056 9d3f d936 653e cef6 ae3d
000000b0: 2e3e efbf fc9e ef3d 8bba 073f dd6b 66bb
000000c0: 9cd4 b93e 1522 a0be
-0.3946327 -0.5266538 0.020383326 0.4475909 -0.31727841 -0.17447366 1.4750093 0.049187317
0.24318676 3.0169952 0.26980534 0.17115104 0.45332336 -0.13146685 0.28696933 -0.2887265
0.8281267 0.1977638 0.35078558 1.6950588 0.12623441 -0.1945911 0.043099497 0.32465124
-0.9743986 0.09122971 0.21627681 0.32739848 0.28002334 0.9030831 -0.15807801 -0.1425783
0.3909444 0.14249073 -0.2139423 -1.6957126 -0.22944267 -0.5382533 -1.4779081 4.0227475
-0.09048514 1.2291965 0.22384204 0.08543168 -1.8690851 0.11700246 0.53019017 -0.0035159506
0.3629502 -0.31276003

f3_fc2.bias f4 [10]
00000000: df6e b33e dca3 b03f a5ad d4bd c24b d7be
00000010: ddc0 afbe 93c5 603c f98a bd3e 1222 e83f
00000020: ba37 ddbe 185b 603f
0.35045525 1.3800006 -0.103846826 -0.42049986 -0.3432683 0.01371898 0.3702009 1.8135397
-0.43206578 0.87639

f3_fc3.weight f4 [5, 10]
00000000: 8bd6 013e 93a6 933e ccf1 4f3e 6982 7b3e
00000010: ce22 debd 82f9 8f3e dbc0 babe 455f d83f
00000020: 6b41 d1bf 17d2 77be 953b a83d c974 bb3e
00000030: efea 753c 2c14 1a3e d105 63be 1f14 203e
00000040: 6265 c3be 126f 853f b5f8 c8bf 1c79 4a3d
00000050: ab8d 343c acb1 063e 55b5 56be fcbf 94be
00000060: a560 3f3e 556c 833e ac25 bd3d 9440 5a3f
00000070: e221 5bbe 7f92 a1be 3a4c 243e b4c4 0fbf
00000080: 0f03 133e c63e 71be afdf 52be ab26 24bd
00000090: 9187 72be 8de2 b2be 7a9a 313e 092d 0e3e
000000a0: bd59 ac3e 20c8 0dbf bc7d 063c edd0 92be
000000b0: 373d a93e 13ce 09bf 686f 543e 6ad8 32bf
000000c0: 991c 5c3e d269 103e
0.12679498 0.28838024 0.20307082 0.24561466 -0.10846482 0.28120047 -0.36475262 1.6904074
-1.6348089 -0.24201237 0.08214489 0.36612538 0.015009626 0.15046757 -0.22170188 0.15632676
-0.38163286 1.0424521 -1.5700899 0.049431905 0.011020104 0.13153714 -0.2096761 -0.29052722
0.1868921 0.25668588 0.09235701 0.8525479 -0.21399644 -0.3155708 0.16044703 -0.5615952
0.14356636 -0.23559102 -0.20593141 -0.04007594 -0.23684527 -0.3493847 0.17344084 0.13884367
0.33662215 -0.5538349 0.008208688 -0.28675023 0.33054516 -0.5383007 0.20745623 -0.6986147
0.21495284 0.14102867

f3_fc3.bias f4 [5]
00000000: afcb 1c3e dc22 933e 777f 263f 8480 98be
00000010: 2c08 013f
0.15312074 0.28737533 0.65038246 -0.2978555 0.50403094

f3_fc4.weight f4 [1, 5]
00000000: 2da4 4bbf 3d07 303f a8e0 393f 53bd 39bf
00000010: 2d25 933e
-0.7954739 0.68761045 0.72608423 -0.7255451 0.287393
