data/Crossing_waves/Poly/seed=5/Crossing_waves.pth (torch, 8696 bytes, 14 tensors)

f1_fc1.weight f4 [5, 2]
000000 5e 87 19 3f 1c da 29 c0 ed aa d0 3c 97 04 dd 3d
       0.5997218 -2.6539373 0.025472129 0.10791891
000010 dc 94 dd 3e 69 d2 11 3f 04 d0 0e 3e e2 30 0c bf
       0.43277633 0.56961685 0.13946539 -0.5476209
000020 a9 b7 cc bd 46 a4 12 3f
       -0.09995968 0.5728191

f1_fc1.bias f4 [5]
000000 15 84 30 c1 41 b7 10 41 69 d6 9d c0 78 86 cd c0
       -11.032247 9.04474 -4.932423 -6.4226646
000010 3f b8 83 3f
       1.0290602

f1_fc2.weight f4 [10, 5]
000000 89 ca 07 bf 42 a6 3c 3f 02 49 21 3f a4 ab ae 3e
       -0.5304342 0.7369119 0.63002026 0.34115326
000010 09 08 90 3f a5 49 8e bf dd 5c 75 3f 5a b9 8f 3e
       1.1252452 -1.1116225 0.95844823 0.280711
000020 18 bd 4c 3f db 82 38 3e 5b 13 43 bf f4 00 ba 3f
       0.79976034 0.18018667 -0.7620141 1.4531541
000030 83 82 b0 bf 0b ca 5e c1 16 17 71 bf e0 2d dc be
       -1.3789829 -13.924327 -0.9417585 -0.4300375
000040 d0 6d df bf f4 6d 50 c0 aa 3a e6 c0 b6 0b bb be
       -1.7455387 -3.256711 -7.194661 -0.36532372
000050 f6 27 12 3f 45 a0 b9 bd 32 85 f7 3d ce 6b e7 bf
       0.57092226 -0.09063772 0.12085952 -1.8079774
000060 37 96 bf bc 25 9d 74 3f e5 ad 0e 3f 23 3a 1a c0
       -0.023387058 0.95552284 0.5573409 -2.4097984
000070 c1 e6 ac 3f 4f ec f5 c0 33 4e 15 ba 7f fa 90 3e
       1.350792 -7.6850963 -0.00056955515 0.28316113
000080 57 36 94 3e da b3 87 40 1c 65 81 bb e2 75 09 3f
       0.28947708 4.2407045 -0.0039488208 0.536955
000090 d7 d0 16 3e cc d5 82 3c ff d2 26 c0 08 0d c0 3b
       0.14728104 0.015971087 -2.6066282 0.0058609284
0000a0 b1 0e 39 be d2 1c 2c 3f 34 14 b8 be 0f 97 fc bf
       -0.1807201 0.67231476 -0.35952914 -1.97336
0000b0 fe 7d 96 3f 01 e1 24 3f c0 e0 ea be e4 f7 8d bf
       1.17572 0.6440583 -0.45874596 -1.1091275
0000c0 20 47 bc c0 9c 32 58 c0
       -5.8836823 -3.378089

f1_fc2.bias f4 [10]
000000 6d f2 26 3e 1f ce 26 c1 5d 60 bf 40 a0 ff ca 40
       0.16303416 -10.425323 5.980513 6.343704
000010 e1 34 5e c0 10 f5 fc 40 1f cc bf 3f 8d 02 25 bf
       -3.4719775 7.904915 1.4984168 -0.6445702
000020 5a cd 54 40 1b 01 63 3f
       3.3250337 0.8867356

f1_fc3.weight f4 [5, 10]
000000 58 f0 28 3f 1b 3c d5 be 92 d0 a0 3e 69 54 98 be
       0.65991735 -0.4164742 0.31409127 -0.297519
000010 fb 23 06 bf 49 e3 ed bf 63 1c ef 3d a2 d0 84 3e
       -0.5239865 -1.8584987 0.11675336 0.25940424
000020 1b 70 91 be 77 72 75 40 4b c0 57 be e2 84 05 3e
       -0.28405842 3.8351114 -0.21069448 0.13038972
000030 ae 12 a0 3e 53 ac 1a be 8e 4b 9d 3e 53 86 ae 3c
       0.3126425 -0.15104799 0.30721706 0.021304285
000040 e2 73 13 3e e2 3f 90 3e 19 72 6b bf 0d b3 82 be
       0.14399675 0.2817374 -0.91970974 -0.2552723
000050 05 fe 55 3f 4e 1e 8c 3e f0 e6 b1 bd d3 48 c5 3e
       0.8359073 0.2736687 -0.08686626 0.38532123
000060 ea fe c6 be 7f 9b 8d 3f d9 13 83 c0 6d 36 8b 3f
       -0.3886636 1.1063079 -4.096173 1.0875984
000070 2c f9 63 bf 7b 74 14 c0 45 5e 24 bd 54 03 1d bf
       -0.8905208 -2.3196094 -0.040128965 -0.61333203
000080 91 fa a2 be 9a 18 22 be b1 e7 ae 3e 03 b7 2f 3d
       -0.31831792 -0.15829697 0.34161142 0.042899143
000090 81 2d 7c 3e 70 64 1b bc f1 41 81 3c 2f c4 b6 3e
       0.24626733 -0.009484395 0.015778514 0.3569655
0000a0 86 72 b2 be 90 54 26 c0 03 87 c7 be 50 c1 1a c0
       -0.34853 -2.5989113 -0.38970193 -2.4180489
0000b0 6b a4 b3 be ef 6c 30 3d fd 4e f7 be 8b 4b 87 3e
       -0.35086378 0.043072637 -0.4830245 0.26424822
0000c0 6b 6f 02 3e 42 63 80 bd
       0.12737815 -0.06268932

f1_fc3.bias f4 [5]
000000 b8 56 6a bd 97 5d 84 bd 31 a4 cd 3f b3 32 0e 3e
       -0.057211608 -0.06463163 1.6065732 0.13886528
000010 06 74 b0 3f
       1.3785408

f1_fc4.weight f4 [1, 5]
000000 91 36 b9 bd 51 a0 98 be 3c 75 1a be 73 51 3c 3e
       -0.09043611 -0.29809812 -0.15083784 0.18390445
000010 a8 e7 b0 be
       -0.3455174

f2_fc1.weight f4 [5, 2]
000000 83 d1 41 3e 33 97 ce bf 04 51 13 3e 25 18 a6 bf
       0.18927579 -1.6139892 0.14386374 -1.2976118
000010 8f be 0c bd 64 85 cf 3e 79 6c be 3d ee 0b dc 3c
       -0.03436142 0.40531456 0.09298033 0.026861157
000020 97 6c 74 3c 74 a6 47 3f
       0.014918468 0.7798836

f2_fc1.bias f4 [5]
000000 2e 93 1f c0 e5 84 2d 40 73 68 02 40 10 18 1e c1
       -2.4933581 2.7112362 2.037625 -9.880875
000010 87 37 2b 40
       2.6752641

f2_fc2.weight f4 [10, 5]
000000 0f e2 da 3e d2 d7 f8 3e 9b bb 98 40 20 5b 65 bf
       0.42750594 0.48602158 4.772901 -0.8959217
000010 3c 1c 92 bf ee 2a 87 c1 04 4a 19 40 bf ba cc 3f
       -1.1414866 -16.895962 2.3951426 1.599449
000020 9e fd 21 41 93 a0 47 c0 d8 ba b8 3d c0 e9 2a 3c
       10.124418 -3.1191757 0.090200126 0.010431707
000030 c4 a9 7f 3e f3 e0 5b 40 4d d7 df 3e f9 36 99 3e
       0.24967104 3.4356048 0.4371895 0.29924753
000040 23 52 ec be 96 d3 13 3f 1e 94 64 c1 56 64 c3 3e
       -0.46156415 0.5774473 -14.286161 0.38162488
000050 61 0c db 3e f3 0f a3 3e 3d b8 ca 3f 73 f4 d9 bf
       0.42782882 0.31848106 1.5837475 -1.7027725
000060 f3 b4 a3 3c 0b 89 58 c0 fd 6b 16 bf 7a 09 4c bf
       0.019983744 -3.3833644 -0.5875853 -0.7970196
000070 d6 30 5c 3d 4b a1 76 3d 58 4f d3 be 60 37 66 3d
       0.05375751 0.060212415 -0.41271472 0.056205153
000080 f1 c2 81 bf 3e ea 50 c0 4a 35 ed 3e 74 c1 f3 3d
       -1.0137616 -3.264297 0.4632972 0.11902133
000090 b0 2d 7b 3e 6e 55 af 3f fd 8f 1a 40 37 c9 3d bd
       0.24529147 1.3697946 2.4150383 -0.04633447
0000a0 18 8d 31 3d 36 27 a0 3e 4c 13 33 3f d4 3d b4 3f
       0.043347448 0.31279916 0.6995132 1.4081368
0000b0 e5 3c 7b 3e 93 3f d0 3d c6 98 25 3e 4e b0 cf 3f
       0.24534948 0.10168376 0.1617156 1.6225679
0000c0 02 e4 6a bf 7e 9c e9 be
       -0.9175416 -0.45627207

f2_fc2.bias f4 [10]
000000 54 fb ee bf 7e 55 ab bf fc 67 3d c0 65 fc 66 3f
       -1.8670449 -1.3385465 -2.9594717 0.90228873
000010 06 b0 47 3f ca 04 4b bf 9a 80 7b 40 3a 0d 3a bf
       0.78002965 -0.7930418 3.9297242 -0.7267643
000020 a5 73 38 3d d0 59 45 bf
       0.045032162 -0.7709017

f2_fc3.weight f4 [5, 10]
000000 2c 39 56 3d 6f f4 02 bf 5a 02 8b 3e 38 53 2c bf
       0.052300617 -0.51154226 0.27150232 -0.6731448
000010 34 7c 20 3f bd 4d da 3d bd 01 41 3f 67 cf ab be
       0.6268952 0.10659359 0.7539328 -0.33556673
000020 75 ec 96 bc f7 88 49 bf 9e 97 2d 3d d0 93 e9 3e
       -0.018423298 -0.78724617 0.04238092 0.45620584
000030 69 2b ce 3d 28 4e ce 3e 2e 2b 86 be f6 01 23 3e
       0.100668736 0.40294003 -0.26204818 0.15918717
000040 bf b5 fc 3d 21 b4 b1 3e 56 c6 bc 3e b3 d1 f4 3d
       0.12339353 0.3470774 0.36870068 0.119540595
000050 05 27 08 c0 5a f5 cd bd 8c c5 af bf 58 04 08 bf
       -2.1273816 -0.10056563 -1.3732162 -0.5313163
000060 1a 05 46 be 70 d1 9f 3f 1c b7 59 3f 5a 05 8f 3f
       -0.19337884 1.248579 0.8504503 1.1173508
000070 92 f1 58 3f 67 63 c7 40 76 a5 26 3e 9e 5c f0 3e
       0.8474361 6.230884 0.16274056 0.4694566
000080 9c 24 40 3f ee d7 02 3f 02 5f 34 be 3e 1e f3 3d
       0.7505586 0.5111073 -0.17614368 0.118710026
000090 81 44 6b bd dc c0 3f 3e 6f 7e 77 be 9a 50 83 3e
       -0.057438377 0.18725914 -0.24169324 0.25647432
0000a0 bf 71 75 be 89 c1 77 3e f5 9b af bf 56 b8 c7 3e
       -0.23969172 0.24194922 -1.3719469 0.39007825
0000b0 86 a2 3b bf 55 8e 17 bf 2f d2 86 3e 84 65 9e 3f
       -0.73294866 -0.59201556 0.26332232 1.237473
0000c0 96 9c 2e 3f b4 50 47 bf
       0.6820768 -0.7785752

f2_fc3.bias f4 [5]
000000 a3 91 0a 3e 1d 57 85 be ae 73 c6 bf a9 f0 23 bf
       0.13532118 -0.26043025 -1.5504053 -0.64039093
000010 69 1a 08 bf
       -0.531653

f2_fc4.weight f4 [1, 5]
000000 6a ba a3 3d 8b e5 d3 be 83 9e d5 be 83 03 a0 3e
       0.0799454 -0.41386065 -0.41722497 0.3125268
000010 f9 7a 10 3e
       0.1410941
