data/Crossing_waves/Poly/seed=3/Crossing_waves.pth (torch, 8696 bytes, 14 tensors)

f1_fc1.weight f4 [5, 2]
0	0xbc3e569b	-0.011617328
1	0x3f0a9003	0.54125994
2	0xbd637146	-0.055527948
3	0xbfb74fb0	-1.4321194
4	0x3d25dfae	0.04049652
5	0xc0525fa2	-3.287087
6	0x3e757080	0.23968697
7	0x3f32e9c7	0.69887966
8	0x3b437ffa	0.0029830919
9	0x3f21b159	0.63161236

f1_fc1.bias f4 [5]
0	0xc0ae1470	-5.439995
1	0x410208d5	8.127156
2	0xc09f1a46	-4.971957
3	0xc0e0f5ab	-7.029989
4	0x408cf921	4.4054112

f1_fc2.weight f4 [10, 5]
0	0xbecd3a31	-0.4008346
1	0x3f299f13	0.66258353
2	0x3f4b5a61	0.7943478
3	0x3f0a6e78	0.5407481
4	0x3e507f67	0.203611
5	0x40da0047	6.812534
6	0xc0969bff	-4.7065425
7	0x3f077e40	0.5292702
8	0x3db07082	0.08615209
9	0x3f228219	0.63479763
10	0xc0850c48	-4.157749
11	0x4064025d	3.5626442
12	0xbfc4b816	-1.5368679
13	0xbde09b3a	-0.10967107
14	0xbf353860	-0.70789146
15	0xbfe97658	-1.8239241
16	0x3f890240	1.0703812
17	0xbeee616d	-0.46558705
18	0xbaf2e6fc	-0.0018531973
19	0xbec50916	-0.38483495
20	0xc0b3b5d7	-5.6159472
21	0x402b419d	2.6758797
22	0xbf9752d4	-1.1822152
23	0xbe77bfc6	-0.2419425
24	0xbea874ab	-0.3290151
25	0xc06ae6ba	-3.6703324
26	0xc04220ce	-3.0332522
27	0x3f23b062	0.63941014
28	0xbf01f723	-0.50767726
29	0x3f1b9d5f	0.60787004
30	0xbfa9eeac	-1.3275962
31	0xc03ed004	-2.9814463
32	0x3e02673d	0.12734695
33	0xbe8cf585	-0.27531067
34	0x3f39586a	0.72400534
35	0x405b6f3a	3.4286637
36	0xbfb535ce	-1.4157045
37	0x3f125c08	0.5717168
38	0x3ef1550b	0.47135195
39	0x3e6d314f	0.23163341
40	0xc085cbba	-4.181119
41	0xbfaeab66	-1.3646057
42	0x3e964953	0.29352817
43	0x3dc8eff9	0.09811396
44	0xbc88ad21	-0.016684117
45	0xc0438b86	-3.0553908
46	0x40024c57	2.0359094
47	0xbf840675	-1.031447
48	0x3d398419	0.045291994
49	0xbef19f65	-0.4719192

f1_fc2.bias f4 [10]
0	0xbf990627	-1.1955003
1	0xc04f957d	-3.243499
2	0x3f9ef763	1.2419246
3	0x3fef7ac1	1.8709337
4	0x40a7abce	5.2397223
5	0x40cd0af5	6.4075875
6	0x3fd12d38	1.6341925
7	0xbf689c66	-0.90863645
8	0x3d2a8ccf	0.04163819
9	0x3f9bc327	1.2168931

f1_fc3.weight f4 [5, 10]
0	0x3aafd4f3	0.0013414904
1	0xbf9806be	-1.1877058
2	0xbec1f8e9	-0.37885216
3	0x3f224c38	0.6339755
4	0xc004c14b	-2.0742977
5	0xbff02cbc	-1.8763652
6	0xbff84006	-1.9394538
7	0xbf1dd114	-0.6164715
8	0x3e17d122	0.14825872
9	0x3ddd7648	0.10813576
10	0xbf1f0941	-0.62123495
11	0xc0884072	-4.257867
12	0xc03a6b65	-2.9128048
13	0xbe199ded	-0.1500165
14	0xc0519ca9	-3.2751868
15	0xc107466f	-8.454696
16	0x40eeafad	7.458945
17	0xbea2c921	-0.31794074
18	0x3eab034d	0.33400956
19	0xbfcfe85c	-1.6242785
20	0xbfdb07c1	-1.7111741
21	0xc0ec67fe	-7.3876944
22	0xc0f944a0	-7.789627
23	0x3eb6c5c5	0.3569776
24	0xc0ad73b4	-5.420374
25	0xbf482999	-0.78188473
26	0x4049585f	3.1460187
27	0x3fa4e0dc	1.2881122
28	0xbf946bd0	-1.1595402
29	0x3ef544e5	0.47904125
30	0xbe47767b	-0.1947879
31	0xc0843eac	-4.1326504
32	0xbfee4ac0	-1.8616562
33	0x3f40a914	0.7525799
34	0xbfc223a6	-1.5167129
35	0xbf41c646	-0.75693166
36	0x3fc1f899	1.5153991
37	0xbbe57eb5	-0.00700363
38	0xbf4056c0	-0.7513237
39	0xbfcf50d4	-1.6196542
40	0xbeb84024	-0.35986435
41	0xbf866da5	-1.0502211
42	0xbf7650b7	-0.9621691
43	0x409de1ae	4.933799
44	0xbfdbb6ae	-1.7165124
45	0xbfc26dca	-1.5189755
46	0xbf8b5b11	-1.0887166
47	0xbe9460cc	-0.289801
48	0x3ea4a77f	0.3215904
49	0xc025f8d0	-2.5933113

f1_fc3.bias f4 [5]
0	0xbe861266	-0.26185912
1	0x4001a6dc	2.0258093
2	0x40914ae6	4.540393
3	0x3ff6a6cc	1.9269652
4	0x3f461ceb	0.77387875

f1_fc4.weight f4 [1, 5]
0	0x3e9677b9	0.29388216
1	0x3f057b77	0.5214152
2	0x3e7ced18	0.24699819
3	0xbe922ae4	-0.28548348
4	0xbf101658	-0.56284094

f2_fc1.weight f4 [5, 2]
0	0x3dc53c24	0.096306115
1	0xbd153b24	-0.036433354
2	0xbaf0d2df	-0.0018373391
3	0x3e766715	0.2406276
4	0xbb26824d	-0.0025407255
5	0x3eb9b5d7	0.36271545
6	0x3ad1aa17	0.0015996125
7	0xbf1b3382	-0.6062547
8	0xbd6c6851	-0.05771667
9	0x404fd334	3.2472658

f2_fc1.bias f4 [5]
0	0xc18934b1	-17.150728
1	0xbdbabcf2	-0.0911807
2	0xbf74a509	-0.95564324
3	0x40146f0c	2.3192778
4	0xc16f59d5	-14.959432

f2_fc2.weight f4 [10, 5]
0	0xbfa7949d	-1.3092228
1	0xbf2cf9a7	-0.6756844
2	0x3f1fac2b	0.6237208
3	0x3e716bbb	0.23576252
4	0x3e5c2a36	0.21500477
5	0x3ef92fb5	0.4866921
6	0xbdf1683d	-0.1178746
7	0xbf85a825	-1.0441939
8	0xbdba1b10	-0.09087193
9	0x3e0de976	0.1385859
10	0x3f9ed63b	1.2409128
11	0x3e8b7290	0.27235842
12	0x3ef8bce7	0.4858162
13	0x3ddecc72	0.108788386
14	0x3d802314	0.062566906
15	0x3ea8595d	0.3288068
16	0xbdebf343	-0.11521008
17	0xbf02faa6	-0.5116371
18	0xbed0837a	-0.4072531
19	0xbe3c3fe1	-0.18383743
20	0xbf93b9bd	-1.1541058
21	0xc00b5495	-2.1770375
22	0xbd4bb754	-0.049735382
23	0x3e044b89	0.1291944
24	0xbea60737	-0.3242738
25	0xbfd46040	-1.6591873
26	0xbf75b8fd	-0.95985395
27	0xbf07cc6c	-0.530463
28	0xbf314292	-0.69242203
29	0x3e809107	0.25110647
30	0x3eb12a9b	0.34602818
31	0x3e41a7ee	0.18911716
32	0x3e564a0e	0.20926687
33	0x3e94ce84	0.2906381
34	0xbc3a293d	-0.011362371
35	0x3d472e78	0.0486283
36	0x3e007b67	0.12547074
37	0x3f0c7d1e	0.54878414
38	0x3f363bf7	0.7118525
39	0x3f53bc94	0.8270962
40	0xc0427c31	-3.03883
41	0xbfc354f5	-1.5260302
42	0x3ebbae59	0.36656454
43	0x3eddf21a	0.4334877
44	0x3c32cdc6	0.010913318
45	0xbfc13795	-1.5095087
46	0x4012d4d1	2.2942393
47	0x3f8d8524	1.1056256
48	0x3f8a144b	1.0787443
49	0xbfa16299	-1.2608215

f2_fc2.bias f4 [10]
0	0x3fd6ef74	1.6791825
1	0x3e14719d	0.14496465
2	0xbf81042e	-1.00794
3	0x3fa93e0b	1.3222059
4	0x3eb6ab5e	0.35677618
5	0x40251fd6	2.580068
6	0xbfc29208	-1.5200815
7	0x3ea67be7	0.32516405
8	0x3f13fda8	0.57808924
9	0xc00e912f	-2.2276113

f2_fc3.weight f4 [5, 10]
0	0xbf171e94	-0.59031034
1	0x3ef88b0c	0.48543584
2	0x3e26ab10	0.16276193
3	0xbf064b8f	-0.52459043
4	0x3d2ddb7b	0.04244564
5	0xbfb621ab	-1.4229025
6	0x3f23ba4b	0.63956136
7	0x3f156294	0.58353543
8	0x3d91be1e	0.0711634
9	0xbf75d234	-0.9602387
10	0xbf0e54de	-0.5559825
11	0xbd04c693	-0.032415938
12	0x3ea70149	0.32618168
13	0x3e22cd5c	0.15898651
14	0x3f272258	0.6528678
15	0xbeeb2dcc	-0.45933378
16	0xbeafd515	-0.34342256
17	0x3e8569ec	0.26057374
18	0xbf1f3047	-0.6218304
19	0xbf397397	-0.72442
20	0x3d100ec0	0.035170317
21	0x3e9833a7	0.29726908
22	0x3e7c79d8	0.24655855
23	0x3e4155ee	0.18880436
24	0x3ed20369	0.41018227
25	0x3f437665	0.7635253
26	0xbfaa3757	-1.3298138
27	0x3e60cf0a	0.21953979
28	0x3f2ec5a1	0.6827031
29	0xbeec3203	-0.46131906
30	0x3ea954ff	0.3307266
31	0xbd85684d	-0.065140344
32	0xc0145d4c	-2.3181944
33	0x3e3a42bd	0.18189521
34	0x3e7ad154	0.24493915
35	0x3db92e4e	0.09042035
36	0xbf683d60	-0.9071865
37	0x3dba6de6	0.09102993
38	0xbcd55031	-0.026039215
39	0xbe0763af	-0.1322162
40	0x3eaa3e20	0.33250523
41	0x3e0bee9e	0.13665244
42	0xbe95c4bb	-0.29251656
43	0x3e6db462	0.23213342
44	0xbedf0fd8	-0.43566775
45	0xbf553e94	-0.8329861
46	0x3f107e26	0.5644249
47	0x3e94eb1f	0.29085633
48	0xbeb4c470	-0.3530612
49	0x3b9d1e62	0.0047948817

f2_fc3.bias f4 [5]
0	0xbf12851e	-0.5723437
1	0x3e5ec7b1	0.21755864
2	0x3f5baefc	0.8581388
3	0x3ec5c6dc	0.3862828
4	0xbe7abd23	-0.24486212

f2_fc4.weight f4 [1, 5]
0	0xbe7f610a	-0.24939361
1	0x3edb9198	0.42884517
2	0xbe143b6a	-0.1447579
3	0x3effbb60	0.49947643
4	0x3f0bef25	0.5466178
