data/Wildfire/Poly/seed=274/Wildfire.pth (torch, 10080 bytes, 21 tensors)

f1_fc1.weight f4 [5, 2]
0.1277549 1.7630265 0.15703745 -0.12179385 -0.081415735 0.20205113 -0.06823971 0.38708267
0.028870048 -0.05184554
00000000: 2ed2 023e daaa e13f 6dce 203e 0e6f f9bd
00000010: 4bbd a6bd 7ee6 4e3e 43c1 8bbd b32f c63e
00000020: e180 ec3c fd5b 54bd

f1_fc1.bias f4 [5]
-14.30563 1.7510115 11.902571 -1.1161934 -6.310832
00000000: dce3 64c1 2521 e03f ee70 3e41 6ddf 8ebf
00000010: 56f2 c9c0

f1_fc2.weight f4 [10, 5]
0.3500691 0.14831589 2.2329652 -0.2722225 -0.11109669 -0.07225214 0.35030454 0.024592085
0.19600041 2.9393318 0.09146577 -0.21002181 -2.7984116 0.22826388 1.3526798 -0.12895368
0.55639964 0.40085146 0.36610362 2.0981908 -0.13948156 -0.4249443 3.0056584 -3.1396177
-0.32545683 0.87851584 0.2512725 -0.019291922 0.1534366 0.49783143 0.81298196 0.2184478
-2.7844627 0.001640166 0.4233393 0.8754951 0.13449226 2.0096145 0.018855795 3.235395
-2.3546412 -4.879253 -0.74399066 1.7722745 -13.953931 0.33508745 -0.18835503 -2.3811657
-0.123668365 -4.544885
00000000: 423c b33e 1fe0 173e e7e8 0e40 bf60 8bbe
00000010: a986 e3bd eef8 93bd 1e5b b33e 5775 c93c
00000020: 55b4 483e 031e 3c40 6852 bb3d f50f 57be
00000030: 2d19 33c0 02be 693e 9d24 ad3f 6f0c 04be
00000040: 3570 0e3f 673c cd3e ef71 bb3e c248 0640
00000050: 41d4 0ebe 4d92 d9be b55c 4040 7fef 48c0
00000060: 47a2 a6be 6ae6 603f caa6 803e 180a 9ebc
00000070: 7c1e 1d3e c3e3 fe3e 961f 503f c8b0 5f3e
00000080: a334 32c0 d7fa d63a eebf d83e 7220 603f
00000090: 57b8 093e 869d 0040 7877 9a3c b610 4f40
000000a0: 71b2 16c0 d722 9cc0 2c76 3ebf e4d9 e23f
000000b0: 4d43 5fc1 9590 ab3e 24e0 40be 0565 18c0
000000c0: d745 fdbd b36f 91c0

f1_fc2.bias f4 [10]
0.15917316 0.15447167 -6.165569 -2.2045429 2.6314945 -0.7380984 -0.92704654 2.7456665
7.089201 2.4078493
00000000: 4afe 223e d22d 1e3e 574c c5c0 3b17 0dc0
00000010: 686a 2840 04f4 3cbf ec52 6dbf 00b9 2f40
00000020: bcda e240 341a 1a40

f1_fc3.weight f4 [5, 10]
0.34933943 1.2214167 -2.2492995 -0.12224821 -8.64633 -7.4109173 3.1713905 -0.237765
-11.0409 0.8839922 -0.7063269 -1.3720944 -1.4269519 0.6923044 0.027973045 -0.035138037
0.7612974 -0.040130246 -0.7168469 -0.96666855 -0.53995436 -0.15287794 -0.68591744 0.16715008
-0.34693903 -0.025531022 0.12818006 -0.005559665 -2.1475904 0.841678 -0.6716104 -0.35082382
-0.692552 0.5775813 -0.60167557 0.20785657 0.2094507 -0.08367316 -2.57635 0.40426025
-0.1394894 -0.38698345 -0.79457915 0.3198279 -0.20994864 0.8512045 0.13600822 -1.0451217
-2.0837939 1.0570793
00000000: 9edc b23e 6257 9c3f 86f4 0fc0 455d fabd
00000010: 5e57 0ac1 3c26 edc0 10f8 4a40 ab78 73be
00000020: 87a7 30c1 504d 623f d7d1 34bf caa0 afbf
00000030: 5ca6 b6bf dc3a 313f ba27 e53c e7ec 0fbd
00000040: 63e4 423f 9d5f 24bd 4783 37bf 9777 77bf
00000050: 733a 0abf 098c 1cbe 4998 2fbf 6429 2b3e
00000060: fea1 b1be 6f26 d1bc a241 033e da2d b6bb
00000070: 1f72 09c0 3678 573f a9ee 2bbf 2e9f b3be
00000080: 164b 31bf 5edc 133f 6907 1abf 5ad8 543e
00000090: 3f7a 563e d55c abbd ebe2 24c0 33fb ce3e
000000a0: 4fd6 0ebe b222 c6be 8a69 4bbf 7cc0 a33e
000000b0: c7fc 56be 8ae8 593f bd45 0b3e 8cc6 85bf
000000c0: e15c 05c0 604e 873f

f1_fc3.bias f4 [5]
6.2318063 -2.4125285 0.10058307 0.17601861 -0.46212333
00000000: f56a c740 de66 1ac0 7ffe cd3d 393e 343e
00000010: 6e9b ecbe

f1_fc4.weight f4 [1, 5]
-0.85132396 -0.35363686 1.1325443 0.024542196 -0.74829066
00000000: 5ef0 59bf e40f b5be 36f7 903f b70c c93c
00000010: fa8f 3fbf

f2_fc1.weight f4 [5, 2]
0.28248706 -0.17497832 0.050489146 -0.061578155 0.07891327 -0.3413833 -0.11815735 0.6267633
0.4999051 -1.1045521
00000000: 25a2 903e 842d 33be b5cd 4e3d 6039 7cbd
00000010: 489d a13d cbc9 aebe 7bfc f1bd 8f73 203f
00000020: 90f3 ff3e f761 8dbf

f2_fc1.bias f4 [5]
-12.719313 -15.230677 7.441156 -19.628725 -1.8391407
00000000: 4e82 4bc1 dab0 73c1 f31d ee40 a107 9dc1
00000010: f668 ebbf

f2_fc2.weight f4 [10, 5]
0.3710873 7.68911 0.1914273 -1.3511329 -0.025093937 0.32551187 -2.608382 -0.8117587
-0.14839557 0.08273227 -1.5978912 -8.605379 2.328767 -3.684702 -0.48909977 0.02163133
0.3412146 0.1216518 0.34042045 -0.020199653 -0.49043927 -3.0059018 0.63865453 -0.1455238
-0.10276734 -0.09509935 -1.2268171 0.12591875 0.27850097 -0.015970115 -0.9284774 -5.0574846
-1.6201386 -0.27255917 0.6406236 -0.51319087 -3.3278904 0.39965594 -3.3170145 -0.085258916
-0.41748545 -1.5397984 0.52458465 -1.2253838 -0.109547615 -1.2477589 -2.2890255 -0.02008385
-4.2002482 0.17269717
00000000: 28ff bd3e 300d f640 8505 443e ecf1 acbf
00000010: cd91 cdbc 7ea9 a63e bbef 26c0 6bcf 4fbf
00000020: 02f5 17be 896f a93d b387 ccbf a2af 09c1
00000030: 850a 1540 28d2 6bc0 496b fabe 3034 b13c
00000040: aeb3 ae3e 9424 f93d 974b ae3e be79 a5bc
00000050: db1a fbbe b260 40c0 dd7e 233f 3104 15be
00000060: af77 d2bd 73c3 c2bd 5808 9dbf d8f0 003e
00000070: ae97 8e3e c2d3 82bc b2b0 6dbf ead6 a1c0
00000080: b460 cfbf e08c 8bbe e9ff 233f 7a60 03bf
00000090: 28fc 54c0 b49f cc3e f749 54c0 3a9c aebd
000000a0: a7c0 d5be 1d18 c5bf 2e4b 063f 60d9 9cbf
000000b0: 805a e0bd 90b6 9fbf 657f 12c0 e386 a4bc
000000c0: 6f68 86c0 87d7 303e

f2_fc2.bias f4 [10]
-4.7195 2.9358616 8.639761 -0.5988056 3.0719547 0.35143918 5.202539 3.047432
1.6028734 6.2847176
00000000: 2506 97c0 28e5 3b40 763c 0a41 534b 19bf
00000010: e89a 4440 d6ef b33e 337b a640 2009 4340
00000020: f52a cd3f 681c c940

f2_fc3.weight f4 [5, 10]
-1.3087572 -0.9864312 1.0734333 -0.8178811 -0.032018162 0.10573148 -4.5758533 -1.1897392
-2.9655724 -1.1170704 0.45988023 -0.5900304 -2.15893 -3.657274 1.5746309 -2.075597
-1.6606616 0.5927038 -2.2353847 0.014515763 -0.28594142 -0.119322464 0.5150166 1.0417727
-0.72359973 0.23104814 -0.34978324 -0.2900001 -2.2685907 0.5578361 -1.0361928 -0.7110755
0.48510495 -1.3467716 -0.9841933 0.8840213 -2.6076775 0.45131955 -2.234397 -0.8907443
-0.06646517 -0.11947179 -1.3063307 1.0773014 -1.931613 0.192232 0.2933933 -0.33285728
1.0599167 0.32085747
00000000: 5b85 a7bf c186 7cbf 4366 893f a860 51bf
00000010: 7a25 03bd bf89 d83d 646d 92c0 6049 98bf
00000020: f0cb 3dc0 2afc 8ebf 6c75 eb3e 3b0c 17bf
00000030: e92b 0ac0 c710 6ac0 818d c93f 95d6 04c0
00000040: 8f90 d4bf 70bb 173f 8b10 0fc0 86d3 6d3c
00000050: ea66 92be 565f f4bd 21d8 033f cf58 853f
00000060: d53d 39bf e297 6c3e ca16 b3be e57a 94be
00000070: 9730 11c0 59ce 0e3f f7a1 84bf 0b09 36bf
00000080: ad5f f83e 0363 acbf 18f4 7bbf 384f 623f
00000090: 30e4 26c0 5b13 e73e 5c00 0fc0 d207 64bf
000000a0: e41e 88bd a0ad f4bd d835 a7bf 03e5 893f
000000b0: 183f f7bf 77d8 443e a637 963e 456c aabe
000000c0: 5aab 873f 6e47 a43e

f2_fc3.bias f4 [5]
-0.24621136 -0.4454077 -0.54918426 -0.3749229 0.43245292
00000000: d51e 7cbe 7a0c e4be 5797 0cbf e5f5 bfbe
00000010: 786a dd3e

f2_fc4.weight f4 [1, 5]
-1.2078049 -0.5685357 -0.6043743 1.6944731 0.6024939
00000000: 5a99 9abf 8e8b 11bf 46b8 1abf 7fe4 d83f
00000010: 0a3d 1a3f

f3_fc1.weight f4 [5, 2]
-0.1323183 -0.038130652 0.20584534 0.26262665 -0.06697884 -0.015339566 0.64530057 0.15963215
0.043099415 -0.035843574
00000000: 737e 07be e32e 1cbd 1fc9 523e 0077 863e
00000010: 342c 89bd ce52 7bbc 6b32 253f 9c76 233e
00000020: 0389 303d b6d0 12bd

f3_fc1.bias f4 [5]
-1.695521 2.5704312 1.2132676 -4.480365 -5.445761
00000000: d506 d9bf f281 2440 5a4c 9b3f 265f 8fc0
00000010: ad43 aec0

f3_fc2.weight f4 [10, 5]
0.029414544 0.25585288 0.7997747 -0.19710223 -0.044751074 0.0116847595 0.31472912 -0.49542877
0.071446136 -0.5519267 -0.2305365 0.45019922 0.2633343 0.4142295 0.47469047 -1.5315515
0.009232026 -1.4776051 -0.080444284 -0.9758959 -1.8839794 0.23207289 -2.1170404 -0.23685761
-2.1422317 0.2604271 0.0023230978 -1.2530309 -0.049305942 0.36544368 0.21277149 -0.28356177
0.9668159 0.21707393 -1.0148822 -3.3284686 0.018225588 -3.100772 -0.17665084 -2.156949
0.84212184 0.050451428 0.81380683 0.19803259 0.6619634 -2.1306221 0.0110979965 -0.93574256
-0.11278307 -1.5776302
00000000: c5f6 f03c 26ff 823e 09be 4c3f 2bd5 49be
00000010: e74c 37bd 6f71 3f3c 2d24 a13e d7a8 fdbe
00000020: 5a52 923d 114b 0dbf c311 6cbe 8380 e63e
00000030: c1d3 863e e415 d43e a10a f33e e109 c4bf
00000040: ec41 173c 2a22 bdbf f9bf a4bd 50d4 79bf
00000050: 3d26 f1bf 84a4 6d3e 977d 07c0 cd8a 72be
00000060: 531a 09c0 b356 853e 1d3f 183b 5163 a0bf
00000070: 07f5 49bd 6f1b bb3e c5e0 593e 022f 91be
00000080: 3f81 773f a148 5e3e a9e7 81bf a105 55c0
00000090: d44d 953c 0c73 46c0 f5e3 34be 740b 0ac0
000000a0: 4c95 573f 28a6 4e3d a555 503f 0ec9 4a3e
000000b0: 6f76 293f 1d5c 08c0 5fd4 353c d38c 6fbf
000000c0: cffa e6bd c9ef c9bf

f3_fc2.bias f4 [10]
-0.3719075 0.563906 -0.37362003 1.5062883 1.956571 -0.4979776 -0.15442368 3.1338668
-0.9864151 1.8374679
00000000: a96a bebe 255c 103f 204b bfbe 0ece c03f
00000010: eb70 fa3f ecf6 febe 3e21 1ebe 4691 4840
00000020: b385 7cbf 2632 eb3f

f3_fc3.weight f4 [5, 10]
-0.15843199 0.03477904 -0.077812545 0.2953206 0.22708428 0.3349961 0.18592922 -0.42408323
0.2470629 0.32651505 -0.06040554 0.06942234 -0.13051301 0.12447526 0.23578136 -0.38571337
0.02875626 -0.203793 0.030720089 0.382486 -0.1758607 0.08055276 0.017941616 -0.5034298
0.10079827 0.41224927 0.09977641 -1.921049 -0.17683561 0.27977613 -0.044427782 -0.11898024
-0.028855365 2.6977034 0.39345255 -0.9816694 -0.55131364 -1.6669569 -0.21299478 -0.63092196
0.040713787 0.5328477 -0.28879526 3.3177388 -0.19657572 -1.4811623 -0.04385619 -1.0624791
-0.035228267 -1.0477519
00000000: ff3b 22be 7774 0e3d 2f5c 9fbd 4334 973e
00000010: c888 683e 9c84 ab3e 3b64 3e3e 7021 d9be
00000020: 0ffe 7c3e fb2c a73e cd6b 77bd 4d2d 8e3d
00000030: 34a5 05be e3ec fe3d ab70 713e 397c c5be
00000040: 4092 eb3c 1daf 50be b2a8 fb3c 34d5 c33e
00000050: d414 34be d8f8 a43d 4cfa 923c c6e0 00bf
00000060: 536f ce3d 5612 d33e 9357 cc3d efe4 f5bf
00000070: 6514 35be d13e 8f3e e8f9 35bd e9ab f3bd
00000080: 1662 ecbc 2ca7 2c40 9d72 c93e b04e 7bbf
00000090: e422 0dbf d85e d5bf 4e1b 5abe 1a84 21bf
000000a0: 80c3 263d b568 083f f9dc 93be d555 5440
000000b0: 254b 49be ba96 bdbf 8ca2 33bd 51ff 87bf
000000c0: 844b 10bd bc1c 86bf

f3_fc3.bias f4 [5]
-0.1360577 -0.1363233 -0.25846893 0.9848025 1.7640724
00000000: b652 0bbe 5698 0bbe 0a56 84be 041c 7c3f
00000010: 20cd e13f

f3_fc4.weight f4 [1, 5]
0.5445962 0.15731972 0.78439075 0.63648933 1.2469381
00000000: a86a 0b3f 6c18 213e d5cd 483f f7f0 223f
00000010: ab9b 9f3f
