data/Crossing_waves/Poly/seed=9/Crossing_waves.pth (torch, 8696 bytes, 14 tensors)

f1_fc1.weight f4 [5, 2]
0	0x3d2fd456	0.04292711
1	0x3f6c6d92	0.9235469
2	0xbe03023c	-0.12793821
3	0x3e1db703	0.15401845
4	0x3ec7145f	0.3888273
5	0x3f8acad0	1.0843143
6	0xbd0f400c	-0.03497319
7	0xbdc6b59d	-0.09702609
8	0xbd67347b	-0.056446534
9	0xbe4680db	-0.19385092

f1_fc1.bias f4 [5]
0	0x40a0945d	5.0181108
1	0x417f95ac	15.974041
2	0xc116338a	-9.387583
3	0x3dc0899c	0.09401247
4	0x4046d7d4	3.106923

f1_fc2.weight f4 [10, 5]
0	0x3f809ea1	1.004841
1	0xbff6bfa6	-1.9277236
2	0xbf48d8a8	-0.7845559
3	0xc0f8dd4a	-7.777013
4	0xc0a5949f	-5.174392
5	0x3dccb090	0.09994614
6	0x3ea3fe6d	0.3203005
7	0xbc8b9743	-0.0170399
8	0xbf534ad4	-0.82536054
9	0xbe8081a5	-0.2509891
10	0xbe60a554	-0.21938068
11	0x3e2d34e0	0.16914701
12	0x3eb22d5e	0.34800237
13	0x3f912e23	1.1342205
14	0x3ef4b322	0.47792917
15	0x3ec5454c	0.38529432
16	0xbeff640a	-0.4988101
17	0x3df9f910	0.12205708
18	0xbe9d1b2a	-0.30684787
19	0x3fc9500e	1.5727556
20	0xbe982838	-0.29718184
21	0x3fae790e	1.3630693
22	0xbcf3e0bf	-0.029770253
23	0xc035f258	-2.8429165
24	0xbfd37798	-1.6520872
25	0x3fa48418	1.2852812
26	0xc0663849	-3.5971854
27	0xbe5f5e76	-0.21813378
28	0xc01bdb5e	-2.435264
29	0xc0b397c2	-5.612275
30	0x3e572131	0.21008755
31	0xbbcb4ce2	-0.0062042335
32	0x3f29668f	0.66172117
33	0x40970f3d	4.72061
34	0x4073cd35	3.8093998
35	0x3de58eeb	0.112089
36	0xbf44d6ce	-0.76890266
37	0x3edb000c	0.42773473
38	0x3fe63148	1.798379
39	0x3fb9d0f1	1.4516889
40	0xbe912387	-0.28347418
41	0x3f2e4d42	0.68086636
42	0xbe1fc36c	-0.15601891
43	0xc01cebaa	-2.4518838
44	0xbfd71b4e	-1.6805208
45	0xbc90fa4c	-0.017697476
46	0x3eaedf82	0.34154898
47	0xbea635c2	-0.3246289
48	0xc027e945	-2.6236126
49	0xbeeaa489	-0.45828655

f1_fc2.bias f4 [10]
0	0x410adf5a	8.679529
1	0x3ec1f152	0.37879425
2	0xbf211a41	-0.62930685
3	0x3ec5345b	0.38516507
4	0x4019c208	2.4024677
5	0x40053ab1	2.0817072
6	0xc0b6d9a5	-5.714068
7	0xc03bed82	-2.9363713
8	0x3ff611d0	1.9224186
9	0x3fb813d7	1.4381055

f1_fc3.weight f4 [5, 10]
0	0xc0502607	-3.252321
1	0x3e2b6108	0.16736233
2	0xbe166236	-0.14685902
3	0xbeda4362	-0.42629534
4	0x3fb37c50	1.4022312
5	0x3f19fdd9	0.60152966
6	0xbf274a74	-0.6534798
7	0xbf74b08d	-0.95581895
8	0xc00e8224	-2.2266932
9	0xc00a9657	-2.165426
10	0xc074ca72	-3.8248563
11	0x3e992d10	0.29917192
12	0xbf896b63	-1.0735897
13	0x3f200d68	0.62520456
14	0x3f8358c7	1.0261468
15	0x3fd8797c	1.6912074
16	0xbf79f6cf	-0.97642225
17	0xbf9da043	-1.2314533
18	0xbe06f1ea	-0.1317822
19	0xc072ded1	-3.7948496
20	0xbfe02e54	-1.7514138
21	0x3e9d581d	0.30731288
22	0x3de6d371	0.11270798
23	0xbee5a0be	-0.448492
24	0xbfab80b4	-1.3398652
25	0x3dc147f1	0.0943755
26	0x3dced2bc	0.10098788
27	0xbd92f968	-0.07176477
28	0xc00f6067	-2.240259
29	0xbfeb62bd	-1.8389508
30	0x40009753	2.009236
31	0x3f18fb09	0.5975805
32	0x3fac2401	1.3448488
33	0xbfa98adf	-1.3245505
34	0x3e3814ba	0.17976657
35	0x3fb160dd	1.3857685
36	0xbfb8332c	-1.4390616
37	0xbfa91d11	-1.3211995
38	0xc00a3440	-2.159439
39	0x3fe9edfc	1.8275752
40	0xc0242bbf	-2.56517
41	0x3e5dd234	0.21662217
42	0x3de74db2	0.11294116
43	0x3dc8c8f0	0.09803951
44	0x3ed1a81f	0.4094858
45	0xbf0daec6	-0.5534481
46	0x3d29c53b	0.04144786
47	0xbeb44018	-0.3520515
48	0xbf755bc7	-0.95843166
49	0xbf2a4a5c	-0.66519713

f1_fc3.bias f4 [5]
0	0x3ff7fd9f	1.9374274
1	0x405618a1	3.3452532
2	0x3fc47eac	1.5351157
3	0x3fab2830	1.3371639
4	0x3e55236d	0.20814295

f1_fc4.weight f4 [1, 5]
0	0x3f2cc537	0.67488426
1	0xbeb84e74	-0.35997355
2	0xbc62bebe	-0.013839422
3	0xbd28eee6	-0.041243456
4	0xbeade62b	-0.33964667

f2_fc1.weight f4 [5, 2]
0	0x3e0764a3	0.13221984
1	0x3e0dae5b	0.13836043
2	0x3cd33bd4	0.025785364
3	0x3f04a85f	0.51819414
4	0x3d781c35	0.060573775
5	0x3fe6cae9	1.8030673
6	0xbbee4089	-0.007270877
7	0xbf0d85cd	-0.5528229
8	0x3cda0bea	0.02661701
9	0xbeaedfc2	-0.3415509

f2_fc1.bias f4 [5]
0	0xc121423e	-10.078672
1	0x4004413c	2.0664816
2	0xc10ed2e4	-8.926487
3	0xc06c70de	-3.6943889
4	0x41040dd1	8.253373

f2_fc2.weight f4 [10, 5]
0	0x3d79b9d0	0.06096822
1	0x3d052846	0.03250911
2	0x40958eb9	4.673672
3	0xbfa67d13	-1.300692
4	0xbce674fe	-0.028131958
5	0xbf64f4b6	-0.894359
6	0xbe7f14d0	-0.24910283
7	0xc094484c	-4.6338253
8	0xc0ab7b6d	-5.3588166
9	0xbe7923f7	-0.24330126
10	0xc080c1b1	-4.023644
11	0xc0a42879	-5.1299405
12	0x3f699cea	0.91255057
13	0xc210d3fe	-36.207024
14	0x40324c47	2.7859056
15	0x3e320f03	0.17388539
16	0x3f139a93	0.57657737
17	0x40174d7b	2.364104
18	0x404d9c34	3.212659
19	0xbc23931c	-0.009983804
20	0xbf40e452	-0.7534839
21	0xbf034e83	-0.51291674
22	0xc05ca6e1	-3.4476855
23	0xc0a38f5c	-5.11125
24	0xbe90ad3f	-0.28257176
25	0x3edb8102	0.42871863
26	0xbdb449ce	-0.088031396
27	0x40c900a1	6.281327
28	0x400333d9	2.0500395
29	0xbeee39ed	-0.4652857
30	0xbd258d82	-0.040418155
31	0xbe9a4fac	-0.3013891
32	0xc06480ca	-3.5703607
33	0xc00d7f35	-2.210889
34	0x3cce2fcf	0.025169281
35	0x3ebc3b0e	0.36763805
36	0xbd03a318	-0.03213796
37	0x407658ee	3.8491778
38	0x400cfb47	2.2028368
39	0x3e357e34	0.17723924
40	0x3f3ea9ac	0.7447765
41	0xbea28173	-0.31739387
42	0xbf2b0971	-0.6681128
43	0x3e508bcb	0.20365827
44	0x3ebbfc0b	0.3671573
45	0xbfdcb060	-1.7241325
46	0x3fc544ae	1.5411584
47	0x3f19f763	0.6014311
48	0xbde96674	-0.113964945
49	0xbe6ffdeb	-0.23436706

f2_fc2.bias f4 [10]
0	0x406ad428	3.669199
1	0x41130fdd	9.191373
2	0x40ac0ad8	5.3763237
3	0xbe2bc80f	-0.16775535
4	0x4114a973	9.291369
5	0xc0d41ec4	-6.6287556
6	0x40250908	2.5786762
7	0xc0091040	-2.1416168
8	0xbe43226c	-0.190561
9	0xbf6ceac4	-0.92545724

f2_fc3.weight f4 [5, 10]
0	0x3ddc4d11	0.10756887
1	0x3f683f89	0.90721947
2	0xc11e586b	-9.896586
3	0xbeacd14a	-0.33753425
4	0x3b6e0d46	0.003632383
5	0xbf3b4f51	-0.731679
6	0xbee6dbf8	-0.45089698
7	0x3f6ebf7c	0.9326093
8	0xc08b5d90	-4.355171
9	0xc072d783	-3.7944038
10	0xbebd4506	-0.36966723
11	0xbf14af3a	-0.58079875
12	0x3d4c1054	0.04982026
13	0xbdf41dff	-0.11919784
14	0xbf2f240a	-0.68414366
15	0xbf5d8f14	-0.86546445
16	0xbf27c692	-0.6553737
17	0xbe00e28d	-0.12586422
18	0x3e680a46	0.22660169
19	0xbe78693b	-0.24258892
20	0xbe15f4ac	-0.14644116
21	0xc0cbcf8c	-6.3690853
22	0xbf982009	-1.1884776
23	0xbe9b53c4	-0.30337346
24	0xc0d2b8a8	-6.585041
25	0x3c99e1e9	0.01878448
26	0xc15d00a5	-13.812657
27	0xbead5e8e	-0.33861202
28	0xc02f3899	-2.7378294
29	0xc0a09517	-5.0181994
30	0xbe30908a	-0.17242637
31	0xbff5a133	-1.9189819
32	0xbd5be970	-0.05368942
33	0x3eafaf9e	0.34313673
34	0x3f103b10	0.5634012
35	0xbf959253	-1.168528
36	0x3f09c636	0.5381807
37	0x3e916cf6	0.28403443
38	0xbe0237a7	-0.12716542
39	0xbd9e6d7c	-0.07735726
40	0xbf153e5e	-0.5829829
41	0xbf9904b4	-1.195456
42	0x3dc60b23	0.09670093
43	0x3b2ad7fa	0.0026068673
44	0x3ec1cb33	0.3785034
45	0xbfd139b5	-1.6345736
46	0xbf034ff9	-0.51293904
47	0x3e5e46bf	0.21706675
48	0x3e3f733d	0.18696304
49	0x3eae50a2	0.34045893

f2_fc3.bias f4 [5]
0	0xbe128069	-0.14306797
1	0x3e8b3796	0.27190846
2	0xbf3122f9	-0.6919399
3	0xbe462bbe	-0.19352624
4	0x3ed3d743	0.4137517

f2_fc4.weight f4 [1, 5]
0	0x3f1f1ef5	0.6215661
1	0xbfbf9957	-1.4968671
2	0x3ea39eaa	0.3195699
3	0x3eda9e5e	0.4269895
4	0x3f333212	0.69998276
