data/Crossing_waves/Poly/seed=50/Crossing_waves.pth (torch, 8696 bytes, 14 tensors)

f1_fc1.weight f4 [5, 2]
0	0x3f0202d0	0.5078554
1	0xbeec5b07	-0.46163198
2	0xbd7c3f98	-0.061584085
3	0xbe14c2d5	-0.14527448
4	0xbd8e47b6	-0.069472715
5	0xbe1801e6	-0.14844474
6	0x3e1d5912	0.15366009
7	0x3cc175fc	0.02361583
8	0x3e81d203	0.2535554
9	0x3f310fe3	0.69164866

f1_fc1.bias f4 [5]
0	0xc117be5b	-9.4839735
1	0x3d5a39ad	0.05327766
2	0x401241cc	2.285266
3	0x402d63af	2.7092092
4	0xc01c05b7	-2.4378488

f1_fc2.weight f4 [10, 5]
0	0x3d7a8faf	0.061172184
1	0x3f3a23ad	0.72710687
2	0x3f37f0bc	0.71851707
3	0xbebca8ad	-0.3684744
4	0xbf16f6c2	-0.5897027
5	0x3dc52058	0.0962531
6	0x3f12c76e	0.57335556
7	0xc02fb9e3	-2.7457206
8	0x3deafba9	0.114737816
9	0xbea806f0	-0.32817793
10	0x3d222909	0.039589915
11	0xbf510c87	-0.8165974
12	0x3fba3a9d	1.4549137
13	0x3eae6320	0.3406
14	0xbeef5ca5	-0.4675037
15	0xbf08e4ea	-0.53474295
16	0xbfbe0d03	-1.4847721
17	0x3fa51095	1.2895685
18	0x3ed9cf7e	0.42541116
19	0xbee9bd42	-0.45652205
20	0x3ec4a294	0.38405287
21	0x402e2c35	2.7214482
22	0x40033489	2.0500815
23	0xbe9d86d3	-0.30766925
24	0x3eacefd6	0.3377673
25	0x3e53b9d4	0.20676357
26	0x3e4c60e3	0.19958834
27	0x4047c48a	3.1213708
28	0xbdd67c66	-0.10472946
29	0x3f2c4c93	0.67304343
30	0xbe1fe776	-0.15615639
31	0xc01b70a6	-2.4287505
32	0x40138700	2.3051147
33	0x3d4c0107	0.049805667
34	0xbf2a1a3d	-0.66446286
35	0x3fa7fa14	1.3123193
36	0x3fac497d	1.3459927
37	0x40245ab9	2.5680373
38	0x3f35c931	0.7101012
39	0x3c45b07e	0.012066005
40	0x3e827557	0.25480148
41	0xc0db64e4	-6.8560658
42	0xbeef6ae5	-0.46761242
43	0xbf2d7bf8	-0.67767286
44	0xc069faaa	-3.6559243
45	0x3f001ebd	0.500469
46	0xc033138c	-2.798068
47	0xc0adbdea	-5.429433
48	0xbf78f813	-0.9725353
49	0xbf004619	-0.5010696

f1_fc2.bias f4 [10]
0	0x3eb185de	0.34672445
1	0x3f38e6e2	0.722273
2	0x3f41b4a4	0.7566626
3	0xbf70318c	-0.938256
4	0xc00b4137	-2.1758554
5	0xbf5b7a78	-0.8573375
6	0x3eabb64b	0.33537516
7	0xc0a975cf	-5.295631
8	0xc0776618	-3.8656063
9	0x3f273612	0.6531688

f1_fc3.weight f4 [5, 10]
0	0x3f9cc18d	1.2246567
1	0x403d6ecf	2.9598882
2	0x3f8e2f4e	1.1108186
3	0xbeedc576	-0.46439713
4	0xbf69332e	-0.9109372
5	0x3dd02a33	0.10164299
6	0xbd957e14	-0.07299438
7	0x3eafaa9a	0.34309846
8	0x3fb84c00	1.4398193
9	0x3f2a01c1	0.66408926
10	0x3f738673	0.9512703
11	0x4033f263	2.811669
12	0x3f14b96c	0.5809543
13	0x3eff92a5	0.49916568
14	0xbe13794e	-0.14401743
15	0xbf23dde4	-0.64010453
16	0x3e2fc56d	0.17165156
17	0x3e6e5444	0.23274332
18	0x40012e9a	2.0184693
19	0xbfbfcc51	-1.4984227
20	0xbe6a6977	-0.22891794
21	0x3f54367a	0.82895625
22	0xbec72def	-0.38902232
23	0x3e5043ea	0.20338407
24	0x3f250b77	0.6447062
25	0xbe0ff5d1	-0.14058615
26	0x3e9ed48d	0.31021538
27	0x3efc7f3d	0.49315825
28	0xbe9e61e4	-0.3093406
29	0x3fb81f8e	1.438463
30	0x3fa527e7	1.2902802
31	0xbfd23399	-1.6421996
32	0xbe848d42	-0.2588902
33	0x3f8f098e	1.1174791
34	0xbdd70185	-0.10498337
35	0x3ecf11cf	0.40443274
36	0xbf425dbc	-0.7592428
37	0x3f0e56cb	0.55601186
38	0x3fd40f35	1.6567141
39	0x3fb95948	1.4480371
40	0x3dd1ce2d	0.10244403
41	0x40267dc0	2.6014252
42	0x3f4796ac	0.7796428
43	0xbdfced6b	-0.123499714
44	0xbec3bab5	-0.38228384
45	0xbce39b8e	-0.027784135
46	0x3d8e1cd2	0.06939091
47	0x3e64b987	0.22336398
48	0x3f5c0979	0.85951954
49	0xbe852285	-0.260029

f1_fc3.bias f4 [5]
0	0xbf8d4f98	-1.1039915
1	0xbfda775c	-1.7067676
2	0x3f1c71ef	0.6111135
3	0xbfe28def	-1.7699565
4	0xbf91cdc7	-1.1390923

f1_fc4.weight f4 [1, 5]
0	0xbe5c6415	-0.21522553
1	0x3eb3609c	0.35034645
2	0x3ef8152a	0.48453647
3	0xbed1bc11	-0.40963796
4	0xbe36fd83	-0.17870145

f2_fc1.weight f4 [5, 2]
0	0xbe146d95	-0.14494927
1	0xbd07b49c	-0.033131227
2	0xbd981da1	-0.07427526
3	0xbd8fe25e	-0.07025598
4	0x3d1c3745	0.038138647
5	0xbf0d87e4	-0.5528548
6	0x3e86a42e	0.26297134
7	0xbf10bb5f	-0.56535906
8	0xbcf3717b	-0.029717198
9	0x3e2161e1	0.15759994

f2_fc1.bias f4 [5]
0	0x41065c7f	8.397582
1	0x409cb101	4.896607
2	0x40629be7	3.5407655
3	0xc1052200	-8.320801
4	0x3f43b413	0.76446646

f2_fc2.weight f4 [10, 5]
0	0x3ec4a5ab	0.38407645
1	0xbe430c00	-0.19047546
2	0xbeabae7b	-0.33531556
3	0x3d86706e	0.06564413
4	0xbc860a67	-0.016362382
5	0xbff7743e	-1.9332349
6	0x3f85ca05	1.0452276
7	0x3e181d83	0.14855008
8	0xbf3b8dd5	-0.73263294
9	0xc058f291	-3.389805
10	0xc0111292	-2.2667584
11	0x3ff23f6a	1.8925602
12	0x3f1bfc71	0.6093207
13	0xbf23ef80	-0.64037323
14	0xba01fbec	-0.0004958499
15	0x3d83630f	0.06415378
16	0xbc438fac	-0.0119361095
17	0xbe158d54	-0.14604694
18	0x3dc8a7e2	0.09797646
19	0xbed09c15	-0.4074408
20	0xc10a70c2	-8.652529
21	0x4100f18c	8.058971
22	0x3ed2f733	0.41204223
23	0xbf153053	-0.5827686
24	0x409af121	4.8419347
25	0xbe3d40be	-0.18481728
26	0x3e46c5ad	0.19411345
27	0x3e359b96	0.17735133
28	0x3e8fb400	0.28067017
29	0x3e161fbc	0.14660543
30	0xbf57bb68	-0.84270334
31	0x3fb8ed18	1.4447355
32	0x3e3b5418	0.18293798
33	0xbf0aec4f	-0.5426683
34	0x3ea60ff4	0.32434046
35	0xc0b69814	-5.706064
36	0x3fc7a6c3	1.5597767
37	0x3f3ced86	0.7379993
38	0xbe58f038	-0.21185386
39	0x40700442	3.7502599
40	0x3f8fc28f	1.123125
41	0xc007cab0	-2.121746
42	0x3e3498eb	0.17636459
43	0x3efabb60	0.4897108
44	0xbd23a7a0	-0.03995478
45	0x3f120fa7	0.57055134
46	0xbe5c5ace	-0.21519014
47	0xbda4f24b	-0.08054026
48	0x3e5f1253	0.21784334
49	0x3eddc463	0.43313894

f2_fc2.bias f4 [10]
0	0x3fd8d12d	1.6938835
1	0x40459bd9	3.0876372
2	0x3e4963d3	0.19666986
3	0x3c94d9e4	0.018170305
4	0xc006fd98	-2.1092281
5	0x3e8ede92	0.27904183
6	0x3e2ff394	0.17182761
7	0xc0a4f588	-5.154972
8	0x3ecdd647	0.40202543
9	0xbf991edd	-1.1962544

f2_fc3.weight f4 [5, 10]
0	0xbf1013fa	-0.5628048
1	0x4050204b	3.251971
2	0xc01cfb2d	-2.4528306
3	0xbf343b5f	-0.70403093
4	0xbe8f8daf	-0.28037784
5	0xbe0dca86	-0.13846788
6	0xbf2d8f05	-0.67796355
7	0xbfcb28b5	-1.5871798
8	0xbfa3b7d6	-1.2790477
9	0x3e6d8a55	0.231973
10	0x3f1d6e87	0.61496776
11	0x3f07ac36	0.5299715
12	0x3f321751	0.6956683
13	0x3da84a80	0.08217335
14	0xbf4f0771	-0.8087073
15	0xbdf5d9e6	-0.120044515
16	0xbf01d428	-0.5071435
17	0xbeb0c9ae	-0.3452887
18	0xbf3e78b8	-0.7440295
19	0xbd6de59e	-0.05808031
20	0x3e4bd61d	0.19905896
21	0x3e26d940	0.16293812
22	0xbee767d3	-0.451964
23	0xbe277934	-0.16354829
24	0xbda63efa	-0.081174806
25	0x3e963524	0.29337418
26	0xbc9efb00	-0.019406796
27	0xbfe5688e	-1.7922533
28	0xbdc54566	-0.09632377
29	0xbe1d3b9b	-0.15354769
30	0xc044f19c	-3.0772467
31	0x403561f9	2.8341048
32	0xc083140a	-4.096196
33	0x3f1a0ee3	0.60178965
34	0x40040b4d	2.0631897
35	0x3e7e8153	0.24854021
36	0x3f6b0644	0.91806436
37	0x3f112316	0.5669416
38	0x3daca5c8	0.08430058
39	0xbfa54282	-1.2910922
40	0x3e52c0f9	0.20581426
41	0x4001c214	2.0274706
42	0xbf87cc73	-1.0609268
43	0xbedfec1b	-0.43734822
44	0xbf21b7d9	-0.63171154
45	0xbcaf3e1e	-0.021391924
46	0xbf0210af	-0.5080671
47	0x3e888e42	0.26671034
48	0xbf70a1d5	-0.93996936
49	0xbc362726	-0.011117732

f2_fc3.bias f4 [5]
0	0x3e60105d	0.21881242
1	0x3e67eaf3	0.2264822
2	0x3eb1a142	0.34693342
3	0xbffb7c3b	-1.9647287
4	0x3f68b484	0.90900445

f2_fc4.weight f4 [1, 5]
0	0x3f01e753	0.507436
1	0x3eff25c6	0.49833506
2	0x3e9e2521	0.30887702
3	0x3f0ced8a	0.55049956
4	0xbf75f1ad	-0.9607189
