data/Crossing_waves/Poly/seed=15/Crossing_waves.pth (torch, 8696 bytes, 14 tensors)

f1_fc1.weight f4 [5, 2]
-0.055265926 0.17366962 0.11383135 -0.5839689 0.30284408 -1.5474004 -0.016362075 -1.6365981
-0.04170372 0.044210438
00000000: 865e 62bd 73d6 313e 6920 e93d fc7e 15bf
00000010: 610e 9b3e 3711 c6bf c209 86bc 0c7c d1bf
00000020: 85d1 2abd 0116 353d

f1_fc1.bias f4 [5]
5.070503 1.1841037 -2.3754227 0.64087886 5.468892
00000000: 9041 a240 b690 973f ed06 18c0 a310 243f
00000010: 2a01 af40

f1_fc2.weight f4 [10, 5]
-4.907439 -0.07543891 -0.51172686 0.8641887 4.9573584 2.4368792 -0.003466678 0.03525473
0.7148358 0.77579105 -5.251383 0.21994655 -0.37992284 0.24000257 2.6101646 4.2557044
-0.13928702 0.06894616 0.16117536 1.0928787 1.5647697 -0.5586052 0.45400304 -0.88301325
-3.7533903 -0.8015962 0.49640286 -0.04179556 -0.5041795 -2.380365 -2.9452577 -0.45023134
-0.14499502 0.2786534 3.231337 -4.6544013 0.043231994 -0.118586905 -1.167173 0.0317696
-0.61268103 -0.20106179 0.17552593 0.36873314 -1.2398101 -0.44795942 -0.08291299 0.045767374
1.3603 0.8510174
00000000: be09 9dc0 b77f 9abd 8800 03bf 783b 5d3f
00000010: aea2 9e40 d4f5 1b40 3531 63bb 4467 103d
00000020: 7bff 363f 3e9a 463f 540b a8c0 ab39 613e
00000030: 3f85 c2be 3cc3 753e f00c 2740 bb2e 8840
00000040: 42a1 0ebe a533 8d3d 270b 253e 73e3 8b3f
00000050: 604a c83f c000 0fbf 1673 e83e 280d 62bf
00000060: 8c37 70c0 6935 4dbf 8428 fe3e d231 2bbd
00000070: e811 01bf e657 18c0 1a7f 3cc0 b984 e6be
00000080: 9379 14be a9ab 8e3e 3ace 4e40 dbf0 94c0
00000090: 0814 313d b1dd f2bd ed65 95bf d720 023d
000000a0: aad8 1cbf 24e3 4dbe 12bd 333e 97ca bc3e
000000b0: 19b2 9ebf f05a e5be 49ce a9bd 9276 3b3d
000000c0: 4f1e ae3f 47dc 593f

f1_fc2.bias f4 [10]
2.5857067 -1.2481228 2.0034423 -0.18790042 0.41651335 -0.4122209 5.6711464 3.6973307
-0.67713463 0.1028568
00000000: 387c 2540 7dc2 9fbf 6638 0040 f868 40be
00000010: 3d41 d53e 9e0e d3be 087a b540 11a1 6c40
00000020: b258 2dbf 96a6 d23d

f1_fc3.weight f4 [5, 10]
0.9218327 0.18027906 -1.9132588 0.28240922 0.12664358 0.3836088 0.18675566 -0.6814632
0.38124338 -0.17038123 -0.3828849 -0.1247143 1.4886334 0.03687574 0.47375274 -0.029363869
-0.11423654 0.7205085 -0.2051505 0.45071423 2.3805528 0.1056943 -0.605888 0.33110204
-0.19387326 0.30954966 -4.3453407 -0.68064797 0.35827377 -0.28974453 -0.56683356 -0.36226085
1.7983818 0.051336844 -0.8061336 0.7293855 -0.89819694 -0.15351771 -0.975696 0.29635763
0.49064803 0.37156513 -1.533654 0.0032761344 0.51091653 -0.89982 0.17369422 -0.19630408
-0.029356088 -0.21757689
00000000: 3afd 6b3f 139b 383e aae5 f4bf f197 903e
00000010: dbae 013e 5f68 c43e e03c 3f3e 5f74 2ebf
00000020: 5532 c33e 6b78 2ebe 7d09 c4be 366a ffbd
00000030: 8a8b be3f 040b 173d b88f f23e 7f8c f0bc
00000040: d9f4 e9bd 3f73 383f f912 52be 04c4 e63e
00000050: fa5a 1840 4176 d83d 7a1b 1bbf 3586 a93e
00000060: b686 46be 4b7d 9e3e 080d 8bc0 f23e 2ebf
00000070: a96f b73e 6559 94be 011c 11bf 417a b9be
00000080: 6031 e63f 9546 523d c65e 4ebf 02b9 3a3f
00000090: 3cf0 65bf bf33 1dbe 37c7 79bf 30bc 973e
000000a0: 3836 fb3e c93d be3e c64e c4bf 6ab4 563b
000000b0: 6dcb 023f 9b5a 66bf e6dc 313e f003 49be
000000c0: 2e7c f0bc 7acc 5ebe

f1_fc3.bias f4 [5]
0.046023205 0.07371245 -0.28182483 0.64171535 0.9203006
00000000: d482 3c3d 8ef6 963d 584b 90be 7547 243f
00000010: d298 6b3f

f1_fc4.weight f4 [1, 5]
-0.3216382 0.24491291 0.55986154 0.47893378 0.5721608
00000000: c3ad a4be 73ca 7a3e 1653 0f3f cf36 f53e
00000010: 2179 123f

f2_fc1.weight f4 [5, 2]
0.53745514 -1.9142824 -0.0020171525 8.333797 -0.107502766 -0.84202427 -0.020088322 -0.6178748
-0.087430626 1.1522495
00000000: a996 093f 3507 f5bf 3432 04bb 3c57 0541
00000010: 692a dcbd e78e 57bf 4490 a4bc 0b2d 1ebf
00000020: d40e b3bd e97c 933f

f2_fc1.bias f4 [5]
-11.515567 -4.129379 17.536594 7.9913635 9.222121
00000000: c33f 38c1 df23 84c0 f24a 8c41 40b9 ff40
00000010: cf8d 1341

f2_fc2.weight f4 [10, 5]
-0.033959832 0.21948472 -3.1988626 1.2173464 -1.4446518 0.3464682 -0.32698244 0.30382106
-0.8386245 2.1939058 0.057361394 0.46601942 -0.58659965 -1.537648 -1.1745048 0.3230306
-0.6425645 -2.9375763 -3.6243174 3.5509853 -1.0870405 2.7269907 -4.4635396 9.140137
-8.086535 0.035543144 0.2665738 0.43337232 -1.1314119 -0.15517741 -0.4402259 0.0097773895
-2.6149776 6.171615 -0.13640831 0.093122326 -0.4351443 -2.4259167 1.0780581 2.5198882
0.21562733 -0.08457434 -2.0620294 -0.3596504 0.3359928 -0.54319465 1.6960227 -7.3082943
12.587899 3.3980513
00000000: 7719 0bbd 9ac0 603e 2aba 4cc0 02d2 9b3f
00000010: 5aea b8bf 4864 b13e 3e6a a7be 6f8e 9b3e
00000020: 18b0 56bf f468 0c40 c8f3 6a3d 199a ee3e
00000030: 652b 16bf a6d1 c4bf 2c56 96bf 4464 a53e
00000040: 1b7f 24bf 4001 3cc0 d1f4 67c0 5843 6340
00000050: 2524 8bbf 0487 2e40 51d5 8ec0 003e 1241
00000060: 7362 01c1 b095 113d 5c7c 883e fae2 dd3e
00000070: 1bd2 90bf d4e6 1ebe 4a65 e1be 5831 203c
00000080: cb5b 27c0 df7d c540 9fae 0bbe ebb6 be3d
00000090: 3ccb debe 3842 1bc0 cffd 893f d945 2140
000000a0: 69cd 5c3e 5035 adbd 4af8 03c0 1924 b8be
000000b0: 4007 ac3e ce0e 0bbf 4617 d93f 8cdd e9c0
000000c0: 0968 4941 ac79 5940

f2_fc2.bias f4 [10]
-6.1674757 -8.732976 0.90913993 -12.41618 -2.596923 2.8415096 7.014538 -0.50682324
0.20200948 -8.292835
00000000: f65b c5c0 45ba 0bc1 65bd 683f aca8 46c1
00000010: fd33 26c0 4bdb 3540 1877 e040 2bbf 01bf
00000020: 93db 4e3e 74af 04c1

f2_fc3.weight f4 [5, 10]
-0.17345192 -0.4997498 0.04569136 -2.4368627 -0.8013978 0.4782669 0.1544151 0.2174185
-0.14027935 0.3338174 0.57722676 -0.35723665 0.22633584 -1.5118755 -0.6173825 0.2611212
0.34115648 0.6365184 -0.37902293 0.29378808 0.9678148 -1.9188881 -0.7715008 -0.97125983
-0.00016289527 -1.4210052 -2.3206735 1.1996891 0.6384366 0.27923736 -0.32335863 -0.42008993
0.26240417 -1.6417449 -0.88985234 0.18269442 0.40016073 0.60696375 -0.08523222 0.45785856
-0.94615513 -0.53468186 0.1772821 -1.3278488 -1.0902344 0.28879997 0.32248956 0.38130254
0.11221878 0.5361599
00000000: 619d 31be 35df ffbe dd26 3b3d 8ff5 1bc0
00000010: 6828 4dbf 66df f43e fe1e 1e3e f5a2 5e3e
00000020: 64a5 0fbe 1dea aa3e 22c5 133f b9e7 b6be
00000030: 95c4 673e 2385 c1bf c80c 1ebf aeb1 853e
00000040: 10ac ae3e dff2 223f 4b0f c2be 646b 963e
00000050: b6c2 773f 209e f5bf 1481 45bf 7ca4 78bf
00000060: dece 2ab9 80e3 b5bf ea85 14c0 6a8f 993f
00000070: 9570 233f 33f8 8e3e 438f a5be 0716 d7be
00000080: d759 863e b224 d2bf 5dcd 63bf 3f14 3b3e
00000090: dee1 cc3e fa61 1b3f 3b8e aebd 706c ea3e
000000a0: 3937 72bf e9e0 08bf 7089 353e f3f6 a9bf
000000b0: cd8c 8bbf 97dd 933e 5a1d a53e 163a c33e
000000c0: f6d2 e53d c641 093f

f2_fc3.bias f4 [5]
1.2543652 0.29031733 1.8423257 -0.20014481 1.2459457
00000000: 0a8f a03f 79a4 943e 54d1 eb3f c3f2 4cbe
00000010: 267b 9f3f

f2_fc4.weight f4 [1, 5]
-0.24969673 0.3392245 0.3647688 -0.54658073 0.43752348
00000000: 80b0 7fbe d5ae ad3e fac2 ba3e b7ec 0bbf
00000010: 1403 e03e
